name: "ResNet-18"
name: "ResNet-18"
name: "ResNet-18"
name: "ResNet-18"
name: "ResNet-18"
name: "ResNet-18"
name: "ResNet-18"
name: "ResNet-18"
name: "ResNet-18"
name: "ResNet-18"
name: "ResNet-18"
name: "ResNet-18"
name: "ResNet-18"
name: "ResNet-18"
name: "ResNet-18"
name: "ResNet-18"
name: "ResNet-18"
name: "ResNet-18"
name: "ResNet-18"
name: "ResNet-18"
name: "ResNet-18"
name: "ResNet-18"
name: "ResNet-18"
name: "ResNet-18"
name: "ResNet-18"
name: "ResNet-18"
name: "ResNet-18"
name: "ResNet-18"
name: "ResNet-18"
name: "ResNet-18"
name: "ResNet-18"
name: "ResNet-18"
name: "ResNet-18"
name: "ResNet-18"
name: "ResNet-18"
name: "ResNet-18"
name: "ResNet-18"
name: "ResNet-18"

layer {
  name: "data"
  type: "HDF5Data"
  top: "data"
  top: "label"
  include {
    phase: TRAIN
  }
  hdf5_data_param {
    source: "/mnt/lustre/duanhaodong/dataset/shanghai/part_A_final/train_data/train/train.txt"
    batch_size: 16
  }
}


layer {
    name: "reshape"
    type: "Reshape"
    bottom: "label"
    top: "label3"
    reshape_param {
        shape {
                dim: 16  # copy the dimension from below
                dim: 1
                dim: 112
                dim: 112 # infer it from the other dimensions
        }
    }
}




layer {
	bottom: "data"
	top: "conv1"
	name: "conv1_conv"
	type: "ConvolutionData"
	param {
		lr_mult: 1
		decay_mult: 1
	}
	param {
		lr_mult: 2
		decay_mult: 0
	}
	convolution_param {
		num_output: 64
		kernel_size: 7
		pad: 3
		stride: 2
		weight_filler {
			type: "guassian"
			std: 0.01
		}
		bias_filler {
			type: "constant"
		}
	}
}

layer {
	bottom: "conv1"
	top: "conv1"
	name: "conv1_bn"
	type: "BNData"
	param {
		lr_mult: 1
		decay_mult: 0
	}
	param {
		lr_mult: 1
		decay_mult: 0
	}
	param {
		lr_mult: 0
		decay_mult: 0
	}
	param {
		lr_mult: 0
		decay_mult: 0
	}
	bn_param {
		scale_filler {
			type: "constant"
			value: 1
		}
		shift_filler {
			type: "constant"
			value: 0
		}
		moving_average: true
		decay: 0.05
	}
}

layer {
	bottom: "conv1"
	top: "conv1"
	name: "conv1_relu"
	type: "ReLU"
}

layer {
	bottom: "conv1"
	top: "pool1"
	name: "pool1_conv"
	type: "Pooling"
	pooling_param {
		pool: MAX
		kernel_size: 3
		stride: 2
	}
}
layer {
	bottom: "pool1"
	top: "res2a_branch2a"
	name: "res2a_branch2a_conv"
	type: "ConvolutionData"
	param {
		lr_mult: 1
		decay_mult: 1
	}
	param {
		lr_mult: 2
		decay_mult: 0
	}
	convolution_param {
		num_output: 64
		kernel_size: 3
		pad: 1
		stride: 1
		weight_filler {
			type: "guassian"
			std: 0.01
		}
		bias_filler {
			type: "constant"
		}
	}
}

layer {
	bottom: "res2a_branch2a"
	top: "res2a_branch2a"
	name: "res2a_branch2a_bn"
	type: "BNData"
	param {
		lr_mult: 1
		decay_mult: 0
	}
	param {
		lr_mult: 1
		decay_mult: 0
	}
	param {
		lr_mult: 0
		decay_mult: 0
	}
	param {
		lr_mult: 0
		decay_mult: 0
	}
	bn_param {
		scale_filler {
			type: "constant"
			value: 1
		}
		shift_filler {
			type: "constant"
			value: 0
		}
		moving_average: true
		decay: 0.05
	}
}

layer {
	bottom: "res2a_branch2a"
	top: "res2a_branch2a"
	name: "res2a_branch2a_relu"
	type: "ReLU"
}

layer {
	bottom: "res2a_branch2a"
	top: "res2a_branch2b"
	name: "res2a_branch2b_conv"
	type: "ConvolutionData"
	param {
		lr_mult: 1
		decay_mult: 1
	}
	param {
		lr_mult: 2
		decay_mult: 0
	}
	convolution_param {
		num_output: 64
		kernel_size: 3
		pad: 1
		stride: 1
		weight_filler {
			type: "guassian"
			std: 0.01
		}
		bias_filler {
			type: "constant"
		}
	}
}

layer {
	bottom: "res2a_branch2b"
	top: "res2a_branch2b"
	name: "res2a_branch2b_bn"
	type: "BNData"
	param {
		lr_mult: 1
		decay_mult: 0
	}
	param {
		lr_mult: 1
		decay_mult: 0
	}
	param {
		lr_mult: 0
		decay_mult: 0
	}
	param {
		lr_mult: 0
		decay_mult: 0
	}
	bn_param {
		scale_filler {
			type: "constant"
			value: 1
		}
		shift_filler {
			type: "constant"
			value: 0
		}
		moving_average: true
		decay: 0.05
	}
}

layer {
	bottom: "pool1"
	top: "res2a_branch1"
	name: "res2a_branch1_conv"
	type: "ConvolutionData"
	param {
		lr_mult: 1
		decay_mult: 1
	}
	param {
		lr_mult: 2
		decay_mult: 0
	}
	convolution_param {
		num_output: 64
		kernel_size: 1
		pad: 0
		stride: 1
		weight_filler {
			type: "guassian"
			std: 0.01
		}
		bias_filler {
			type: "constant"
		}
	}
}

layer {
	bottom: "res2a_branch1"
	top: "res2a_branch1"
	name: "res2a_branch1_bn"
	type: "BNData"
	param {
		lr_mult: 1
		decay_mult: 0
	}
	param {
		lr_mult: 1
		decay_mult: 0
	}
	param {
		lr_mult: 0
		decay_mult: 0
	}
	param {
		lr_mult: 0
		decay_mult: 0
	}
	bn_param {
		scale_filler {
			type: "constant"
			value: 1
		}
		shift_filler {
			type: "constant"
			value: 0
		}
		moving_average: true
		decay: 0.05
	}
}

layer {
	bottom: "res2a_branch1"
	bottom: "res2a_branch2b"
	top: "res2a"
	name: "res2a_eltwise"
	type: "Eltwise"
	eltwise_param {
		operation: SUM
	}
}

layer {
	bottom: "res2a"
	top: "res2a"
	name: "res2a_relu"
	type: "ReLU"
}

layer {
	bottom: "res2a"
	top: "res2b_branch2a"
	name: "res2b_branch2a_conv"
	type: "ConvolutionData"
	param {
		lr_mult: 1
		decay_mult: 1
	}
	param {
		lr_mult: 2
		decay_mult: 0
	}
	convolution_param {
		num_output: 64
		kernel_size: 3
		pad: 1
		stride: 1
		weight_filler {
			type: "guassian"
			std: 0.01
		}
		bias_filler {
			type: "constant"
		}
	}
}

layer {
	bottom: "res2b_branch2a"
	top: "res2b_branch2a"
	name: "res2b_branch2a_bn"
	type: "BNData"
	param {
		lr_mult: 1
		decay_mult: 0
	}
	param {
		lr_mult: 1
		decay_mult: 0
	}
	param {
		lr_mult: 0
		decay_mult: 0
	}
	param {
		lr_mult: 0
		decay_mult: 0
	}
	bn_param {
		scale_filler {
			type: "constant"
			value: 1
		}
		shift_filler {
			type: "constant"
			value: 0
		}
		moving_average: true
		decay: 0.05
	}
}

layer {
	bottom: "res2b_branch2a"
	top: "res2b_branch2a"
	name: "res2b_branch2a_relu"
	type: "ReLU"
}

layer {
	bottom: "res2b_branch2a"
	top: "res2b_branch2b"
	name: "res2b_branch2b_conv"
	type: "ConvolutionData"
	param {
		lr_mult: 1
		decay_mult: 1
	}
	param {
		lr_mult: 2
		decay_mult: 0
	}
	convolution_param {
		num_output: 64
		kernel_size: 3
		pad: 1
		stride: 1
		weight_filler {
			type: "guassian"
			std: 0.01
		}
		bias_filler {
			type: "constant"
		}
	}
}

layer {
	bottom: "res2b_branch2b"
	top: "res2b_branch2b"
	name: "res2b_branch2b_bn"
	type: "BNData"
	param {
		lr_mult: 1
		decay_mult: 0
	}
	param {
		lr_mult: 1
		decay_mult: 0
	}
	param {
		lr_mult: 0
		decay_mult: 0
	}
	param {
		lr_mult: 0
		decay_mult: 0
	}
	bn_param {
		scale_filler {
			type: "constant"
			value: 1
		}
		shift_filler {
			type: "constant"
			value: 0
		}
		moving_average: true
		decay: 0.05
	}
}

layer {
	bottom: "res2a"
	bottom: "res2b_branch2b"
	top: "res2b"
	name: "res2b_eltwise"
	type: "Eltwise"
	eltwise_param {
		operation: SUM
	}
}

layer {
	bottom: "res2b"
	top: "res2b"
	name: "res2b_relu"
	type: "ReLU"
}

layer {
	bottom: "res2b"
	top: "res3a_branch2a"
	name: "res3a_branch2a_conv"
	type: "ConvolutionData"
	param {
		lr_mult: 1
		decay_mult: 1
	}
	param {
		lr_mult: 2
		decay_mult: 0
	}
	convolution_param {
		num_output: 128
		kernel_size: 3
		pad: 1
		stride: 2
		weight_filler {
			type: "guassian"
			std: 0.01
		}
		bias_filler {
			type: "constant"
		}
	}
}

layer {
	bottom: "res3a_branch2a"
	top: "res3a_branch2a"
	name: "res3a_branch2a_bn"
	type: "BNData"
	param {
		lr_mult: 1
		decay_mult: 0
	}
	param {
		lr_mult: 1
		decay_mult: 0
	}
	param {
		lr_mult: 0
		decay_mult: 0
	}
	param {
		lr_mult: 0
		decay_mult: 0
	}
	bn_param {
		scale_filler {
			type: "constant"
			value: 1
		}
		shift_filler {
			type: "constant"
			value: 0
		}
		moving_average: true
		decay: 0.05
	}
}

layer {
	bottom: "res3a_branch2a"
	top: "res3a_branch2a"
	name: "res3a_branch2a_relu"
	type: "ReLU"
}

layer {
	bottom: "res3a_branch2a"
	top: "res3a_branch2b"
	name: "res3a_branch2b_conv"
	type: "ConvolutionData"
	param {
		lr_mult: 1
		decay_mult: 1
	}
	param {
		lr_mult: 2
		decay_mult: 0
	}
	convolution_param {
		num_output: 128
		kernel_size: 3
		pad: 1
		stride: 1
		weight_filler {
			type: "guassian"
			std: 0.01
		}
		bias_filler {
			type: "constant"
		}
	}
}

layer {
	bottom: "res3a_branch2b"
	top: "res3a_branch2b"
	name: "res3a_branch2b_bn"
	type: "BNData"
	param {
		lr_mult: 1
		decay_mult: 0
	}
	param {
		lr_mult: 1
		decay_mult: 0
	}
	param {
		lr_mult: 0
		decay_mult: 0
	}
	param {
		lr_mult: 0
		decay_mult: 0
	}
	bn_param {
		scale_filler {
			type: "constant"
			value: 1
		}
		shift_filler {
			type: "constant"
			value: 0
		}
		moving_average: true
		decay: 0.05
	}
}

layer {
	bottom: "res2b"
	top: "res3a_branch1"
	name: "res3a_branch1_conv"
	type: "ConvolutionData"
	param {
		lr_mult: 1
		decay_mult: 1
	}
	param {
		lr_mult: 2
		decay_mult: 0
	}
	convolution_param {
		num_output: 128
		kernel_size: 1
		pad: 0
		stride: 2
		weight_filler {
			type: "guassian"
			std: 0.01
		}
		bias_filler {
			type: "constant"
		}
	}
}

layer {
	bottom: "res3a_branch1"
	top: "res3a_branch1"
	name: "res3a_branch1_bn"
	type: "BNData"
	param {
		lr_mult: 1
		decay_mult: 0
	}
	param {
		lr_mult: 1
		decay_mult: 0
	}
	param {
		lr_mult: 0
		decay_mult: 0
	}
	param {
		lr_mult: 0
		decay_mult: 0
	}
	bn_param {
		scale_filler {
			type: "constant"
			value: 1
		}
		shift_filler {
			type: "constant"
			value: 0
		}
		moving_average: true
		decay: 0.05
	}
}

layer {
	bottom: "res3a_branch1"
	bottom: "res3a_branch2b"
	top: "res3a"
	name: "res3a_eltwise"
	type: "Eltwise"
	eltwise_param {
		operation: SUM
	}
}

layer {
	bottom: "res3a"
	top: "res3a"
	name: "res3a_relu"
	type: "ReLU"
}

layer {
	bottom: "res3a"
	top: "res3b_branch2a"
	name: "res3b_branch2a_conv"
	type: "ConvolutionData"
	param {
		lr_mult: 1
		decay_mult: 1
	}
	param {
		lr_mult: 2
		decay_mult: 0
	}
	convolution_param {
		num_output: 128
		kernel_size: 3
		pad: 1
		stride: 1
		weight_filler {
			type: "guassian"
			std: 0.01
		}
		bias_filler {
			type: "constant"
		}
	}
}

layer {
	bottom: "res3b_branch2a"
	top: "res3b_branch2a"
	name: "res3b_branch2a_bn"
	type: "BNData"
	param {
		lr_mult: 1
		decay_mult: 0
	}
	param {
		lr_mult: 1
		decay_mult: 0
	}
	param {
		lr_mult: 0
		decay_mult: 0
	}
	param {
		lr_mult: 0
		decay_mult: 0
	}
	bn_param {
		scale_filler {
			type: "constant"
			value: 1
		}
		shift_filler {
			type: "constant"
			value: 0
		}
		moving_average: true
		decay: 0.05
	}
}

layer {
	bottom: "res3b_branch2a"
	top: "res3b_branch2a"
	name: "res3b_branch2a_relu"
	type: "ReLU"
}

layer {
	bottom: "res3b_branch2a"
	top: "res3b_branch2b"
	name: "res3b_branch2b_conv"
	type: "ConvolutionData"
	param {
		lr_mult: 1
		decay_mult: 1
	}
	param {
		lr_mult: 2
		decay_mult: 0
	}
	convolution_param {
		num_output: 128
		kernel_size: 3
		pad: 1
		stride: 1
		weight_filler {
			type: "guassian"
			std: 0.01
		}
		bias_filler {
			type: "constant"
		}
	}
}

layer {
	bottom: "res3b_branch2b"
	top: "res3b_branch2b"
	name: "res3b_branch2b_bn"
	type: "BNData"
	param {
		lr_mult: 1
		decay_mult: 0
	}
	param {
		lr_mult: 1
		decay_mult: 0
	}
	param {
		lr_mult: 0
		decay_mult: 0
	}
	param {
		lr_mult: 0
		decay_mult: 0
	}
	bn_param {
		scale_filler {
			type: "constant"
			value: 1
		}
		shift_filler {
			type: "constant"
			value: 0
		}
		moving_average: true
		decay: 0.05
	}
}

layer {
	bottom: "res3a"
	bottom: "res3b_branch2b"
	top: "res3b"
	name: "res3b_eltwise"
	type: "Eltwise"
	eltwise_param {
		operation: SUM
	}
}

layer {
	bottom: "res3b"
	top: "res3b"
	name: "res3b_relu"
	type: "ReLU"
}

layer {
	bottom: "res3b"
	top: "res4a_branch2a"
	name: "res4a_branch2a_conv"
	type: "ConvolutionData"
	param {
		lr_mult: 1
		decay_mult: 1
	}
	param {
		lr_mult: 2
		decay_mult: 0
	}
	convolution_param {
		num_output: 256
		kernel_size: 3
		pad: 1
		stride: 2
		weight_filler {
			type: "guassian"
			std: 0.01
		}
		bias_filler {
			type: "constant"
		}
	}
}

layer {
	bottom: "res4a_branch2a"
	top: "res4a_branch2a"
	name: "res4a_branch2a_bn"
	type: "BNData"
	param {
		lr_mult: 1
		decay_mult: 0
	}
	param {
		lr_mult: 1
		decay_mult: 0
	}
	param {
		lr_mult: 0
		decay_mult: 0
	}
	param {
		lr_mult: 0
		decay_mult: 0
	}
	bn_param {
		scale_filler {
			type: "constant"
			value: 1
		}
		shift_filler {
			type: "constant"
			value: 0
		}
		moving_average: true
		decay: 0.05
	}
}

layer {
	bottom: "res4a_branch2a"
	top: "res4a_branch2a"
	name: "res4a_branch2a_relu"
	type: "ReLU"
}

layer {
	bottom: "res4a_branch2a"
	top: "res4a_branch2b"
	name: "res4a_branch2b_conv"
	type: "ConvolutionData"
	param {
		lr_mult: 1
		decay_mult: 1
	}

	param {
		lr_mult: 2
		decay_mult: 0
	}
	convolution_param {
		num_output: 256
		kernel_size: 3
		pad: 1
		stride: 1
		weight_filler {
			type: "guassian"
			std: 0.01
		}
		bias_filler {
			type: "constant"
		}
	}
}

layer {
	bottom: "res4a_branch2b"
	top: "res4a_branch2b"
	name: "res4a_branch2b_bn"
	type: "BNData"
	param {
		lr_mult: 1
		decay_mult: 0
	}
	param {
		lr_mult: 1
		decay_mult: 0
	}
	param {
		lr_mult: 0
		decay_mult: 0
	}
	param {
		lr_mult: 0
		decay_mult: 0
	}
	bn_param {
		scale_filler {
			type: "constant"
			value: 1
		}
		shift_filler {
			type: "constant"
			value: 0
		}
		moving_average: true
		decay: 0.05
	}
}

layer {
	bottom: "res3b"
	top: "res4a_branch1"
	name: "res4a_branch1_conv"
	type: "ConvolutionData"
	param {
		lr_mult: 1
		decay_mult: 1
	}
	param {
		lr_mult: 2
		decay_mult: 0
	}
	convolution_param {
		num_output: 256
		kernel_size: 1
		pad: 0
		stride: 2
		weight_filler {
			type: "guassian"
			std: 0.01
		}
		bias_filler {
			type: "constant"
		}
	}
}

layer {
	bottom: "res4a_branch1"
	top: "res4a_branch1"
	name: "res4a_branch1_bn"
	type: "BNData"
	param {
		lr_mult: 1
		decay_mult: 0
	}
	param {
		lr_mult: 1
		decay_mult: 0
	}
	param {
		lr_mult: 0
		decay_mult: 0
	}
	param {
		lr_mult: 0
		decay_mult: 0
	}
	bn_param {
		scale_filler {
			type: "constant"
			value: 1
		}
		shift_filler {
			type: "constant"
			value: 0
		}
		moving_average: true
		decay: 0.05
	}
}

layer {
	bottom: "res4a_branch1"
	bottom: "res4a_branch2b"
	top: "res4a"
	name: "res4a_eltwise"
	type: "Eltwise"
	eltwise_param {
		operation: SUM
	}
}

layer {
	bottom: "res4a"
	top: "res4a"
	name: "res4a_relu"
	type: "ReLU"
}

layer {
	bottom: "res4a"
	top: "res4b_branch2a"
	name: "res4b_branch2a_conv"
	type: "ConvolutionData"
	param {
		lr_mult: 1
		decay_mult: 1
	}
	param {
		lr_mult: 2
		decay_mult: 0
	}
	convolution_param {
		num_output: 256
		kernel_size: 3
		pad: 1
		stride: 1
		weight_filler {
			type: "guassian"
			std: 0.01
		}
		bias_filler {
			type: "constant"
		}
	}
}

layer {
	bottom: "res4b_branch2a"
	top: "res4b_branch2a"
	name: "res4b_branch2a_bn"
	type: "BNData"
	param {
		lr_mult: 1
		decay_mult: 0
	}
	param {
		lr_mult: 1
		decay_mult: 0
	}
	param {
		lr_mult: 0
		decay_mult: 0
	}
	param {
		lr_mult: 0
		decay_mult: 0
	}
	bn_param {
		scale_filler {
			type: "constant"
			value: 1
		}
		shift_filler {
			type: "constant"
			value: 0
		}
		moving_average: true
		decay: 0.05
	}
}

layer {
	bottom: "res4b_branch2a"
	top: "res4b_branch2a"
	name: "res4b_branch2a_relu"
	type: "ReLU"
}

layer {
	bottom: "res4b_branch2a"
	top: "res4b_branch2b"
	name: "res4b_branch2b_conv"
	type: "ConvolutionData"
	param {
		lr_mult: 1
		decay_mult: 1
	}
	param {
		lr_mult: 2
		decay_mult: 0
	}
	convolution_param {
		num_output: 256
		kernel_size: 3
		pad: 1
		stride: 1
		weight_filler {
			type: "guassian"
			std: 0.01
		}
		bias_filler {
			type: "constant"
		}
	}
}

layer {
	bottom: "res4b_branch2b"
	top: "res4b_branch2b"
	name: "res4b_branch2b_bn"
	type: "BNData"
	param {
		lr_mult: 1
		decay_mult: 0
	}
	param {
		lr_mult: 1
		decay_mult: 0
	}
	param {
		lr_mult: 0
		decay_mult: 0
	}
	param {
		lr_mult: 0
		decay_mult: 0
	}
	bn_param {
		scale_filler {
			type: "constant"
			value: 1
		}
		shift_filler {
			type: "constant"
			value: 0
		}
		moving_average: true
		decay: 0.05
	}
}

layer {
	bottom: "res4a"
	bottom: "res4b_branch2b"
	top: "res4b"
	name: "res4b_eltwise"
	type: "Eltwise"
	eltwise_param {
		operation: SUM
	}
}

layer {
	bottom: "res4b"
	top: "res4b"
	name: "res4b_relu"
	type: "ReLU"
}

layer {
	bottom: "res4b"
	top: "res5a_branch2a"
	name: "res5a_branch2a_conv"
	type: "ConvolutionData"
	param {
		lr_mult: 1
		decay_mult: 1
	}
	param {
		lr_mult: 2
		decay_mult: 0
	}
	convolution_param {
		num_output: 512
		kernel_size: 3
		pad: 1
		stride: 2
		weight_filler {
			type: "guassian"
			std: 0.01
		}
		bias_filler {
			type: "constant"
		}
	}
}

layer {
	bottom: "res5a_branch2a"
	top: "res5a_branch2a"
	name: "res5a_branch2a_bn"
	type: "BNData"
	param {
		lr_mult: 1
		decay_mult: 0
	}
	param {
		lr_mult: 1
		decay_mult: 0
	}
	param {
		lr_mult: 0
		decay_mult: 0
	}
	param {
		lr_mult: 0
		decay_mult: 0
	}
	bn_param {
		scale_filler {
			type: "constant"
			value: 1
		}
		shift_filler {
			type: "constant"
			value: 0
		}
		moving_average: true
		decay: 0.05
	}
}

layer {
	bottom: "res5a_branch2a"
	top: "res5a_branch2a"
	name: "res5a_branch2a_relu"
	type: "ReLU"
}

layer {
	bottom: "res5a_branch2a"
	top: "res5a_branch2b"
	name: "res5a_branch2b_conv"
	type: "ConvolutionData"
	param {
		lr_mult: 1
		decay_mult: 1
	}
	param {
		lr_mult: 2
		decay_mult: 0
	}
	convolution_param {
		num_output: 512
		kernel_size: 3
		pad: 1
		stride: 1
		weight_filler {
			type: "guassian"
			std: 0.01
		}
		bias_filler {
			type: "constant"
		}
	}
}

layer {
	bottom: "res5a_branch2b"
	top: "res5a_branch2b"
	name: "res5a_branch2b_bn"
	type: "BNData"
	param {
		lr_mult: 1
		decay_mult: 0
	}
	param {
		lr_mult: 1
		decay_mult: 0
	}
	param {
		lr_mult: 0
		decay_mult: 0
	}
	param {
		lr_mult: 0
		decay_mult: 0
	}
	bn_param {
		scale_filler {
			type: "constant"
			value: 1
		}
		shift_filler {
			type: "constant"
			value: 0
		}
		moving_average: true
		decay: 0.05
	}
}

layer {
	bottom: "res4b"
	top: "res5a_branch1"
	name: "res5a_branch1_conv"
	type: "ConvolutionData"
	param {
		lr_mult: 1
		decay_mult: 1
	}
	param {
		lr_mult: 2
		decay_mult: 0
	}
	convolution_param {
		num_output: 512
		kernel_size: 1
		pad: 0
		stride: 2
		weight_filler {
			type: "guassian"
			std: 0.01
		}
		bias_filler {
			type: "constant"
		}
	}
}

layer {
	bottom: "res5a_branch1"
	top: "res5a_branch1"
	name: "res5a_branch1_bn"
	type: "BNData"
	param {
		lr_mult: 1
		decay_mult: 0
	}
	param {
		lr_mult: 1
		decay_mult: 0
	}
	param {
		lr_mult: 0
		decay_mult: 0
	}
	param {
		lr_mult: 0
		decay_mult: 0
	}
	bn_param {
		scale_filler {
			type: "constant"
			value: 1
		}
		shift_filler {
			type: "constant"
			value: 0
		}
		moving_average: true
		decay: 0.05
	}
}

layer {
	bottom: "res5a_branch1"
	bottom: "res5a_branch2b"
	top: "res5a"
	name: "res5a_eltwise"
	type: "Eltwise"
	eltwise_param {
		operation: SUM
	}
}

layer {
	bottom: "res5a"
	top: "res5a"
	name: "res5a_relu"
	type: "ReLU"
}

layer {
	bottom: "res5a"
	top: "res5b_branch2a"
	name: "res5b_branch2a_conv"
	type: "ConvolutionData"
	param {
		lr_mult: 1
		decay_mult: 1
	}
	param {
		lr_mult: 2
		decay_mult: 0
	}
	convolution_param {
		num_output: 512
		kernel_size: 3
		pad: 1
		stride: 1
		weight_filler {
			type: "guassian"
			std: 0.01
		}
		bias_filler {
			type: "constant"
		}
	}
}

layer {
	bottom: "res5b_branch2a"
	top: "res5b_branch2a"
	name: "res5b_branch2a_bn"
	type: "BNData"
	param {
		lr_mult: 1
		decay_mult: 0
	}
	param {
		lr_mult: 1
		decay_mult: 0
	}
	param {
		lr_mult: 0
		decay_mult: 0
	}
	param {
		lr_mult: 0
		decay_mult: 0
	}
	bn_param {
		scale_filler {
			type: "constant"
			value: 1
		}
		shift_filler {
			type: "constant"
			value: 0
		}
		moving_average: true
		decay: 0.05
	}
}

layer {
	bottom: "res5b_branch2a"
	top: "res5b_branch2a"
	name: "res5b_branch2a_relu"
	type: "ReLU"
}

layer {
	bottom: "res5b_branch2a"
	top: "res5b_branch2b"
	name: "res5b_branch2b_conv"
	type: "ConvolutionData"
	param {
		lr_mult: 1
		decay_mult: 1
	}
	param {
		lr_mult: 2
		decay_mult: 0
	}
	convolution_param {
		num_output: 512
		kernel_size: 3
		pad: 1
		stride: 1
		weight_filler {
			type: "guassian"
			std: 0.01
		}
		bias_filler {
			type: "constant"
		}
	}
}

layer {
	bottom: "res5b_branch2b"
	top: "res5b_branch2b"
	name: "res5b_branch2b_bn"
	type: "BNData"
	param {
		lr_mult: 1
		decay_mult: 0
	}
	param {
		lr_mult: 1
		decay_mult: 0
	}
	param {
		lr_mult: 0
		decay_mult: 0
	}
	param {
		lr_mult: 0
		decay_mult: 0
	}
	bn_param {
		scale_filler {
			type: "constant"
			value: 1
		}
		shift_filler {
			type: "constant"
			value: 0
		}
		moving_average: true
		decay: 0.05
	}
}

layer {
	bottom: "res5a"
	bottom: "res5b_branch2b"
	top: "res5b"
	name: "res5b_eltwise"
	type: "Eltwise"
	eltwise_param {
		operation: SUM
	}
}

layer {
	bottom: "res5b"
	top: "res5b"
	name: "res5b_relu"
	type: "ReLU"
}

layer {
	bottom: "res5b"
	top: "res5c"
	name: "res5c_conv"
	type: "ConvolutionData"
	param {
		lr_mult: 1
		decay_mult: 1
	}
	param {
		lr_mult: 2
		decay_mult: 0
	}
	convolution_param {
		num_output: 256
		kernel_size: 1
		pad: 0
		stride: 1
		weight_filler {
			type: "guassian"
			std: 0.01
		}
		bias_filler {
			type: "constant"
		}
	}
}

layer {
	bottom: "res5c"
	top: "res5c"
	name: "res5c_bn"
	type: "BNData"
	param {
		lr_mult: 1
		decay_mult: 0
	}
	param {
		lr_mult: 1
		decay_mult: 0
	}
	param {
		lr_mult: 0
		decay_mult: 0
	}
	param {
		lr_mult: 0
		decay_mult: 0
	}
	bn_param {
		scale_filler {
			type: "constant"
			value: 1
		}
		shift_filler {
			type: "constant"
			value: 0
		}
		moving_average: true
		decay: 0.05
	}
}

layer {
	bottom: "res5c"
	top: "res5c"
	name: "res5c_relu"
	type: "ReLU"
}

layer {
	bottom: "res5c"
	top: "res5c2"
	name: "res5c2_interp"
	type: "Interp"
	interp_param {
		zoom_factor: 2
	}
}

layer {
	bottom: "res5c2"
	bottom: "res4b"
	top: "res5d"
	name: "res5d_concat"
	type: "Concat"
	concat_param {
		axis: 1
	}
}

layer {
	bottom: "res5d"
	top: "res6a_branch2a"
	name: "res6a_branch2a_conv"
	type: "ConvolutionData"
	param {
		lr_mult: 1
		decay_mult: 1
	}
	param {
		lr_mult: 2
		decay_mult: 0
	}
	convolution_param {
		num_output: 256
		kernel_size: 3
		pad: 1
		stride: 1
		weight_filler {
			type: "guassian"
			std: 0.01
		}
		bias_filler {
			type: "constant"
		}
	}
}

layer {
	bottom: "res6a_branch2a"
	top: "res6a_branch2a"
	name: "res6a_branch2a_bn"
	type: "BNData"
	param {
		lr_mult: 1
		decay_mult: 0
	}
	param {
		lr_mult: 1
		decay_mult: 0
	}
	param {
		lr_mult: 0
		decay_mult: 0
	}
	param {
		lr_mult: 0
		decay_mult: 0
	}
	bn_param {
		scale_filler {
			type: "constant"
			value: 1
		}
		shift_filler {
			type: "constant"
			value: 0
		}
		moving_average: true
		decay: 0.05
	}
}

layer {
	bottom: "res6a_branch2a"
	top: "res6a_branch2a"
	name: "res6a_branch2a_relu"
	type: "ReLU"
}

layer {
	bottom: "res6a_branch2a"
	top: "res6a_branch2b"
	name: "res6a_branch2b_conv"
	type: "ConvolutionData"
	param {
		lr_mult: 1
		decay_mult: 1
	}
	param {
		lr_mult: 2
		decay_mult: 0
	}
	convolution_param {
		num_output: 256
		kernel_size: 3
		pad: 1
		stride: 1
		weight_filler {
			type: "guassian"
			std: 0.01
		}
		bias_filler {
			type: "constant"
		}
	}
}

layer {
	bottom: "res6a_branch2b"
	top: "res6a_branch2b"
	name: "res6a_branch2b_bn"
	type: "BNData"
	param {
		lr_mult: 1
		decay_mult: 0
	}
	param {
		lr_mult: 1
		decay_mult: 0
	}
	param {
		lr_mult: 0
		decay_mult: 0
	}
	param {
		lr_mult: 0
		decay_mult: 0
	}
	bn_param {
		scale_filler {
			type: "constant"
			value: 1
		}
		shift_filler {
			type: "constant"
			value: 0
		}
		moving_average: true
		decay: 0.05
	}
}

layer {
	bottom: "res5d"
	top: "res6a_branch1"
	name: "res6a_branch1_conv"
	type: "ConvolutionData"
	param {
		lr_mult: 1
		decay_mult: 1
	}
	param {
		lr_mult: 2
		decay_mult: 0
	}
	convolution_param {
		num_output: 256
		kernel_size: 1
		pad: 0
		stride: 1
		weight_filler {
			type: "guassian"
			std: 0.01
		}
		bias_filler {
			type: "constant"
		}
	}
}

layer {
	bottom: "res6a_branch1"
	top: "res6a_branch1"
	name: "res6a_branch1_bn"
	type: "BNData"
	param {
		lr_mult: 1
		decay_mult: 0
	}
	param {
		lr_mult: 1
		decay_mult: 0
	}
	param {
		lr_mult: 0
		decay_mult: 0
	}
	param {
		lr_mult: 0
		decay_mult: 0
	}
	bn_param {
		scale_filler {
			type: "constant"
			value: 1
		}
		shift_filler {
			type: "constant"
			value: 0
		}
		moving_average: true
		decay: 0.05
	}
}

layer {
	bottom: "res6a_branch1"
	bottom: "res6a_branch2b"
	top: "res6a"
	name: "res6a_eltwise"
	type: "Eltwise"
	eltwise_param {
		operation: SUM
	}
}

layer {
	bottom: "res6a"
	top: "res6a"
	name: "res6a_relu"
	type: "ReLU"
}

layer {
	bottom: "res6a"
	top: "res6b_branch2a"
	name: "res6b_branch2a_conv"
	type: "ConvolutionData"
	param {
		lr_mult: 1
		decay_mult: 1
	}
	param {
		lr_mult: 2
		decay_mult: 0
	}
	convolution_param {
		num_output: 256
		kernel_size: 3
		pad: 1
		stride: 1
		weight_filler {
			type: "guassian"
			std: 0.01
		}
		bias_filler {
			type: "constant"
		}
	}
}

layer {
	bottom: "res6b_branch2a"
	top: "res6b_branch2a"
	name: "res6b_branch2a_bn"
	type: "BNData"
	param {
		lr_mult: 1
		decay_mult: 0
	}
	param {
		lr_mult: 1
		decay_mult: 0
	}
	param {
		lr_mult: 0
		decay_mult: 0
	}
	param {
		lr_mult: 0
		decay_mult: 0
	}
	bn_param {
		scale_filler {
			type: "constant"
			value: 1
		}
		shift_filler {
			type: "constant"
			value: 0
		}
		moving_average: true
		decay: 0.05
	}
}

layer {
	bottom: "res6b_branch2a"
	top: "res6b_branch2a"
	name: "res6b_branch2a_relu"
	type: "ReLU"
}

layer {
	bottom: "res6b_branch2a"
	top: "res6b_branch2b"
	name: "res6b_branch2b_conv"
	type: "ConvolutionData"
	param {
		lr_mult: 1
		decay_mult: 1
	}
	param {
		lr_mult: 2
		decay_mult: 0
	}
	convolution_param {
		num_output: 256
		kernel_size: 3
		pad: 1
		stride: 1
		weight_filler {
			type: "guassian"
			std: 0.01
		}
		bias_filler {
			type: "constant"
		}
	}
}

layer {
	bottom: "res6b_branch2b"
	top: "res6b_branch2b"
	name: "res6b_branch2b_bn"
	type: "BNData"
	param {
		lr_mult: 1
		decay_mult: 0
	}
	param {
		lr_mult: 1
		decay_mult: 0
	}
	param {
		lr_mult: 0
		decay_mult: 0
	}
	param {
		lr_mult: 0
		decay_mult: 0
	}
	bn_param {
		scale_filler {
			type: "constant"
			value: 1
		}
		shift_filler {
			type: "constant"
			value: 0
		}
		moving_average: true
		decay: 0.05
	}
}

layer {
	bottom: "res6a"
	bottom: "res6b_branch2b"
	top: "res6b"
	name: "res6b_eltwise"
	type: "Eltwise"
	eltwise_param {
		operation: SUM
	}
}

layer {
	bottom: "res6b"
	top: "res6b"
	name: "res6b_relu"
	type: "ReLU"
}

layer {
	bottom: "res6b"
	top: "res6c"
	name: "res6c_conv"
	type: "ConvolutionData"
	param {
		lr_mult: 1
		decay_mult: 1
	}
	param {
		lr_mult: 2
		decay_mult: 0
	}
	convolution_param {
		num_output: 128
		kernel_size: 1
		pad: 0
		stride: 1
		weight_filler {
			type: "guassian"
			std: 0.01
		}
		bias_filler {
			type: "constant"
		}
	}
}

layer {
	bottom: "res6c"
	top: "res6c"
	name: "res6c_bn"
	type: "BNData"
	param {
		lr_mult: 1
		decay_mult: 0
	}
	param {
		lr_mult: 1
		decay_mult: 0
	}
	param {
		lr_mult: 0
		decay_mult: 0
	}
	param {
		lr_mult: 0
		decay_mult: 0
	}
	bn_param {
		scale_filler {
			type: "constant"
			value: 1
		}
		shift_filler {
			type: "constant"
			value: 0
		}
		moving_average: true
		decay: 0.05
	}
}

layer {
	bottom: "res6c"
	top: "res6c"
	name: "res6c_relu"
	type: "ReLU"
}

layer {
	bottom: "res6c"
	top: "res6c2"
	name: "res6c2_interp"
	type: "Interp"
	interp_param {
		zoom_factor: 2
	}
}

layer {
	bottom: "res6c2"
	bottom: "res3b"
	top: "res6d"
	name: "res6d_concat"
	type: "Concat"
	concat_param {
		axis: 1
	}
}

layer {
	bottom: "res6d"
	top: "res7a_branch2a"
	name: "res7a_branch2a_conv"
	type: "ConvolutionData"
	param {
		lr_mult: 1
		decay_mult: 1
	}
	param {
		lr_mult: 2
		decay_mult: 0
	}
	convolution_param {
		num_output: 128
		kernel_size: 3
		pad: 1
		stride: 1
		weight_filler {
			type: "guassian"
			std: 0.01
		}
		bias_filler {
			type: "constant"
		}
	}
}

layer {
	bottom: "res7a_branch2a"
	top: "res7a_branch2a"
	name: "res7a_branch2a_bn"
	type: "BNData"
	param {
		lr_mult: 1
		decay_mult: 0
	}
	param {
		lr_mult: 1
		decay_mult: 0
	}
	param {
		lr_mult: 0
		decay_mult: 0
	}
	param {
		lr_mult: 0
		decay_mult: 0
	}
	bn_param {
		scale_filler {
			type: "constant"
			value: 1
		}
		shift_filler {
			type: "constant"
			value: 0
		}
		moving_average: true
		decay: 0.05
	}
}

layer {
	bottom: "res7a_branch2a"
	top: "res7a_branch2a"
	name: "res7a_branch2a_relu"
	type: "ReLU"
}

layer {
	bottom: "res7a_branch2a"
	top: "res7a_branch2b"
	name: "res7a_branch2b_conv"
	type: "ConvolutionData"
	param {
		lr_mult: 1
		decay_mult: 1
	}
	param {
		lr_mult: 2
		decay_mult: 0
	}
	convolution_param {
		num_output: 128
		kernel_size: 3
		pad: 1
		stride: 1
		weight_filler {
			type: "guassian"
			std: 0.01
		}
		bias_filler {
			type: "constant"
		}
	}
}

layer {
	bottom: "res7a_branch2b"
	top: "res7a_branch2b"
	name: "res7a_branch2b_bn"
	type: "BNData"
	param {
		lr_mult: 1
		decay_mult: 0
	}
	param {
		lr_mult: 1
		decay_mult: 0
	}
	param {
		lr_mult: 0
		decay_mult: 0
	}
	param {
		lr_mult: 0
		decay_mult: 0
	}
	bn_param {
		scale_filler {
			type: "constant"
			value: 1
		}
		shift_filler {
			type: "constant"
			value: 0
		}
		moving_average: true
		decay: 0.05
	}
}

layer {
	bottom: "res6d"
	top: "res7a_branch1"
	name: "res7a_branch1_conv"
	type: "ConvolutionData"
	param {
		lr_mult: 1
		decay_mult: 1
	}
	param {
		lr_mult: 2
		decay_mult: 0
	}
	convolution_param {
		num_output: 128
		kernel_size: 1
		pad: 0
		stride: 1
		weight_filler {
			type: "guassian"
			std: 0.01
		}
		bias_filler {
			type: "constant"
		}
	}
}

layer {
	bottom: "res7a_branch1"
	top: "res7a_branch1"
	name: "res7a_branch1_bn"
	type: "BNData"
	param {
		lr_mult: 1
		decay_mult: 0
	}
	param {
		lr_mult: 1
		decay_mult: 0
	}
	param {
		lr_mult: 0
		decay_mult: 0
	}
	param {
		lr_mult: 0
		decay_mult: 0
	}
	bn_param {
		scale_filler {
			type: "constant"
			value: 1
		}
		shift_filler {
			type: "constant"
			value: 0
		}
		moving_average: true
		decay: 0.05
	}
}

layer {
	bottom: "res7a_branch1"
	bottom: "res7a_branch2b"
	top: "res7a"
	name: "res7a_eltwise"
	type: "Eltwise"
	eltwise_param {
		operation: SUM
	}
}

layer {
	bottom: "res7a"
	top: "res7a"
	name: "res7a_relu"
	type: "ReLU"
}

layer {
	bottom: "res7a"
	top: "res7b_branch2a"
	name: "res7b_branch2a_conv"
	type: "ConvolutionData"
	param {
		lr_mult: 1
		decay_mult: 1
	}
	param {
		lr_mult: 2
		decay_mult: 0
	}
	convolution_param {
		num_output: 128
		kernel_size: 3
		pad: 1
		stride: 1
		weight_filler {
			type: "guassian"
			std: 0.01
		}
		bias_filler {
			type: "constant"
		}
	}
}

layer {
	bottom: "res7b_branch2a"
	top: "res7b_branch2a"
	name: "res7b_branch2a_bn"
	type: "BNData"
	param {
		lr_mult: 1
		decay_mult: 0
	}
	param {
		lr_mult: 1
		decay_mult: 0
	}
	param {
		lr_mult: 0
		decay_mult: 0
	}
	param {
		lr_mult: 0
		decay_mult: 0
	}
	bn_param {
		scale_filler {
			type: "constant"
			value: 1
		}
		shift_filler {
			type: "constant"
			value: 0
		}
		moving_average: true
		decay: 0.05
	}
}

layer {
	bottom: "res7b_branch2a"
	top: "res7b_branch2a"
	name: "res7b_branch2a_relu"
	type: "ReLU"
}

layer {
	bottom: "res7b_branch2a"
	top: "res7b_branch2b"
	name: "res7b_branch2b_conv"
	type: "ConvolutionData"
	param {
		lr_mult: 1
		decay_mult: 1
	}
	param {
		lr_mult: 2
		decay_mult: 0
	}
	convolution_param {
		num_output: 128
		kernel_size: 3
		pad: 1
		stride: 1
		weight_filler {
			type: "guassian"
			std: 0.01
		}
		bias_filler {
			type: "constant"
		}
	}
}

layer {
	bottom: "res7b_branch2b"
	top: "res7b_branch2b"
	name: "res7b_branch2b_bn"
	type: "BNData"
	param {
		lr_mult: 1
		decay_mult: 0
	}
	param {
		lr_mult: 1
		decay_mult: 0
	}
	param {
		lr_mult: 0
		decay_mult: 0
	}
	param {
		lr_mult: 0
		decay_mult: 0
	}
	bn_param {
		scale_filler {
			type: "constant"
			value: 1
		}
		shift_filler {
			type: "constant"
			value: 0
		}
		moving_average: true
		decay: 0.05
	}
}

layer {
	bottom: "res7a"
	bottom: "res7b_branch2b"
	top: "res7b"
	name: "res7b_eltwise"
	type: "Eltwise"
	eltwise_param {
		operation: SUM
	}
}

layer {
	bottom: "res7b"
	top: "res7b"
	name: "res7b_relu"
	type: "ReLU"
}

layer {
	bottom: "res7b"
	top: "res7c"
	name: "res7c_conv"
	type: "ConvolutionData"
	param {
		lr_mult: 1
		decay_mult: 1
	}
	param {
		lr_mult: 2
		decay_mult: 0
	}
	convolution_param {
		num_output: 64
		kernel_size: 1
		pad: 0
		stride: 1
		weight_filler {
			type: "guassian"
			std: 0.01
		}
		bias_filler {
			type: "constant"
		}
	}
}

layer {
	bottom: "res7c"
	top: "res7c"
	name: "res7c_bn"
	type: "BNData"
	param {
		lr_mult: 1
		decay_mult: 0
	}
	param {
		lr_mult: 1
		decay_mult: 0
	}
	param {
		lr_mult: 0
		decay_mult: 0
	}
	param {
		lr_mult: 0
		decay_mult: 0
	}
	bn_param {
		scale_filler {
			type: "constant"
			value: 1
		}
		shift_filler {
			type: "constant"
			value: 0
		}
		moving_average: true
		decay: 0.05
	}
}

layer {
	bottom: "res7c"
	top: "res7c"
	name: "res7c_relu"
	type: "ReLU"
}

layer {
	bottom: "res7c"
	top: "res7c2"
	name: "res7c2_interp"
	type: "Interp"
	interp_param {
		zoom_factor: 2
	}
}

layer {
	bottom: "res7c2"
	bottom: "res2b"
	top: "res7d"
	name: "res7d_concat"
	type: "Concat"
	concat_param {
		axis: 1
	}
}

layer {
	bottom: "res7d"
	top: "res8a_branch2a"
	name: "res8a_branch2a_conv"
	type: "ConvolutionData"
	param {
		lr_mult: 1
		decay_mult: 1
	}
	param {
		lr_mult: 2
		decay_mult: 0
	}
	convolution_param {
		num_output: 64
		kernel_size: 3
		pad: 1
		stride: 1
		weight_filler {
			type: "guassian"
			std: 0.01
		}
		bias_filler {
			type: "constant"
		}
	}
}

layer {
	bottom: "res8a_branch2a"
	top: "res8a_branch2a"
	name: "res8a_branch2a_bn"
	type: "BNData"
	param {
		lr_mult: 1
		decay_mult: 0
	}
	param {
		lr_mult: 1
		decay_mult: 0
	}
	param {
		lr_mult: 0
		decay_mult: 0
	}
	param {
		lr_mult: 0
		decay_mult: 0
	}
	bn_param {
		scale_filler {
			type: "constant"
			value: 1
		}
		shift_filler {
			type: "constant"
			value: 0
		}
		moving_average: true
		decay: 0.05
	}
}

layer {
	bottom: "res8a_branch2a"
	top: "res8a_branch2a"
	name: "res8a_branch2a_relu"
	type: "ReLU"
}

layer {
	bottom: "res8a_branch2a"
	top: "res8a_branch2b"
	name: "res8a_branch2b_conv"
	type: "ConvolutionData"
	param {
		lr_mult: 1
		decay_mult: 1
	}
	param {
		lr_mult: 2
		decay_mult: 0
	}
	convolution_param {
		num_output: 64
		kernel_size: 3
		pad: 1
		stride: 1
		weight_filler {
			type: "guassian"
			std: 0.01
		}
		bias_filler {
			type: "constant"
		}
	}
}

layer {
	bottom: "res8a_branch2b"
	top: "res8a_branch2b"
	name: "res8a_branch2b_bn"
	type: "BNData"
	param {
		lr_mult: 1
		decay_mult: 0
	}
	param {
		lr_mult: 1
		decay_mult: 0
	}
	param {
		lr_mult: 0
		decay_mult: 0
	}
	param {
		lr_mult: 0
		decay_mult: 0
	}
	bn_param {
		scale_filler {
			type: "constant"
			value: 1
		}
		shift_filler {
			type: "constant"
			value: 0
		}
		moving_average: true
		decay: 0.05
	}
}

layer {
	bottom: "res7d"
	top: "res8a_branch1"
	name: "res8a_branch1_conv"
	type: "ConvolutionData"
	param {
		lr_mult: 1
		decay_mult: 1
	}
	param {
		lr_mult: 2
		decay_mult: 0
	}
	convolution_param {
		num_output: 64
		kernel_size: 1
		pad: 0
		stride: 1
		weight_filler {
			type: "guassian"
			std: 0.01
		}
		bias_filler {
			type: "constant"
		}
	}
}

layer {
	bottom: "res8a_branch1"
	top: "res8a_branch1"
	name: "res8a_branch1_bn"
	type: "BNData"
	param {
		lr_mult: 1
		decay_mult: 0
	}
	param {
		lr_mult: 1
		decay_mult: 0
	}
	param {
		lr_mult: 0
		decay_mult: 0
	}
	param {
		lr_mult: 0
		decay_mult: 0
	}
	bn_param {
		scale_filler {
			type: "constant"
			value: 1
		}
		shift_filler {
			type: "constant"
			value: 0
		}
		moving_average: true
		decay: 0.05
	}
}

layer {
	bottom: "res8a_branch1"
	bottom: "res8a_branch2b"
	top: "res8a"
	name: "res8a_eltwise"
	type: "Eltwise"
	eltwise_param {
		operation: SUM
	}
}

layer {
	bottom: "res8a"
	top: "res8a"
	name: "res8a_relu"
	type: "ReLU"
}

layer {
	bottom: "res8a"
	top: "res8b_branch2a"
	name: "res8b_branch2a_conv"
	type: "ConvolutionData"
	param {
		lr_mult: 1
		decay_mult: 1
	}
	param {
		lr_mult: 2
		decay_mult: 0
	}
	convolution_param {
		num_output: 64
		kernel_size: 3
		pad: 1
		stride: 1
		weight_filler {
			type: "guassian"
			std: 0.01
		}
		bias_filler {
			type: "constant"
		}
	}
}

layer {
	bottom: "res8b_branch2a"
	top: "res8b_branch2a"
	name: "res8b_branch2a_bn"
	type: "BNData"
	param {
		lr_mult: 1
		decay_mult: 0
	}
	param {
		lr_mult: 1
		decay_mult: 0
	}
	param {
		lr_mult: 0
		decay_mult: 0
	}
	param {
		lr_mult: 0
		decay_mult: 0
	}
	bn_param {
		scale_filler {
			type: "constant"
			value: 1
		}
		shift_filler {
			type: "constant"
			value: 0
		}
		moving_average: true
		decay: 0.05
	}
}

layer {
	bottom: "res8b_branch2a"
	top: "res8b_branch2a"
	name: "res8b_branch2a_relu"
	type: "ReLU"
}

layer {
	bottom: "res8b_branch2a"
	top: "res8b_branch2b"
	name: "res8b_branch2b_conv"
	type: "ConvolutionData"
	param {
		lr_mult: 1
		decay_mult: 1
	}
	param {
		lr_mult: 2
		decay_mult: 0
	}
	convolution_param {
		num_output: 64
		kernel_size: 3
		pad: 1
		stride: 1
		weight_filler {
			type: "guassian"
			std: 0.01
		}
		bias_filler {
			type: "constant"
		}
	}
}

layer {
	bottom: "res8b_branch2b"
	top: "res8b_branch2b"
	name: "res8b_branch2b_bn"
	type: "BNData"
	param {
		lr_mult: 1
		decay_mult: 0
	}
	param {
		lr_mult: 1
		decay_mult: 0
	}
	param {
		lr_mult: 0
		decay_mult: 0
	}
	param {
		lr_mult: 0
		decay_mult: 0
	}
	bn_param {
		scale_filler {
			type: "constant"
			value: 1
		}
		shift_filler {
			type: "constant"
			value: 0
		}
		moving_average: true
		decay: 0.05
	}
}

layer {
	bottom: "res8a"
	bottom: "res8b_branch2b"
	top: "res8b"
	name: "res8b_eltwise"
	type: "Eltwise"
	eltwise_param {
		operation: SUM
	}
}

layer {
	bottom: "res8b"
	top: "res8b"
	name: "res8b_relu"
	type: "ReLU"
}

layer {
	bottom: "res8b"
	top: "res8c"
	name: "res8c_conv"
	type: "ConvolutionData"
	param {
		lr_mult: 1
		decay_mult: 1
	}
	param {
		lr_mult: 2
		decay_mult: 0
	}
	convolution_param {
		num_output: 32
		kernel_size: 1
		pad: 0
		stride: 1
		weight_filler {
			type: "guassian"
			std: 0.01
		}
		bias_filler {
			type: "constant"
		}
	}
}

layer {
	bottom: "res8c"
	top: "res8c"
	name: "res8c_bn"
	type: "BNData"
	param {
		lr_mult: 1
		decay_mult: 0
	}
	param {
		lr_mult: 1
		decay_mult: 0
	}
	param {
		lr_mult: 0
		decay_mult: 0
	}
	param {
		lr_mult: 0
		decay_mult: 0
	}
	bn_param {
		scale_filler {
			type: "constant"
			value: 1
		}
		shift_filler {
			type: "constant"
			value: 0
		}
		moving_average: true
		decay: 0.05
	}
}

layer {
	bottom: "res8c"
	top: "res8c"
	name: "res8c_relu"
	type: "ReLU"
}

layer {
	bottom: "res8c"
	top: "res8c2"
	name: "res8c2_interp"
	type: "Interp"
	interp_param {
		zoom_factor: 2
	}
}

layer {
	bottom: "conv1"
	top: "res1a"
	name: "res1a_conv"
	type: "ConvolutionData"
	param {
		lr_mult: 1
		decay_mult: 1
	}
	param {
		lr_mult: 2
		decay_mult: 0
	}
	convolution_param {
		num_output: 32
		kernel_size: 3
		pad: 1
		stride: 1
		weight_filler {
			type: "guassian"
			std: 0.01
		}
		bias_filler {
			type: "constant"
		}
	}
}

layer {
	bottom: "res1a"
	top: "res1a"
	name: "res1a_bn"
	type: "BNData"
	param {
		lr_mult: 1
		decay_mult: 0
	}
	param {
		lr_mult: 1
		decay_mult: 0
	}
	param {
		lr_mult: 0
		decay_mult: 0
	}
	param {
		lr_mult: 0
		decay_mult: 0
	}
	bn_param {
		scale_filler {
			type: "constant"
			value: 1
		}
		shift_filler {
			type: "constant"
			value: 0
		}
		moving_average: true
		decay: 0.05
	}
}

layer {
	bottom: "res1a"
	top: "res1a"
	name: "res1a_relu"
	type: "ReLU"
}

layer {
	bottom: "res1a"
	top: "res1b"
	name: "res1b_conv"
	type: "ConvolutionData"
	param {
		lr_mult: 1
		decay_mult: 1
	}
	param {
		lr_mult: 2
		decay_mult: 0
	}
	convolution_param {
		num_output: 32
		kernel_size: 3
		pad: 1
		stride: 1
		weight_filler {
			type: "guassian"
			std: 0.01
		}
		bias_filler {
			type: "constant"
		}
	}
}

layer {
	bottom: "res1b"
	top: "res1b"
	name: "res1b_bn"
	type: "BNData"
	param {
		lr_mult: 1
		decay_mult: 0
	}
	param {
		lr_mult: 1
		decay_mult: 0
	}
	param {
		lr_mult: 0
		decay_mult: 0
	}
	param {
		lr_mult: 0
		decay_mult: 0
	}
	bn_param {
		scale_filler {
			type: "constant"
			value: 1
		}
		shift_filler {
			type: "constant"
			value: 0
		}
		moving_average: true
		decay: 0.05
	}
}

layer {
	bottom: "res1b"
	top: "res1b"
	name: "res1b_relu"
	type: "ReLU"
}

layer {
	bottom: "res8c2"
	bottom: "res1b"
	top: "res8d"
	name: "res8d_concat"
	type: "Concat"
	concat_param {
		axis: 1
	}
}

layer {
	bottom: "res8d"
	top: "res9a"
	name: "res9a_conv"
	type: "ConvolutionData"
	param {
		lr_mult: 1
		decay_mult: 1
	}
	param {
		lr_mult: 2
		decay_mult: 0
	}
	convolution_param {
		num_output: 64
		kernel_size: 3
		pad: 1
		stride: 1
		weight_filler {
			type: "guassian"
			std: 0.01
		}
		bias_filler {
			type: "constant"
		}
	}
}

layer {
	bottom: "res9a"
	top: "res9a"
	name: "res9a_bn"
	type: "BNData"
	param {
		lr_mult: 1
		decay_mult: 0
	}
	param {
		lr_mult: 1
		decay_mult: 0
	}
	param {
		lr_mult: 0
		decay_mult: 0
	}
	param {
		lr_mult: 0
		decay_mult: 0
	}
	bn_param {
		scale_filler {
			type: "constant"
			value: 1
		}
		shift_filler {
			type: "constant"
			value: 0
		}
		moving_average: true
		decay: 0.05
	}
}

layer {
	bottom: "res9a"
	top: "res9a"
	name: "res9a_relu"
	type: "ReLU"
}

layer {
	bottom: "res9a"
	top: "res9b"
	name: "res9b_conv"
	type: "ConvolutionData"
	param {
		lr_mult: 1
		decay_mult: 1
	}
	param {
		lr_mult: 2
		decay_mult: 0
	}
	convolution_param {
		num_output: 256
		kernel_size: 1
		pad: 0
		stride: 1
		weight_filler {
			type: "guassian"
			std: 0.01
		}
		bias_filler {
			type: "constant"
		}
	}
}

layer {
	bottom: "res9b"
	top: "res9b"
	name: "res9b_bn"
	type: "BNData"
	param {
		lr_mult: 1
		decay_mult: 0
	}
	param {
		lr_mult: 1
		decay_mult: 0
	}
	param {
		lr_mult: 0
		decay_mult: 0
	}
	param {
		lr_mult: 0
		decay_mult: 0
	}
	bn_param {
		scale_filler {
			type: "constant"
			value: 1
		}
		shift_filler {
			type: "constant"
			value: 0
		}
		moving_average: true
		decay: 0.05
	}
}

layer {
	bottom: "res9b"
	top: "res9b"
	name: "res9b_relu"
	type: "ReLU"
}

layer {
	bottom: "res9b"
	top: "res9c"
	name: "res9c_conv"
	type: "ConvolutionData"
	param {
		lr_mult: 1
		decay_mult: 1
	}
	param {
		lr_mult: 2
		decay_mult: 0
	}
	convolution_param {
		num_output: 1
		kernel_size: 1
		pad: 0
		stride: 1
		weight_filler {
			type: "guassian"
			std: 0.01
		}
		bias_filler {
			type: "constant"
		}
	}
}

layer {
	bottom: "res9c"
	top: "heatmap"
	name: "heatmap_relu"
	type: "ReLU"
}

layer {
	bottom: "heatmap"
	bottom: "label3"	
	top: "loss"
	type: "EuclideanLoss"
	name: "loss"
}



layer {
  name: "data"
  type: "HDF5Data"
  top: "data"
  top: "label"
  include {
    phase: TRAIN
  }
  hdf5_data_param {
    source: "/mnt/lustre/duanhaodong/dataset/shanghai/part_A_final/train_data/train/train.txt"
    batch_size: 16
  }
}


layer {
    name: "reshape"
    type: "Reshape"
    bottom: "label"
    top: "label3"
    reshape_param {
        shape {
                dim: 16  # copy the dimension from below
                dim: 1
                dim: 112
                dim: 112 # infer it from the other dimensions
        }
    }
}




layer {
	bottom: "data"
	top: "conv1"
	name: "conv1_conv"
	type: "ConvolutionData"
	param {
		lr_mult: 1
		decay_mult: 1
	}
	param {
		lr_mult: 2
		decay_mult: 0
	}
	convolution_param {
		num_output: 64
		kernel_size: 7
		pad: 3
		stride: 2
		weight_filler {
			type: "guassian"
			std: 0.01
		}
		bias_filler {
			type: "constant"
		}
	}
}

layer {
	bottom: "conv1"
	top: "conv1"
	name: "conv1_bn"
	type: "BNData"
	param {
		lr_mult: 1
		decay_mult: 0
	}
	param {
		lr_mult: 1
		decay_mult: 0
	}
	param {
		lr_mult: 0
		decay_mult: 0
	}
	param {
		lr_mult: 0
		decay_mult: 0
	}
	bn_param {
		scale_filler {
			type: "constant"
			value: 1
		}
		shift_filler {
			type: "constant"
			value: 0
		}
		moving_average: true
		decay: 0.05
	}
}

layer {
	bottom: "conv1"
	top: "conv1"
	name: "conv1_relu"
	type: "ReLU"
}

layer {
	bottom: "conv1"
	top: "pool1"
	name: "pool1_conv"
	type: "Pooling"
	pooling_param {
		pool: MAX
		kernel_size: 3
		stride: 2
	}
}
layer {
	bottom: "pool1"
	top: "res2a_branch2a"
	name: "res2a_branch2a_conv"
	type: "ConvolutionData"
	param {
		lr_mult: 1
		decay_mult: 1
	}
	param {
		lr_mult: 2
		decay_mult: 0
	}
	convolution_param {
		num_output: 64
		kernel_size: 3
		pad: 1
		stride: 1
		weight_filler {
			type: "guassian"
			std: 0.01
		}
		bias_filler {
			type: "constant"
		}
	}
}

layer {
	bottom: "res2a_branch2a"
	top: "res2a_branch2a"
	name: "res2a_branch2a_bn"
	type: "BNData"
	param {
		lr_mult: 1
		decay_mult: 0
	}
	param {
		lr_mult: 1
		decay_mult: 0
	}
	param {
		lr_mult: 0
		decay_mult: 0
	}
	param {
		lr_mult: 0
		decay_mult: 0
	}
	bn_param {
		scale_filler {
			type: "constant"
			value: 1
		}
		shift_filler {
			type: "constant"
			value: 0
		}
		moving_average: true
		decay: 0.05
	}
}

layer {
	bottom: "res2a_branch2a"
	top: "res2a_branch2a"
	name: "res2a_branch2a_relu"
	type: "ReLU"
}

layer {
	bottom: "res2a_branch2a"
	top: "res2a_branch2b"
	name: "res2a_branch2b_conv"
	type: "ConvolutionData"
	param {
		lr_mult: 1
		decay_mult: 1
	}
	param {
		lr_mult: 2
		decay_mult: 0
	}
	convolution_param {
		num_output: 64
		kernel_size: 3
		pad: 1
		stride: 1
		weight_filler {
			type: "guassian"
			std: 0.01
		}
		bias_filler {
			type: "constant"
		}
	}
}

layer {
	bottom: "res2a_branch2b"
	top: "res2a_branch2b"
	name: "res2a_branch2b_bn"
	type: "BNData"
	param {
		lr_mult: 1
		decay_mult: 0
	}
	param {
		lr_mult: 1
		decay_mult: 0
	}
	param {
		lr_mult: 0
		decay_mult: 0
	}
	param {
		lr_mult: 0
		decay_mult: 0
	}
	bn_param {
		scale_filler {
			type: "constant"
			value: 1
		}
		shift_filler {
			type: "constant"
			value: 0
		}
		moving_average: true
		decay: 0.05
	}
}

layer {
	bottom: "pool1"
	top: "res2a_branch1"
	name: "res2a_branch1_conv"
	type: "ConvolutionData"
	param {
		lr_mult: 1
		decay_mult: 1
	}
	param {
		lr_mult: 2
		decay_mult: 0
	}
	convolution_param {
		num_output: 64
		kernel_size: 1
		pad: 0
		stride: 1
		weight_filler {
			type: "guassian"
			std: 0.01
		}
		bias_filler {
			type: "constant"
		}
	}
}

layer {
	bottom: "res2a_branch1"
	top: "res2a_branch1"
	name: "res2a_branch1_bn"
	type: "BNData"
	param {
		lr_mult: 1
		decay_mult: 0
	}
	param {
		lr_mult: 1
		decay_mult: 0
	}
	param {
		lr_mult: 0
		decay_mult: 0
	}
	param {
		lr_mult: 0
		decay_mult: 0
	}
	bn_param {
		scale_filler {
			type: "constant"
			value: 1
		}
		shift_filler {
			type: "constant"
			value: 0
		}
		moving_average: true
		decay: 0.05
	}
}

layer {
	bottom: "res2a_branch1"
	bottom: "res2a_branch2b"
	top: "res2a"
	name: "res2a_eltwise"
	type: "Eltwise"
	eltwise_param {
		operation: SUM
	}
}

layer {
	bottom: "res2a"
	top: "res2a"
	name: "res2a_relu"
	type: "ReLU"
}

layer {
	bottom: "res2a"
	top: "res2b_branch2a"
	name: "res2b_branch2a_conv"
	type: "ConvolutionData"
	param {
		lr_mult: 1
		decay_mult: 1
	}
	param {
		lr_mult: 2
		decay_mult: 0
	}
	convolution_param {
		num_output: 64
		kernel_size: 3
		pad: 1
		stride: 1
		weight_filler {
			type: "guassian"
			std: 0.01
		}
		bias_filler {
			type: "constant"
		}
	}
}

layer {
	bottom: "res2b_branch2a"
	top: "res2b_branch2a"
	name: "res2b_branch2a_bn"
	type: "BNData"
	param {
		lr_mult: 1
		decay_mult: 0
	}
	param {
		lr_mult: 1
		decay_mult: 0
	}
	param {
		lr_mult: 0
		decay_mult: 0
	}
	param {
		lr_mult: 0
		decay_mult: 0
	}
	bn_param {
		scale_filler {
			type: "constant"
			value: 1
		}
		shift_filler {
			type: "constant"
			value: 0
		}
		moving_average: true
		decay: 0.05
	}
}

layer {
	bottom: "res2b_branch2a"
	top: "res2b_branch2a"
	name: "res2b_branch2a_relu"
	type: "ReLU"
}

layer {
	bottom: "res2b_branch2a"
	top: "res2b_branch2b"
	name: "res2b_branch2b_conv"
	type: "ConvolutionData"
	param {
		lr_mult: 1
		decay_mult: 1
	}
	param {
		lr_mult: 2
		decay_mult: 0
	}
	convolution_param {
		num_output: 64
		kernel_size: 3
		pad: 1
		stride: 1
		weight_filler {
			type: "guassian"
			std: 0.01
		}
		bias_filler {
			type: "constant"
		}
	}
}

layer {
	bottom: "res2b_branch2b"
	top: "res2b_branch2b"
	name: "res2b_branch2b_bn"
	type: "BNData"
	param {
		lr_mult: 1
		decay_mult: 0
	}
	param {
		lr_mult: 1
		decay_mult: 0
	}
	param {
		lr_mult: 0
		decay_mult: 0
	}
	param {
		lr_mult: 0
		decay_mult: 0
	}
	bn_param {
		scale_filler {
			type: "constant"
			value: 1
		}
		shift_filler {
			type: "constant"
			value: 0
		}
		moving_average: true
		decay: 0.05
	}
}

layer {
	bottom: "res2a"
	bottom: "res2b_branch2b"
	top: "res2b"
	name: "res2b_eltwise"
	type: "Eltwise"
	eltwise_param {
		operation: SUM
	}
}

layer {
	bottom: "res2b"
	top: "res2b"
	name: "res2b_relu"
	type: "ReLU"
}

layer {
	bottom: "res2b"
	top: "res3a_branch2a"
	name: "res3a_branch2a_conv"
	type: "ConvolutionData"
	param {
		lr_mult: 1
		decay_mult: 1
	}
	param {
		lr_mult: 2
		decay_mult: 0
	}
	convolution_param {
		num_output: 128
		kernel_size: 3
		pad: 1
		stride: 2
		weight_filler {
			type: "guassian"
			std: 0.01
		}
		bias_filler {
			type: "constant"
		}
	}
}

layer {
	bottom: "res3a_branch2a"
	top: "res3a_branch2a"
	name: "res3a_branch2a_bn"
	type: "BNData"
	param {
		lr_mult: 1
		decay_mult: 0
	}
	param {
		lr_mult: 1
		decay_mult: 0
	}
	param {
		lr_mult: 0
		decay_mult: 0
	}
	param {
		lr_mult: 0
		decay_mult: 0
	}
	bn_param {
		scale_filler {
			type: "constant"
			value: 1
		}
		shift_filler {
			type: "constant"
			value: 0
		}
		moving_average: true
		decay: 0.05
	}
}

layer {
	bottom: "res3a_branch2a"
	top: "res3a_branch2a"
	name: "res3a_branch2a_relu"
	type: "ReLU"
}

layer {
	bottom: "res3a_branch2a"
	top: "res3a_branch2b"
	name: "res3a_branch2b_conv"
	type: "ConvolutionData"
	param {
		lr_mult: 1
		decay_mult: 1
	}
	param {
		lr_mult: 2
		decay_mult: 0
	}
	convolution_param {
		num_output: 128
		kernel_size: 3
		pad: 1
		stride: 1
		weight_filler {
			type: "guassian"
			std: 0.01
		}
		bias_filler {
			type: "constant"
		}
	}
}

layer {
	bottom: "res3a_branch2b"
	top: "res3a_branch2b"
	name: "res3a_branch2b_bn"
	type: "BNData"
	param {
		lr_mult: 1
		decay_mult: 0
	}
	param {
		lr_mult: 1
		decay_mult: 0
	}
	param {
		lr_mult: 0
		decay_mult: 0
	}
	param {
		lr_mult: 0
		decay_mult: 0
	}
	bn_param {
		scale_filler {
			type: "constant"
			value: 1
		}
		shift_filler {
			type: "constant"
			value: 0
		}
		moving_average: true
		decay: 0.05
	}
}

layer {
	bottom: "res2b"
	top: "res3a_branch1"
	name: "res3a_branch1_conv"
	type: "ConvolutionData"
	param {
		lr_mult: 1
		decay_mult: 1
	}
	param {
		lr_mult: 2
		decay_mult: 0
	}
	convolution_param {
		num_output: 128
		kernel_size: 1
		pad: 0
		stride: 2
		weight_filler {
			type: "guassian"
			std: 0.01
		}
		bias_filler {
			type: "constant"
		}
	}
}

layer {
	bottom: "res3a_branch1"
	top: "res3a_branch1"
	name: "res3a_branch1_bn"
	type: "BNData"
	param {
		lr_mult: 1
		decay_mult: 0
	}
	param {
		lr_mult: 1
		decay_mult: 0
	}
	param {
		lr_mult: 0
		decay_mult: 0
	}
	param {
		lr_mult: 0
		decay_mult: 0
	}
	bn_param {
		scale_filler {
			type: "constant"
			value: 1
		}
		shift_filler {
			type: "constant"
			value: 0
		}
		moving_average: true
		decay: 0.05
	}
}

layer {
	bottom: "res3a_branch1"
	bottom: "res3a_branch2b"
	top: "res3a"
	name: "res3a_eltwise"
	type: "Eltwise"
	eltwise_param {
		operation: SUM
	}
}

layer {
	bottom: "res3a"
	top: "res3a"
	name: "res3a_relu"
	type: "ReLU"
}

layer {
	bottom: "res3a"
	top: "res3b_branch2a"
	name: "res3b_branch2a_conv"
	type: "ConvolutionData"
	param {
		lr_mult: 1
		decay_mult: 1
	}
	param {
		lr_mult: 2
		decay_mult: 0
	}
	convolution_param {
		num_output: 128
		kernel_size: 3
		pad: 1
		stride: 1
		weight_filler {
			type: "guassian"
			std: 0.01
		}
		bias_filler {
			type: "constant"
		}
	}
}

layer {
	bottom: "res3b_branch2a"
	top: "res3b_branch2a"
	name: "res3b_branch2a_bn"
	type: "BNData"
	param {
		lr_mult: 1
		decay_mult: 0
	}
	param {
		lr_mult: 1
		decay_mult: 0
	}
	param {
		lr_mult: 0
		decay_mult: 0
	}
	param {
		lr_mult: 0
		decay_mult: 0
	}
	bn_param {
		scale_filler {
			type: "constant"
			value: 1
		}
		shift_filler {
			type: "constant"
			value: 0
		}
		moving_average: true
		decay: 0.05
	}
}

layer {
	bottom: "res3b_branch2a"
	top: "res3b_branch2a"
	name: "res3b_branch2a_relu"
	type: "ReLU"
}

layer {
	bottom: "res3b_branch2a"
	top: "res3b_branch2b"
	name: "res3b_branch2b_conv"
	type: "ConvolutionData"
	param {
		lr_mult: 1
		decay_mult: 1
	}
	param {
		lr_mult: 2
		decay_mult: 0
	}
	convolution_param {
		num_output: 128
		kernel_size: 3
		pad: 1
		stride: 1
		weight_filler {
			type: "guassian"
			std: 0.01
		}
		bias_filler {
			type: "constant"
		}
	}
}

layer {
	bottom: "res3b_branch2b"
	top: "res3b_branch2b"
	name: "res3b_branch2b_bn"
	type: "BNData"
	param {
		lr_mult: 1
		decay_mult: 0
	}
	param {
		lr_mult: 1
		decay_mult: 0
	}
	param {
		lr_mult: 0
		decay_mult: 0
	}
	param {
		lr_mult: 0
		decay_mult: 0
	}
	bn_param {
		scale_filler {
			type: "constant"
			value: 1
		}
		shift_filler {
			type: "constant"
			value: 0
		}
		moving_average: true
		decay: 0.05
	}
}

layer {
	bottom: "res3a"
	bottom: "res3b_branch2b"
	top: "res3b"
	name: "res3b_eltwise"
	type: "Eltwise"
	eltwise_param {
		operation: SUM
	}
}

layer {
	bottom: "res3b"
	top: "res3b"
	name: "res3b_relu"
	type: "ReLU"
}

layer {
	bottom: "res3b"
	top: "res4a_branch2a"
	name: "res4a_branch2a_conv"
	type: "ConvolutionData"
	param {
		lr_mult: 1
		decay_mult: 1
	}
	param {
		lr_mult: 2
		decay_mult: 0
	}
	convolution_param {
		num_output: 256
		kernel_size: 3
		pad: 1
		stride: 2
		weight_filler {
			type: "guassian"
			std: 0.01
		}
		bias_filler {
			type: "constant"
		}
	}
}

layer {
	bottom: "res4a_branch2a"
	top: "res4a_branch2a"
	name: "res4a_branch2a_bn"
	type: "BNData"
	param {
		lr_mult: 1
		decay_mult: 0
	}
	param {
		lr_mult: 1
		decay_mult: 0
	}
	param {
		lr_mult: 0
		decay_mult: 0
	}
	param {
		lr_mult: 0
		decay_mult: 0
	}
	bn_param {
		scale_filler {
			type: "constant"
			value: 1
		}
		shift_filler {
			type: "constant"
			value: 0
		}
		moving_average: true
		decay: 0.05
	}
}

layer {
	bottom: "res4a_branch2a"
	top: "res4a_branch2a"
	name: "res4a_branch2a_relu"
	type: "ReLU"
}

layer {
	bottom: "res4a_branch2a"
	top: "res4a_branch2b"
	name: "res4a_branch2b_conv"
	type: "ConvolutionData"
	param {
		lr_mult: 1
		decay_mult: 1
	}

	param {
		lr_mult: 2
		decay_mult: 0
	}
	convolution_param {
		num_output: 256
		kernel_size: 3
		pad: 1
		stride: 1
		weight_filler {
			type: "guassian"
			std: 0.01
		}
		bias_filler {
			type: "constant"
		}
	}
}

layer {
	bottom: "res4a_branch2b"
	top: "res4a_branch2b"
	name: "res4a_branch2b_bn"
	type: "BNData"
	param {
		lr_mult: 1
		decay_mult: 0
	}
	param {
		lr_mult: 1
		decay_mult: 0
	}
	param {
		lr_mult: 0
		decay_mult: 0
	}
	param {
		lr_mult: 0
		decay_mult: 0
	}
	bn_param {
		scale_filler {
			type: "constant"
			value: 1
		}
		shift_filler {
			type: "constant"
			value: 0
		}
		moving_average: true
		decay: 0.05
	}
}

layer {
	bottom: "res3b"
	top: "res4a_branch1"
	name: "res4a_branch1_conv"
	type: "ConvolutionData"
	param {
		lr_mult: 1
		decay_mult: 1
	}
	param {
		lr_mult: 2
		decay_mult: 0
	}
	convolution_param {
		num_output: 256
		kernel_size: 1
		pad: 0
		stride: 2
		weight_filler {
			type: "guassian"
			std: 0.01
		}
		bias_filler {
			type: "constant"
		}
	}
}

layer {
	bottom: "res4a_branch1"
	top: "res4a_branch1"
	name: "res4a_branch1_bn"
	type: "BNData"
	param {
		lr_mult: 1
		decay_mult: 0
	}
	param {
		lr_mult: 1
		decay_mult: 0
	}
	param {
		lr_mult: 0
		decay_mult: 0
	}
	param {
		lr_mult: 0
		decay_mult: 0
	}
	bn_param {
		scale_filler {
			type: "constant"
			value: 1
		}
		shift_filler {
			type: "constant"
			value: 0
		}
		moving_average: true
		decay: 0.05
	}
}

layer {
	bottom: "res4a_branch1"
	bottom: "res4a_branch2b"
	top: "res4a"
	name: "res4a_eltwise"
	type: "Eltwise"
	eltwise_param {
		operation: SUM
	}
}

layer {
	bottom: "res4a"
	top: "res4a"
	name: "res4a_relu"
	type: "ReLU"
}

layer {
	bottom: "res4a"
	top: "res4b_branch2a"
	name: "res4b_branch2a_conv"
	type: "ConvolutionData"
	param {
		lr_mult: 1
		decay_mult: 1
	}
	param {
		lr_mult: 2
		decay_mult: 0
	}
	convolution_param {
		num_output: 256
		kernel_size: 3
		pad: 1
		stride: 1
		weight_filler {
			type: "guassian"
			std: 0.01
		}
		bias_filler {
			type: "constant"
		}
	}
}

layer {
	bottom: "res4b_branch2a"
	top: "res4b_branch2a"
	name: "res4b_branch2a_bn"
	type: "BNData"
	param {
		lr_mult: 1
		decay_mult: 0
	}
	param {
		lr_mult: 1
		decay_mult: 0
	}
	param {
		lr_mult: 0
		decay_mult: 0
	}
	param {
		lr_mult: 0
		decay_mult: 0
	}
	bn_param {
		scale_filler {
			type: "constant"
			value: 1
		}
		shift_filler {
			type: "constant"
			value: 0
		}
		moving_average: true
		decay: 0.05
	}
}

layer {
	bottom: "res4b_branch2a"
	top: "res4b_branch2a"
	name: "res4b_branch2a_relu"
	type: "ReLU"
}

layer {
	bottom: "res4b_branch2a"
	top: "res4b_branch2b"
	name: "res4b_branch2b_conv"
	type: "ConvolutionData"
	param {
		lr_mult: 1
		decay_mult: 1
	}
	param {
		lr_mult: 2
		decay_mult: 0
	}
	convolution_param {
		num_output: 256
		kernel_size: 3
		pad: 1
		stride: 1
		weight_filler {
			type: "guassian"
			std: 0.01
		}
		bias_filler {
			type: "constant"
		}
	}
}

layer {
	bottom: "res4b_branch2b"
	top: "res4b_branch2b"
	name: "res4b_branch2b_bn"
	type: "BNData"
	param {
		lr_mult: 1
		decay_mult: 0
	}
	param {
		lr_mult: 1
		decay_mult: 0
	}
	param {
		lr_mult: 0
		decay_mult: 0
	}
	param {
		lr_mult: 0
		decay_mult: 0
	}
	bn_param {
		scale_filler {
			type: "constant"
			value: 1
		}
		shift_filler {
			type: "constant"
			value: 0
		}
		moving_average: true
		decay: 0.05
	}
}

layer {
	bottom: "res4a"
	bottom: "res4b_branch2b"
	top: "res4b"
	name: "res4b_eltwise"
	type: "Eltwise"
	eltwise_param {
		operation: SUM
	}
}

layer {
	bottom: "res4b"
	top: "res4b"
	name: "res4b_relu"
	type: "ReLU"
}

layer {
	bottom: "res4b"
	top: "res5a_branch2a"
	name: "res5a_branch2a_conv"
	type: "ConvolutionData"
	param {
		lr_mult: 1
		decay_mult: 1
	}
	param {
		lr_mult: 2
		decay_mult: 0
	}
	convolution_param {
		num_output: 512
		kernel_size: 3
		pad: 1
		stride: 2
		weight_filler {
			type: "guassian"
			std: 0.01
		}
		bias_filler {
			type: "constant"
		}
	}
}

layer {
	bottom: "res5a_branch2a"
	top: "res5a_branch2a"
	name: "res5a_branch2a_bn"
	type: "BNData"
	param {
		lr_mult: 1
		decay_mult: 0
	}
	param {
		lr_mult: 1
		decay_mult: 0
	}
	param {
		lr_mult: 0
		decay_mult: 0
	}
	param {
		lr_mult: 0
		decay_mult: 0
	}
	bn_param {
		scale_filler {
			type: "constant"
			value: 1
		}
		shift_filler {
			type: "constant"
			value: 0
		}
		moving_average: true
		decay: 0.05
	}
}

layer {
	bottom: "res5a_branch2a"
	top: "res5a_branch2a"
	name: "res5a_branch2a_relu"
	type: "ReLU"
}

layer {
	bottom: "res5a_branch2a"
	top: "res5a_branch2b"
	name: "res5a_branch2b_conv"
	type: "ConvolutionData"
	param {
		lr_mult: 1
		decay_mult: 1
	}
	param {
		lr_mult: 2
		decay_mult: 0
	}
	convolution_param {
		num_output: 512
		kernel_size: 3
		pad: 1
		stride: 1
		weight_filler {
			type: "guassian"
			std: 0.01
		}
		bias_filler {
			type: "constant"
		}
	}
}

layer {
	bottom: "res5a_branch2b"
	top: "res5a_branch2b"
	name: "res5a_branch2b_bn"
	type: "BNData"
	param {
		lr_mult: 1
		decay_mult: 0
	}
	param {
		lr_mult: 1
		decay_mult: 0
	}
	param {
		lr_mult: 0
		decay_mult: 0
	}
	param {
		lr_mult: 0
		decay_mult: 0
	}
	bn_param {
		scale_filler {
			type: "constant"
			value: 1
		}
		shift_filler {
			type: "constant"
			value: 0
		}
		moving_average: true
		decay: 0.05
	}
}

layer {
	bottom: "res4b"
	top: "res5a_branch1"
	name: "res5a_branch1_conv"
	type: "ConvolutionData"
	param {
		lr_mult: 1
		decay_mult: 1
	}
	param {
		lr_mult: 2
		decay_mult: 0
	}
	convolution_param {
		num_output: 512
		kernel_size: 1
		pad: 0
		stride: 2
		weight_filler {
			type: "guassian"
			std: 0.01
		}
		bias_filler {
			type: "constant"
		}
	}
}

layer {
	bottom: "res5a_branch1"
	top: "res5a_branch1"
	name: "res5a_branch1_bn"
	type: "BNData"
	param {
		lr_mult: 1
		decay_mult: 0
	}
	param {
		lr_mult: 1
		decay_mult: 0
	}
	param {
		lr_mult: 0
		decay_mult: 0
	}
	param {
		lr_mult: 0
		decay_mult: 0
	}
	bn_param {
		scale_filler {
			type: "constant"
			value: 1
		}
		shift_filler {
			type: "constant"
			value: 0
		}
		moving_average: true
		decay: 0.05
	}
}

layer {
	bottom: "res5a_branch1"
	bottom: "res5a_branch2b"
	top: "res5a"
	name: "res5a_eltwise"
	type: "Eltwise"
	eltwise_param {
		operation: SUM
	}
}

layer {
	bottom: "res5a"
	top: "res5a"
	name: "res5a_relu"
	type: "ReLU"
}

layer {
	bottom: "res5a"
	top: "res5b_branch2a"
	name: "res5b_branch2a_conv"
	type: "ConvolutionData"
	param {
		lr_mult: 1
		decay_mult: 1
	}
	param {
		lr_mult: 2
		decay_mult: 0
	}
	convolution_param {
		num_output: 512
		kernel_size: 3
		pad: 1
		stride: 1
		weight_filler {
			type: "guassian"
			std: 0.01
		}
		bias_filler {
			type: "constant"
		}
	}
}

layer {
	bottom: "res5b_branch2a"
	top: "res5b_branch2a"
	name: "res5b_branch2a_bn"
	type: "BNData"
	param {
		lr_mult: 1
		decay_mult: 0
	}
	param {
		lr_mult: 1
		decay_mult: 0
	}
	param {
		lr_mult: 0
		decay_mult: 0
	}
	param {
		lr_mult: 0
		decay_mult: 0
	}
	bn_param {
		scale_filler {
			type: "constant"
			value: 1
		}
		shift_filler {
			type: "constant"
			value: 0
		}
		moving_average: true
		decay: 0.05
	}
}

layer {
	bottom: "res5b_branch2a"
	top: "res5b_branch2a"
	name: "res5b_branch2a_relu"
	type: "ReLU"
}

layer {
	bottom: "res5b_branch2a"
	top: "res5b_branch2b"
	name: "res5b_branch2b_conv"
	type: "ConvolutionData"
	param {
		lr_mult: 1
		decay_mult: 1
	}
	param {
		lr_mult: 2
		decay_mult: 0
	}
	convolution_param {
		num_output: 512
		kernel_size: 3
		pad: 1
		stride: 1
		weight_filler {
			type: "guassian"
			std: 0.01
		}
		bias_filler {
			type: "constant"
		}
	}
}

layer {
	bottom: "res5b_branch2b"
	top: "res5b_branch2b"
	name: "res5b_branch2b_bn"
	type: "BNData"
	param {
		lr_mult: 1
		decay_mult: 0
	}
	param {
		lr_mult: 1
		decay_mult: 0
	}
	param {
		lr_mult: 0
		decay_mult: 0
	}
	param {
		lr_mult: 0
		decay_mult: 0
	}
	bn_param {
		scale_filler {
			type: "constant"
			value: 1
		}
		shift_filler {
			type: "constant"
			value: 0
		}
		moving_average: true
		decay: 0.05
	}
}

layer {
	bottom: "res5a"
	bottom: "res5b_branch2b"
	top: "res5b"
	name: "res5b_eltwise"
	type: "Eltwise"
	eltwise_param {
		operation: SUM
	}
}

layer {
	bottom: "res5b"
	top: "res5b"
	name: "res5b_relu"
	type: "ReLU"
}

layer {
	bottom: "res5b"
	top: "res5c"
	name: "res5c_conv"
	type: "ConvolutionData"
	param {
		lr_mult: 1
		decay_mult: 1
	}
	param {
		lr_mult: 2
		decay_mult: 0
	}
	convolution_param {
		num_output: 256
		kernel_size: 1
		pad: 0
		stride: 1
		weight_filler {
			type: "guassian"
			std: 0.01
		}
		bias_filler {
			type: "constant"
		}
	}
}

layer {
	bottom: "res5c"
	top: "res5c"
	name: "res5c_bn"
	type: "BNData"
	param {
		lr_mult: 1
		decay_mult: 0
	}
	param {
		lr_mult: 1
		decay_mult: 0
	}
	param {
		lr_mult: 0
		decay_mult: 0
	}
	param {
		lr_mult: 0
		decay_mult: 0
	}
	bn_param {
		scale_filler {
			type: "constant"
			value: 1
		}
		shift_filler {
			type: "constant"
			value: 0
		}
		moving_average: true
		decay: 0.05
	}
}

layer {
	bottom: "res5c"
	top: "res5c"
	name: "res5c_relu"
	type: "ReLU"
}

layer {
	bottom: "res5c"
	top: "res5c2"
	name: "res5c2_interp"
	type: "Interp"
	interp_param {
		zoom_factor: 2
	}
}

layer {
	bottom: "res5c2"
	bottom: "res4b"
	top: "res5d"
	name: "res5d_concat"
	type: "Concat"
	concat_param {
		axis: 1
	}
}

layer {
	bottom: "res5d"
	top: "res6a_branch2a"
	name: "res6a_branch2a_conv"
	type: "ConvolutionData"
	param {
		lr_mult: 1
		decay_mult: 1
	}
	param {
		lr_mult: 2
		decay_mult: 0
	}
	convolution_param {
		num_output: 256
		kernel_size: 3
		pad: 1
		stride: 1
		weight_filler {
			type: "guassian"
			std: 0.01
		}
		bias_filler {
			type: "constant"
		}
	}
}

layer {
	bottom: "res6a_branch2a"
	top: "res6a_branch2a"
	name: "res6a_branch2a_bn"
	type: "BNData"
	param {
		lr_mult: 1
		decay_mult: 0
	}
	param {
		lr_mult: 1
		decay_mult: 0
	}
	param {
		lr_mult: 0
		decay_mult: 0
	}
	param {
		lr_mult: 0
		decay_mult: 0
	}
	bn_param {
		scale_filler {
			type: "constant"
			value: 1
		}
		shift_filler {
			type: "constant"
			value: 0
		}
		moving_average: true
		decay: 0.05
	}
}

layer {
	bottom: "res6a_branch2a"
	top: "res6a_branch2a"
	name: "res6a_branch2a_relu"
	type: "ReLU"
}

layer {
	bottom: "res6a_branch2a"
	top: "res6a_branch2b"
	name: "res6a_branch2b_conv"
	type: "ConvolutionData"
	param {
		lr_mult: 1
		decay_mult: 1
	}
	param {
		lr_mult: 2
		decay_mult: 0
	}
	convolution_param {
		num_output: 256
		kernel_size: 3
		pad: 1
		stride: 1
		weight_filler {
			type: "guassian"
			std: 0.01
		}
		bias_filler {
			type: "constant"
		}
	}
}

layer {
	bottom: "res6a_branch2b"
	top: "res6a_branch2b"
	name: "res6a_branch2b_bn"
	type: "BNData"
	param {
		lr_mult: 1
		decay_mult: 0
	}
	param {
		lr_mult: 1
		decay_mult: 0
	}
	param {
		lr_mult: 0
		decay_mult: 0
	}
	param {
		lr_mult: 0
		decay_mult: 0
	}
	bn_param {
		scale_filler {
			type: "constant"
			value: 1
		}
		shift_filler {
			type: "constant"
			value: 0
		}
		moving_average: true
		decay: 0.05
	}
}

layer {
	bottom: "res5d"
	top: "res6a_branch1"
	name: "res6a_branch1_conv"
	type: "ConvolutionData"
	param {
		lr_mult: 1
		decay_mult: 1
	}
	param {
		lr_mult: 2
		decay_mult: 0
	}
	convolution_param {
		num_output: 256
		kernel_size: 1
		pad: 0
		stride: 1
		weight_filler {
			type: "guassian"
			std: 0.01
		}
		bias_filler {
			type: "constant"
		}
	}
}

layer {
	bottom: "res6a_branch1"
	top: "res6a_branch1"
	name: "res6a_branch1_bn"
	type: "BNData"
	param {
		lr_mult: 1
		decay_mult: 0
	}
	param {
		lr_mult: 1
		decay_mult: 0
	}
	param {
		lr_mult: 0
		decay_mult: 0
	}
	param {
		lr_mult: 0
		decay_mult: 0
	}
	bn_param {
		scale_filler {
			type: "constant"
			value: 1
		}
		shift_filler {
			type: "constant"
			value: 0
		}
		moving_average: true
		decay: 0.05
	}
}

layer {
	bottom: "res6a_branch1"
	bottom: "res6a_branch2b"
	top: "res6a"
	name: "res6a_eltwise"
	type: "Eltwise"
	eltwise_param {
		operation: SUM
	}
}

layer {
	bottom: "res6a"
	top: "res6a"
	name: "res6a_relu"
	type: "ReLU"
}

layer {
	bottom: "res6a"
	top: "res6b_branch2a"
	name: "res6b_branch2a_conv"
	type: "ConvolutionData"
	param {
		lr_mult: 1
		decay_mult: 1
	}
	param {
		lr_mult: 2
		decay_mult: 0
	}
	convolution_param {
		num_output: 256
		kernel_size: 3
		pad: 1
		stride: 1
		weight_filler {
			type: "guassian"
			std: 0.01
		}
		bias_filler {
			type: "constant"
		}
	}
}

layer {
	bottom: "res6b_branch2a"
	top: "res6b_branch2a"
	name: "res6b_branch2a_bn"
	type: "BNData"
	param {
		lr_mult: 1
		decay_mult: 0
	}
	param {
		lr_mult: 1
		decay_mult: 0
	}
	param {
		lr_mult: 0
		decay_mult: 0
	}
	param {
		lr_mult: 0
		decay_mult: 0
	}
	bn_param {
		scale_filler {
			type: "constant"
			value: 1
		}
		shift_filler {
			type: "constant"
			value: 0
		}
		moving_average: true
		decay: 0.05
	}
}

layer {
	bottom: "res6b_branch2a"
	top: "res6b_branch2a"
	name: "res6b_branch2a_relu"
	type: "ReLU"
}

layer {
	bottom: "res6b_branch2a"
	top: "res6b_branch2b"
	name: "res6b_branch2b_conv"
	type: "ConvolutionData"
	param {
		lr_mult: 1
		decay_mult: 1
	}
	param {
		lr_mult: 2
		decay_mult: 0
	}
	convolution_param {
		num_output: 256
		kernel_size: 3
		pad: 1
		stride: 1
		weight_filler {
			type: "guassian"
			std: 0.01
		}
		bias_filler {
			type: "constant"
		}
	}
}

layer {
	bottom: "res6b_branch2b"
	top: "res6b_branch2b"
	name: "res6b_branch2b_bn"
	type: "BNData"
	param {
		lr_mult: 1
		decay_mult: 0
	}
	param {
		lr_mult: 1
		decay_mult: 0
	}
	param {
		lr_mult: 0
		decay_mult: 0
	}
	param {
		lr_mult: 0
		decay_mult: 0
	}
	bn_param {
		scale_filler {
			type: "constant"
			value: 1
		}
		shift_filler {
			type: "constant"
			value: 0
		}
		moving_average: true
		decay: 0.05
	}
}

layer {
	bottom: "res6a"
	bottom: "res6b_branch2b"
	top: "res6b"
	name: "res6b_eltwise"
	type: "Eltwise"
	eltwise_param {
		operation: SUM
	}
}

layer {
	bottom: "res6b"
	top: "res6b"
	name: "res6b_relu"
	type: "ReLU"
}

layer {
	bottom: "res6b"
	top: "res6c"
	name: "res6c_conv"
	type: "ConvolutionData"
	param {
		lr_mult: 1
		decay_mult: 1
	}
	param {
		lr_mult: 2
		decay_mult: 0
	}
	convolution_param {
		num_output: 128
		kernel_size: 1
		pad: 0
		stride: 1
		weight_filler {
			type: "guassian"
			std: 0.01
		}
		bias_filler {
			type: "constant"
		}
	}
}

layer {
	bottom: "res6c"
	top: "res6c"
	name: "res6c_bn"
	type: "BNData"
	param {
		lr_mult: 1
		decay_mult: 0
	}
	param {
		lr_mult: 1
		decay_mult: 0
	}
	param {
		lr_mult: 0
		decay_mult: 0
	}
	param {
		lr_mult: 0
		decay_mult: 0
	}
	bn_param {
		scale_filler {
			type: "constant"
			value: 1
		}
		shift_filler {
			type: "constant"
			value: 0
		}
		moving_average: true
		decay: 0.05
	}
}

layer {
	bottom: "res6c"
	top: "res6c"
	name: "res6c_relu"
	type: "ReLU"
}

layer {
	bottom: "res6c"
	top: "res6c2"
	name: "res6c2_interp"
	type: "Interp"
	interp_param {
		zoom_factor: 2
	}
}

layer {
	bottom: "res6c2"
	bottom: "res3b"
	top: "res6d"
	name: "res6d_concat"
	type: "Concat"
	concat_param {
		axis: 1
	}
}

layer {
	bottom: "res6d"
	top: "res7a_branch2a"
	name: "res7a_branch2a_conv"
	type: "ConvolutionData"
	param {
		lr_mult: 1
		decay_mult: 1
	}
	param {
		lr_mult: 2
		decay_mult: 0
	}
	convolution_param {
		num_output: 128
		kernel_size: 3
		pad: 1
		stride: 1
		weight_filler {
			type: "guassian"
			std: 0.01
		}
		bias_filler {
			type: "constant"
		}
	}
}

layer {
	bottom: "res7a_branch2a"
	top: "res7a_branch2a"
	name: "res7a_branch2a_bn"
	type: "BNData"
	param {
		lr_mult: 1
		decay_mult: 0
	}
	param {
		lr_mult: 1
		decay_mult: 0
	}
	param {
		lr_mult: 0
		decay_mult: 0
	}
	param {
		lr_mult: 0
		decay_mult: 0
	}
	bn_param {
		scale_filler {
			type: "constant"
			value: 1
		}
		shift_filler {
			type: "constant"
			value: 0
		}
		moving_average: true
		decay: 0.05
	}
}

layer {
	bottom: "res7a_branch2a"
	top: "res7a_branch2a"
	name: "res7a_branch2a_relu"
	type: "ReLU"
}

layer {
	bottom: "res7a_branch2a"
	top: "res7a_branch2b"
	name: "res7a_branch2b_conv"
	type: "ConvolutionData"
	param {
		lr_mult: 1
		decay_mult: 1
	}
	param {
		lr_mult: 2
		decay_mult: 0
	}
	convolution_param {
		num_output: 128
		kernel_size: 3
		pad: 1
		stride: 1
		weight_filler {
			type: "guassian"
			std: 0.01
		}
		bias_filler {
			type: "constant"
		}
	}
}

layer {
	bottom: "res7a_branch2b"
	top: "res7a_branch2b"
	name: "res7a_branch2b_bn"
	type: "BNData"
	param {
		lr_mult: 1
		decay_mult: 0
	}
	param {
		lr_mult: 1
		decay_mult: 0
	}
	param {
		lr_mult: 0
		decay_mult: 0
	}
	param {
		lr_mult: 0
		decay_mult: 0
	}
	bn_param {
		scale_filler {
			type: "constant"
			value: 1
		}
		shift_filler {
			type: "constant"
			value: 0
		}
		moving_average: true
		decay: 0.05
	}
}

layer {
	bottom: "res6d"
	top: "res7a_branch1"
	name: "res7a_branch1_conv"
	type: "ConvolutionData"
	param {
		lr_mult: 1
		decay_mult: 1
	}
	param {
		lr_mult: 2
		decay_mult: 0
	}
	convolution_param {
		num_output: 128
		kernel_size: 1
		pad: 0
		stride: 1
		weight_filler {
			type: "guassian"
			std: 0.01
		}
		bias_filler {
			type: "constant"
		}
	}
}

layer {
	bottom: "res7a_branch1"
	top: "res7a_branch1"
	name: "res7a_branch1_bn"
	type: "BNData"
	param {
		lr_mult: 1
		decay_mult: 0
	}
	param {
		lr_mult: 1
		decay_mult: 0
	}
	param {
		lr_mult: 0
		decay_mult: 0
	}
	param {
		lr_mult: 0
		decay_mult: 0
	}
	bn_param {
		scale_filler {
			type: "constant"
			value: 1
		}
		shift_filler {
			type: "constant"
			value: 0
		}
		moving_average: true
		decay: 0.05
	}
}

layer {
	bottom: "res7a_branch1"
	bottom: "res7a_branch2b"
	top: "res7a"
	name: "res7a_eltwise"
	type: "Eltwise"
	eltwise_param {
		operation: SUM
	}
}

layer {
	bottom: "res7a"
	top: "res7a"
	name: "res7a_relu"
	type: "ReLU"
}

layer {
	bottom: "res7a"
	top: "res7b_branch2a"
	name: "res7b_branch2a_conv"
	type: "ConvolutionData"
	param {
		lr_mult: 1
		decay_mult: 1
	}
	param {
		lr_mult: 2
		decay_mult: 0
	}
	convolution_param {
		num_output: 128
		kernel_size: 3
		pad: 1
		stride: 1
		weight_filler {
			type: "guassian"
			std: 0.01
		}
		bias_filler {
			type: "constant"
		}
	}
}

layer {
	bottom: "res7b_branch2a"
	top: "res7b_branch2a"
	name: "res7b_branch2a_bn"
	type: "BNData"
	param {
		lr_mult: 1
		decay_mult: 0
	}
	param {
		lr_mult: 1
		decay_mult: 0
	}
	param {
		lr_mult: 0
		decay_mult: 0
	}
	param {
		lr_mult: 0
		decay_mult: 0
	}
	bn_param {
		scale_filler {
			type: "constant"
			value: 1
		}
		shift_filler {
			type: "constant"
			value: 0
		}
		moving_average: true
		decay: 0.05
	}
}

layer {
	bottom: "res7b_branch2a"
	top: "res7b_branch2a"
	name: "res7b_branch2a_relu"
	type: "ReLU"
}

layer {
	bottom: "res7b_branch2a"
	top: "res7b_branch2b"
	name: "res7b_branch2b_conv"
	type: "ConvolutionData"
	param {
		lr_mult: 1
		decay_mult: 1
	}
	param {
		lr_mult: 2
		decay_mult: 0
	}
	convolution_param {
		num_output: 128
		kernel_size: 3
		pad: 1
		stride: 1
		weight_filler {
			type: "guassian"
			std: 0.01
		}
		bias_filler {
			type: "constant"
		}
	}
}

layer {
	bottom: "res7b_branch2b"
	top: "res7b_branch2b"
	name: "res7b_branch2b_bn"
	type: "BNData"
	param {
		lr_mult: 1
		decay_mult: 0
	}
	param {
		lr_mult: 1
		decay_mult: 0
	}
	param {
		lr_mult: 0
		decay_mult: 0
	}
	param {
		lr_mult: 0
		decay_mult: 0
	}
	bn_param {
		scale_filler {
			type: "constant"
			value: 1
		}
		shift_filler {
			type: "constant"
			value: 0
		}
		moving_average: true
		decay: 0.05
	}
}

layer {
	bottom: "res7a"
	bottom: "res7b_branch2b"
	top: "res7b"
	name: "res7b_eltwise"
	type: "Eltwise"
	eltwise_param {
		operation: SUM
	}
}

layer {
	bottom: "res7b"
	top: "res7b"
	name: "res7b_relu"
	type: "ReLU"
}

layer {
	bottom: "res7b"
	top: "res7c"
	name: "res7c_conv"
	type: "ConvolutionData"
	param {
		lr_mult: 1
		decay_mult: 1
	}
	param {
		lr_mult: 2
		decay_mult: 0
	}
	convolution_param {
		num_output: 64
		kernel_size: 1
		pad: 0
		stride: 1
		weight_filler {
			type: "guassian"
			std: 0.01
		}
		bias_filler {
			type: "constant"
		}
	}
}

layer {
	bottom: "res7c"
	top: "res7c"
	name: "res7c_bn"
	type: "BNData"
	param {
		lr_mult: 1
		decay_mult: 0
	}
	param {
		lr_mult: 1
		decay_mult: 0
	}
	param {
		lr_mult: 0
		decay_mult: 0
	}
	param {
		lr_mult: 0
		decay_mult: 0
	}
	bn_param {
		scale_filler {
			type: "constant"
			value: 1
		}
		shift_filler {
			type: "constant"
			value: 0
		}
		moving_average: true
		decay: 0.05
	}
}

layer {
	bottom: "res7c"
	top: "res7c"
	name: "res7c_relu"
	type: "ReLU"
}

layer {
	bottom: "res7c"
	top: "res7c2"
	name: "res7c2_interp"
	type: "Interp"
	interp_param {
		zoom_factor: 2
	}
}

layer {
	bottom: "res7c2"
	bottom: "res2b"
	top: "res7d"
	name: "res7d_concat"
	type: "Concat"
	concat_param {
		axis: 1
	}
}

layer {
	bottom: "res7d"
	top: "res8a_branch2a"
	name: "res8a_branch2a_conv"
	type: "ConvolutionData"
	param {
		lr_mult: 1
		decay_mult: 1
	}
	param {
		lr_mult: 2
		decay_mult: 0
	}
	convolution_param {
		num_output: 64
		kernel_size: 3
		pad: 1
		stride: 1
		weight_filler {
			type: "guassian"
			std: 0.01
		}
		bias_filler {
			type: "constant"
		}
	}
}

layer {
	bottom: "res8a_branch2a"
	top: "res8a_branch2a"
	name: "res8a_branch2a_bn"
	type: "BNData"
	param {
		lr_mult: 1
		decay_mult: 0
	}
	param {
		lr_mult: 1
		decay_mult: 0
	}
	param {
		lr_mult: 0
		decay_mult: 0
	}
	param {
		lr_mult: 0
		decay_mult: 0
	}
	bn_param {
		scale_filler {
			type: "constant"
			value: 1
		}
		shift_filler {
			type: "constant"
			value: 0
		}
		moving_average: true
		decay: 0.05
	}
}

layer {
	bottom: "res8a_branch2a"
	top: "res8a_branch2a"
	name: "res8a_branch2a_relu"
	type: "ReLU"
}

layer {
	bottom: "res8a_branch2a"
	top: "res8a_branch2b"
	name: "res8a_branch2b_conv"
	type: "ConvolutionData"
	param {
		lr_mult: 1
		decay_mult: 1
	}
	param {
		lr_mult: 2
		decay_mult: 0
	}
	convolution_param {
		num_output: 64
		kernel_size: 3
		pad: 1
		stride: 1
		weight_filler {
			type: "guassian"
			std: 0.01
		}
		bias_filler {
			type: "constant"
		}
	}
}

layer {
	bottom: "res8a_branch2b"
	top: "res8a_branch2b"
	name: "res8a_branch2b_bn"
	type: "BNData"
	param {
		lr_mult: 1
		decay_mult: 0
	}
	param {
		lr_mult: 1
		decay_mult: 0
	}
	param {
		lr_mult: 0
		decay_mult: 0
	}
	param {
		lr_mult: 0
		decay_mult: 0
	}
	bn_param {
		scale_filler {
			type: "constant"
			value: 1
		}
		shift_filler {
			type: "constant"
			value: 0
		}
		moving_average: true
		decay: 0.05
	}
}

layer {
	bottom: "res7d"
	top: "res8a_branch1"
	name: "res8a_branch1_conv"
	type: "ConvolutionData"
	param {
		lr_mult: 1
		decay_mult: 1
	}
	param {
		lr_mult: 2
		decay_mult: 0
	}
	convolution_param {
		num_output: 64
		kernel_size: 1
		pad: 0
		stride: 1
		weight_filler {
			type: "guassian"
			std: 0.01
		}
		bias_filler {
			type: "constant"
		}
	}
}

layer {
	bottom: "res8a_branch1"
	top: "res8a_branch1"
	name: "res8a_branch1_bn"
	type: "BNData"
	param {
		lr_mult: 1
		decay_mult: 0
	}
	param {
		lr_mult: 1
		decay_mult: 0
	}
	param {
		lr_mult: 0
		decay_mult: 0
	}
	param {
		lr_mult: 0
		decay_mult: 0
	}
	bn_param {
		scale_filler {
			type: "constant"
			value: 1
		}
		shift_filler {
			type: "constant"
			value: 0
		}
		moving_average: true
		decay: 0.05
	}
}

layer {
	bottom: "res8a_branch1"
	bottom: "res8a_branch2b"
	top: "res8a"
	name: "res8a_eltwise"
	type: "Eltwise"
	eltwise_param {
		operation: SUM
	}
}

layer {
	bottom: "res8a"
	top: "res8a"
	name: "res8a_relu"
	type: "ReLU"
}

layer {
	bottom: "res8a"
	top: "res8b_branch2a"
	name: "res8b_branch2a_conv"
	type: "ConvolutionData"
	param {
		lr_mult: 1
		decay_mult: 1
	}
	param {
		lr_mult: 2
		decay_mult: 0
	}
	convolution_param {
		num_output: 64
		kernel_size: 3
		pad: 1
		stride: 1
		weight_filler {
			type: "guassian"
			std: 0.01
		}
		bias_filler {
			type: "constant"
		}
	}
}

layer {
	bottom: "res8b_branch2a"
	top: "res8b_branch2a"
	name: "res8b_branch2a_bn"
	type: "BNData"
	param {
		lr_mult: 1
		decay_mult: 0
	}
	param {
		lr_mult: 1
		decay_mult: 0
	}
	param {
		lr_mult: 0
		decay_mult: 0
	}
	param {
		lr_mult: 0
		decay_mult: 0
	}
	bn_param {
		scale_filler {
			type: "constant"
			value: 1
		}
		shift_filler {
			type: "constant"
			value: 0
		}
		moving_average: true
		decay: 0.05
	}
}

layer {
	bottom: "res8b_branch2a"
	top: "res8b_branch2a"
	name: "res8b_branch2a_relu"
	type: "ReLU"
}

layer {
	bottom: "res8b_branch2a"
	top: "res8b_branch2b"
	name: "res8b_branch2b_conv"
	type: "ConvolutionData"
	param {
		lr_mult: 1
		decay_mult: 1
	}
	param {
		lr_mult: 2
		decay_mult: 0
	}
	convolution_param {
		num_output: 64
		kernel_size: 3
		pad: 1
		stride: 1
		weight_filler {
			type: "guassian"
			std: 0.01
		}
		bias_filler {
			type: "constant"
		}
	}
}

layer {
	bottom: "res8b_branch2b"
	top: "res8b_branch2b"
	name: "res8b_branch2b_bn"
	type: "BNData"
	param {
		lr_mult: 1
		decay_mult: 0
	}
	param {
		lr_mult: 1
		decay_mult: 0
	}
	param {
		lr_mult: 0
		decay_mult: 0
	}
	param {
		lr_mult: 0
		decay_mult: 0
	}
	bn_param {
		scale_filler {
			type: "constant"
			value: 1
		}
		shift_filler {
			type: "constant"
			value: 0
		}
		moving_average: true
		decay: 0.05
	}
}

layer {
	bottom: "res8a"
	bottom: "res8b_branch2b"
	top: "res8b"
	name: "res8b_eltwise"
	type: "Eltwise"
	eltwise_param {
		operation: SUM
	}
}

layer {
	bottom: "res8b"
	top: "res8b"
	name: "res8b_relu"
	type: "ReLU"
}

layer {
	bottom: "res8b"
	top: "res8c"
	name: "res8c_conv"
	type: "ConvolutionData"
	param {
		lr_mult: 1
		decay_mult: 1
	}
	param {
		lr_mult: 2
		decay_mult: 0
	}
	convolution_param {
		num_output: 32
		kernel_size: 1
		pad: 0
		stride: 1
		weight_filler {
			type: "guassian"
			std: 0.01
		}
		bias_filler {
			type: "constant"
		}
	}
}

layer {
	bottom: "res8c"
	top: "res8c"
	name: "res8c_bn"
	type: "BNData"
	param {
		lr_mult: 1
		decay_mult: 0
	}
	param {
		lr_mult: 1
		decay_mult: 0
	}
	param {
		lr_mult: 0
		decay_mult: 0
	}
	param {
		lr_mult: 0
		decay_mult: 0
	}
	bn_param {
		scale_filler {
			type: "constant"
			value: 1
		}
		shift_filler {
			type: "constant"
			value: 0
		}
		moving_average: true
		decay: 0.05
	}
}

layer {
	bottom: "res8c"
	top: "res8c"
	name: "res8c_relu"
	type: "ReLU"
}

layer {
	bottom: "res8c"
	top: "res8c2"
	name: "res8c2_interp"
	type: "Interp"
	interp_param {
		zoom_factor: 2
	}
}

layer {
	bottom: "conv1"
	top: "res1a"
	name: "res1a_conv"
	type: "ConvolutionData"
	param {
		lr_mult: 1
		decay_mult: 1
	}
	param {
		lr_mult: 2
		decay_mult: 0
	}
	convolution_param {
		num_output: 32
		kernel_size: 3
		pad: 1
		stride: 1
		weight_filler {
			type: "guassian"
			std: 0.01
		}
		bias_filler {
			type: "constant"
		}
	}
}

layer {
	bottom: "res1a"
	top: "res1a"
	name: "res1a_bn"
	type: "BNData"
	param {
		lr_mult: 1
		decay_mult: 0
	}
	param {
		lr_mult: 1
		decay_mult: 0
	}
	param {
		lr_mult: 0
		decay_mult: 0
	}
	param {
		lr_mult: 0
		decay_mult: 0
	}
	bn_param {
		scale_filler {
			type: "constant"
			value: 1
		}
		shift_filler {
			type: "constant"
			value: 0
		}
		moving_average: true
		decay: 0.05
	}
}

layer {
	bottom: "res1a"
	top: "res1a"
	name: "res1a_relu"
	type: "ReLU"
}

layer {
	bottom: "res1a"
	top: "res1b"
	name: "res1b_conv"
	type: "ConvolutionData"
	param {
		lr_mult: 1
		decay_mult: 1
	}
	param {
		lr_mult: 2
		decay_mult: 0
	}
	convolution_param {
		num_output: 32
		kernel_size: 3
		pad: 1
		stride: 1
		weight_filler {
			type: "guassian"
			std: 0.01
		}
		bias_filler {
			type: "constant"
		}
	}
}

layer {
	bottom: "res1b"
	top: "res1b"
	name: "res1b_bn"
	type: "BNData"
	param {
		lr_mult: 1
		decay_mult: 0
	}
	param {
		lr_mult: 1
		decay_mult: 0
	}
	param {
		lr_mult: 0
		decay_mult: 0
	}
	param {
		lr_mult: 0
		decay_mult: 0
	}
	bn_param {
		scale_filler {
			type: "constant"
			value: 1
		}
		shift_filler {
			type: "constant"
			value: 0
		}
		moving_average: true
		decay: 0.05
	}
}

layer {
	bottom: "res1b"
	top: "res1b"
	name: "res1b_relu"
	type: "ReLU"
}

layer {
	bottom: "res8c2"
	bottom: "res1b"
	top: "res8d"
	name: "res8d_concat"
	type: "Concat"
	concat_param {
		axis: 1
	}
}

layer {
	bottom: "res8d"
	top: "res9a"
	name: "res9a_conv"
	type: "ConvolutionData"
	param {
		lr_mult: 1
		decay_mult: 1
	}
	param {
		lr_mult: 2
		decay_mult: 0
	}
	convolution_param {
		num_output: 64
		kernel_size: 3
		pad: 1
		stride: 1
		weight_filler {
			type: "guassian"
			std: 0.01
		}
		bias_filler {
			type: "constant"
		}
	}
}

layer {
	bottom: "res9a"
	top: "res9a"
	name: "res9a_bn"
	type: "BNData"
	param {
		lr_mult: 1
		decay_mult: 0
	}
	param {
		lr_mult: 1
		decay_mult: 0
	}
	param {
		lr_mult: 0
		decay_mult: 0
	}
	param {
		lr_mult: 0
		decay_mult: 0
	}
	bn_param {
		scale_filler {
			type: "constant"
			value: 1
		}
		shift_filler {
			type: "constant"
			value: 0
		}
		moving_average: true
		decay: 0.05
	}
}

layer {
	bottom: "res9a"
	top: "res9a"
	name: "res9a_relu"
	type: "ReLU"
}

layer {
	bottom: "res9a"
	top: "res9b"
	name: "res9b_conv"
	type: "ConvolutionData"
	param {
		lr_mult: 1
		decay_mult: 1
	}
	param {
		lr_mult: 2
		decay_mult: 0
	}
	convolution_param {
		num_output: 256
		kernel_size: 1
		pad: 0
		stride: 1
		weight_filler {
			type: "guassian"
			std: 0.01
		}
		bias_filler {
			type: "constant"
		}
	}
}

layer {
	bottom: "res9b"
	top: "res9b"
	name: "res9b_bn"
	type: "BNData"
	param {
		lr_mult: 1
		decay_mult: 0
	}
	param {
		lr_mult: 1
		decay_mult: 0
	}
	param {
		lr_mult: 0
		decay_mult: 0
	}
	param {
		lr_mult: 0
		decay_mult: 0
	}
	bn_param {
		scale_filler {
			type: "constant"
			value: 1
		}
		shift_filler {
			type: "constant"
			value: 0
		}
		moving_average: true
		decay: 0.05
	}
}

layer {
	bottom: "res9b"
	top: "res9b"
	name: "res9b_relu"
	type: "ReLU"
}

layer {
	bottom: "res9b"
	top: "res9c"
	name: "res9c_conv"
	type: "ConvolutionData"
	param {
		lr_mult: 1
		decay_mult: 1
	}
	param {
		lr_mult: 2
		decay_mult: 0
	}
	convolution_param {
		num_output: 1
		kernel_size: 1
		pad: 0
		stride: 1
		weight_filler {
			type: "guassian"
			std: 0.01
		}
		bias_filler {
			type: "constant"
		}
	}
}

layer {
	bottom: "res9c"
	top: "heatmap"
	name: "heatmap_relu"
	type: "ReLU"
}

layer {
	bottom: "heatmap"
	bottom: "label3"	
	top: "loss"
	type: "EuclideanLoss"
	name: "loss"
}



layer {
  name: "data"
  type: "HDF5Data"
  top: "data"
  top: "label"
  include {
    phase: TRAIN
  }
  hdf5_data_param {
    source: "/mnt/lustre/duanhaodong/dataset/shanghai/part_A_final/train_data/train/train.txt"
    batch_size: 16
  }
}


layer {
    name: "reshape"
    type: "Reshape"
    bottom: "label"
    top: "label3"
    reshape_param {
        shape {
                dim: 16  # copy the dimension from below
                dim: 1
                dim: 112
                dim: 112 # infer it from the other dimensions
        }
    }
}




layer {
	bottom: "data"
	top: "conv1"
	name: "conv1_conv"
	type: "ConvolutionData"
	param {
		lr_mult: 1
		decay_mult: 1
	}
	param {
		lr_mult: 2
		decay_mult: 0
	}
	convolution_param {
		num_output: 64
		kernel_size: 7
		pad: 3
		stride: 2
		weight_filler {
			type: "guassian"
			std: 0.01
		}
		bias_filler {
			type: "constant"
		}
	}
}

layer {
	bottom: "conv1"
	top: "conv1"
	name: "conv1_bn"
	type: "BNData"
	param {
		lr_mult: 1
		decay_mult: 0
	}
	param {
		lr_mult: 1
		decay_mult: 0
	}
	param {
		lr_mult: 0
		decay_mult: 0
	}
	param {
		lr_mult: 0
		decay_mult: 0
	}
	bn_param {
		scale_filler {
			type: "constant"
			value: 1
		}
		shift_filler {
			type: "constant"
			value: 0
		}
		moving_average: true
		decay: 0.05
	}
}

layer {
	bottom: "conv1"
	top: "conv1"
	name: "conv1_relu"
	type: "ReLU"
}

layer {
	bottom: "conv1"
	top: "pool1"
	name: "pool1_conv"
	type: "Pooling"
	pooling_param {
		pool: MAX
		kernel_size: 3
		stride: 2
	}
}
layer {
	bottom: "pool1"
	top: "res2a_branch2a"
	name: "res2a_branch2a_conv"
	type: "ConvolutionData"
	param {
		lr_mult: 1
		decay_mult: 1
	}
	param {
		lr_mult: 2
		decay_mult: 0
	}
	convolution_param {
		num_output: 64
		kernel_size: 3
		pad: 1
		stride: 1
		weight_filler {
			type: "guassian"
			std: 0.01
		}
		bias_filler {
			type: "constant"
		}
	}
}

layer {
	bottom: "res2a_branch2a"
	top: "res2a_branch2a"
	name: "res2a_branch2a_bn"
	type: "BNData"
	param {
		lr_mult: 1
		decay_mult: 0
	}
	param {
		lr_mult: 1
		decay_mult: 0
	}
	param {
		lr_mult: 0
		decay_mult: 0
	}
	param {
		lr_mult: 0
		decay_mult: 0
	}
	bn_param {
		scale_filler {
			type: "constant"
			value: 1
		}
		shift_filler {
			type: "constant"
			value: 0
		}
		moving_average: true
		decay: 0.05
	}
}

layer {
	bottom: "res2a_branch2a"
	top: "res2a_branch2a"
	name: "res2a_branch2a_relu"
	type: "ReLU"
}

layer {
	bottom: "res2a_branch2a"
	top: "res2a_branch2b"
	name: "res2a_branch2b_conv"
	type: "ConvolutionData"
	param {
		lr_mult: 1
		decay_mult: 1
	}
	param {
		lr_mult: 2
		decay_mult: 0
	}
	convolution_param {
		num_output: 64
		kernel_size: 3
		pad: 1
		stride: 1
		weight_filler {
			type: "guassian"
			std: 0.01
		}
		bias_filler {
			type: "constant"
		}
	}
}

layer {
	bottom: "res2a_branch2b"
	top: "res2a_branch2b"
	name: "res2a_branch2b_bn"
	type: "BNData"
	param {
		lr_mult: 1
		decay_mult: 0
	}
	param {
		lr_mult: 1
		decay_mult: 0
	}
	param {
		lr_mult: 0
		decay_mult: 0
	}
	param {
		lr_mult: 0
		decay_mult: 0
	}
	bn_param {
		scale_filler {
			type: "constant"
			value: 1
		}
		shift_filler {
			type: "constant"
			value: 0
		}
		moving_average: true
		decay: 0.05
	}
}

layer {
	bottom: "pool1"
	top: "res2a_branch1"
	name: "res2a_branch1_conv"
	type: "ConvolutionData"
	param {
		lr_mult: 1
		decay_mult: 1
	}
	param {
		lr_mult: 2
		decay_mult: 0
	}
	convolution_param {
		num_output: 64
		kernel_size: 1
		pad: 0
		stride: 1
		weight_filler {
			type: "guassian"
			std: 0.01
		}
		bias_filler {
			type: "constant"
		}
	}
}

layer {
	bottom: "res2a_branch1"
	top: "res2a_branch1"
	name: "res2a_branch1_bn"
	type: "BNData"
	param {
		lr_mult: 1
		decay_mult: 0
	}
	param {
		lr_mult: 1
		decay_mult: 0
	}
	param {
		lr_mult: 0
		decay_mult: 0
	}
	param {
		lr_mult: 0
		decay_mult: 0
	}
	bn_param {
		scale_filler {
			type: "constant"
			value: 1
		}
		shift_filler {
			type: "constant"
			value: 0
		}
		moving_average: true
		decay: 0.05
	}
}

layer {
	bottom: "res2a_branch1"
	bottom: "res2a_branch2b"
	top: "res2a"
	name: "res2a_eltwise"
	type: "Eltwise"
	eltwise_param {
		operation: SUM
	}
}

layer {
	bottom: "res2a"
	top: "res2a"
	name: "res2a_relu"
	type: "ReLU"
}

layer {
	bottom: "res2a"
	top: "res2b_branch2a"
	name: "res2b_branch2a_conv"
	type: "ConvolutionData"
	param {
		lr_mult: 1
		decay_mult: 1
	}
	param {
		lr_mult: 2
		decay_mult: 0
	}
	convolution_param {
		num_output: 64
		kernel_size: 3
		pad: 1
		stride: 1
		weight_filler {
			type: "guassian"
			std: 0.01
		}
		bias_filler {
			type: "constant"
		}
	}
}

layer {
	bottom: "res2b_branch2a"
	top: "res2b_branch2a"
	name: "res2b_branch2a_bn"
	type: "BNData"
	param {
		lr_mult: 1
		decay_mult: 0
	}
	param {
		lr_mult: 1
		decay_mult: 0
	}
	param {
		lr_mult: 0
		decay_mult: 0
	}
	param {
		lr_mult: 0
		decay_mult: 0
	}
	bn_param {
		scale_filler {
			type: "constant"
			value: 1
		}
		shift_filler {
			type: "constant"
			value: 0
		}
		moving_average: true
		decay: 0.05
	}
}

layer {
	bottom: "res2b_branch2a"
	top: "res2b_branch2a"
	name: "res2b_branch2a_relu"
	type: "ReLU"
}

layer {
	bottom: "res2b_branch2a"
	top: "res2b_branch2b"
	name: "res2b_branch2b_conv"
	type: "ConvolutionData"
	param {
		lr_mult: 1
		decay_mult: 1
	}
	param {
		lr_mult: 2
		decay_mult: 0
	}
	convolution_param {
		num_output: 64
		kernel_size: 3
		pad: 1
		stride: 1
		weight_filler {
			type: "guassian"
			std: 0.01
		}
		bias_filler {
			type: "constant"
		}
	}
}

layer {
	bottom: "res2b_branch2b"
	top: "res2b_branch2b"
	name: "res2b_branch2b_bn"
	type: "BNData"
	param {
		lr_mult: 1
		decay_mult: 0
	}
	param {
		lr_mult: 1
		decay_mult: 0
	}
	param {
		lr_mult: 0
		decay_mult: 0
	}
	param {
		lr_mult: 0
		decay_mult: 0
	}
	bn_param {
		scale_filler {
			type: "constant"
			value: 1
		}
		shift_filler {
			type: "constant"
			value: 0
		}
		moving_average: true
		decay: 0.05
	}
}

layer {
	bottom: "res2a"
	bottom: "res2b_branch2b"
	top: "res2b"
	name: "res2b_eltwise"
	type: "Eltwise"
	eltwise_param {
		operation: SUM
	}
}

layer {
	bottom: "res2b"
	top: "res2b"
	name: "res2b_relu"
	type: "ReLU"
}

layer {
	bottom: "res2b"
	top: "res3a_branch2a"
	name: "res3a_branch2a_conv"
	type: "ConvolutionData"
	param {
		lr_mult: 1
		decay_mult: 1
	}
	param {
		lr_mult: 2
		decay_mult: 0
	}
	convolution_param {
		num_output: 128
		kernel_size: 3
		pad: 1
		stride: 2
		weight_filler {
			type: "guassian"
			std: 0.01
		}
		bias_filler {
			type: "constant"
		}
	}
}

layer {
	bottom: "res3a_branch2a"
	top: "res3a_branch2a"
	name: "res3a_branch2a_bn"
	type: "BNData"
	param {
		lr_mult: 1
		decay_mult: 0
	}
	param {
		lr_mult: 1
		decay_mult: 0
	}
	param {
		lr_mult: 0
		decay_mult: 0
	}
	param {
		lr_mult: 0
		decay_mult: 0
	}
	bn_param {
		scale_filler {
			type: "constant"
			value: 1
		}
		shift_filler {
			type: "constant"
			value: 0
		}
		moving_average: true
		decay: 0.05
	}
}

layer {
	bottom: "res3a_branch2a"
	top: "res3a_branch2a"
	name: "res3a_branch2a_relu"
	type: "ReLU"
}

layer {
	bottom: "res3a_branch2a"
	top: "res3a_branch2b"
	name: "res3a_branch2b_conv"
	type: "ConvolutionData"
	param {
		lr_mult: 1
		decay_mult: 1
	}
	param {
		lr_mult: 2
		decay_mult: 0
	}
	convolution_param {
		num_output: 128
		kernel_size: 3
		pad: 1
		stride: 1
		weight_filler {
			type: "guassian"
			std: 0.01
		}
		bias_filler {
			type: "constant"
		}
	}
}

layer {
	bottom: "res3a_branch2b"
	top: "res3a_branch2b"
	name: "res3a_branch2b_bn"
	type: "BNData"
	param {
		lr_mult: 1
		decay_mult: 0
	}
	param {
		lr_mult: 1
		decay_mult: 0
	}
	param {
		lr_mult: 0
		decay_mult: 0
	}
	param {
		lr_mult: 0
		decay_mult: 0
	}
	bn_param {
		scale_filler {
			type: "constant"
			value: 1
		}
		shift_filler {
			type: "constant"
			value: 0
		}
		moving_average: true
		decay: 0.05
	}
}

layer {
	bottom: "res2b"
	top: "res3a_branch1"
	name: "res3a_branch1_conv"
	type: "ConvolutionData"
	param {
		lr_mult: 1
		decay_mult: 1
	}
	param {
		lr_mult: 2
		decay_mult: 0
	}
	convolution_param {
		num_output: 128
		kernel_size: 1
		pad: 0
		stride: 2
		weight_filler {
			type: "guassian"
			std: 0.01
		}
		bias_filler {
			type: "constant"
		}
	}
}

layer {
	bottom: "res3a_branch1"
	top: "res3a_branch1"
	name: "res3a_branch1_bn"
	type: "BNData"
	param {
		lr_mult: 1
		decay_mult: 0
	}
	param {
		lr_mult: 1
		decay_mult: 0
	}
	param {
		lr_mult: 0
		decay_mult: 0
	}
	param {
		lr_mult: 0
		decay_mult: 0
	}
	bn_param {
		scale_filler {
			type: "constant"
			value: 1
		}
		shift_filler {
			type: "constant"
			value: 0
		}
		moving_average: true
		decay: 0.05
	}
}

layer {
	bottom: "res3a_branch1"
	bottom: "res3a_branch2b"
	top: "res3a"
	name: "res3a_eltwise"
	type: "Eltwise"
	eltwise_param {
		operation: SUM
	}
}

layer {
	bottom: "res3a"
	top: "res3a"
	name: "res3a_relu"
	type: "ReLU"
}

layer {
	bottom: "res3a"
	top: "res3b_branch2a"
	name: "res3b_branch2a_conv"
	type: "ConvolutionData"
	param {
		lr_mult: 1
		decay_mult: 1
	}
	param {
		lr_mult: 2
		decay_mult: 0
	}
	convolution_param {
		num_output: 128
		kernel_size: 3
		pad: 1
		stride: 1
		weight_filler {
			type: "guassian"
			std: 0.01
		}
		bias_filler {
			type: "constant"
		}
	}
}

layer {
	bottom: "res3b_branch2a"
	top: "res3b_branch2a"
	name: "res3b_branch2a_bn"
	type: "BNData"
	param {
		lr_mult: 1
		decay_mult: 0
	}
	param {
		lr_mult: 1
		decay_mult: 0
	}
	param {
		lr_mult: 0
		decay_mult: 0
	}
	param {
		lr_mult: 0
		decay_mult: 0
	}
	bn_param {
		scale_filler {
			type: "constant"
			value: 1
		}
		shift_filler {
			type: "constant"
			value: 0
		}
		moving_average: true
		decay: 0.05
	}
}

layer {
	bottom: "res3b_branch2a"
	top: "res3b_branch2a"
	name: "res3b_branch2a_relu"
	type: "ReLU"
}

layer {
	bottom: "res3b_branch2a"
	top: "res3b_branch2b"
	name: "res3b_branch2b_conv"
	type: "ConvolutionData"
	param {
		lr_mult: 1
		decay_mult: 1
	}
	param {
		lr_mult: 2
		decay_mult: 0
	}
	convolution_param {
		num_output: 128
		kernel_size: 3
		pad: 1
		stride: 1
		weight_filler {
			type: "guassian"
			std: 0.01
		}
		bias_filler {
			type: "constant"
		}
	}
}

layer {
	bottom: "res3b_branch2b"
	top: "res3b_branch2b"
	name: "res3b_branch2b_bn"
	type: "BNData"
	param {
		lr_mult: 1
		decay_mult: 0
	}
	param {
		lr_mult: 1
		decay_mult: 0
	}
	param {
		lr_mult: 0
		decay_mult: 0
	}
	param {
		lr_mult: 0
		decay_mult: 0
	}
	bn_param {
		scale_filler {
			type: "constant"
			value: 1
		}
		shift_filler {
			type: "constant"
			value: 0
		}
		moving_average: true
		decay: 0.05
	}
}

layer {
	bottom: "res3a"
	bottom: "res3b_branch2b"
	top: "res3b"
	name: "res3b_eltwise"
	type: "Eltwise"
	eltwise_param {
		operation: SUM
	}
}

layer {
	bottom: "res3b"
	top: "res3b"
	name: "res3b_relu"
	type: "ReLU"
}

layer {
	bottom: "res3b"
	top: "res4a_branch2a"
	name: "res4a_branch2a_conv"
	type: "ConvolutionData"
	param {
		lr_mult: 1
		decay_mult: 1
	}
	param {
		lr_mult: 2
		decay_mult: 0
	}
	convolution_param {
		num_output: 256
		kernel_size: 3
		pad: 1
		stride: 2
		weight_filler {
			type: "guassian"
			std: 0.01
		}
		bias_filler {
			type: "constant"
		}
	}
}

layer {
	bottom: "res4a_branch2a"
	top: "res4a_branch2a"
	name: "res4a_branch2a_bn"
	type: "BNData"
	param {
		lr_mult: 1
		decay_mult: 0
	}
	param {
		lr_mult: 1
		decay_mult: 0
	}
	param {
		lr_mult: 0
		decay_mult: 0
	}
	param {
		lr_mult: 0
		decay_mult: 0
	}
	bn_param {
		scale_filler {
			type: "constant"
			value: 1
		}
		shift_filler {
			type: "constant"
			value: 0
		}
		moving_average: true
		decay: 0.05
	}
}

layer {
	bottom: "res4a_branch2a"
	top: "res4a_branch2a"
	name: "res4a_branch2a_relu"
	type: "ReLU"
}

layer {
	bottom: "res4a_branch2a"
	top: "res4a_branch2b"
	name: "res4a_branch2b_conv"
	type: "ConvolutionData"
	param {
		lr_mult: 1
		decay_mult: 1
	}

	param {
		lr_mult: 2
		decay_mult: 0
	}
	convolution_param {
		num_output: 256
		kernel_size: 3
		pad: 1
		stride: 1
		weight_filler {
			type: "guassian"
			std: 0.01
		}
		bias_filler {
			type: "constant"
		}
	}
}

layer {
	bottom: "res4a_branch2b"
	top: "res4a_branch2b"
	name: "res4a_branch2b_bn"
	type: "BNData"
	param {
		lr_mult: 1
		decay_mult: 0
	}
	param {
		lr_mult: 1
		decay_mult: 0
	}
	param {
		lr_mult: 0
		decay_mult: 0
	}
	param {
		lr_mult: 0
		decay_mult: 0
	}
	bn_param {
		scale_filler {
			type: "constant"
			value: 1
		}
		shift_filler {
			type: "constant"
			value: 0
		}
		moving_average: true
		decay: 0.05
	}
}

layer {
	bottom: "res3b"
	top: "res4a_branch1"
	name: "res4a_branch1_conv"
	type: "ConvolutionData"
	param {
		lr_mult: 1
		decay_mult: 1
	}
	param {
		lr_mult: 2
		decay_mult: 0
	}
	convolution_param {
		num_output: 256
		kernel_size: 1
		pad: 0
		stride: 2
		weight_filler {
			type: "guassian"
			std: 0.01
		}
		bias_filler {
			type: "constant"
		}
	}
}

layer {
	bottom: "res4a_branch1"
	top: "res4a_branch1"
	name: "res4a_branch1_bn"
	type: "BNData"
	param {
		lr_mult: 1
		decay_mult: 0
	}
	param {
		lr_mult: 1
		decay_mult: 0
	}
	param {
		lr_mult: 0
		decay_mult: 0
	}
	param {
		lr_mult: 0
		decay_mult: 0
	}
	bn_param {
		scale_filler {
			type: "constant"
			value: 1
		}
		shift_filler {
			type: "constant"
			value: 0
		}
		moving_average: true
		decay: 0.05
	}
}

layer {
	bottom: "res4a_branch1"
	bottom: "res4a_branch2b"
	top: "res4a"
	name: "res4a_eltwise"
	type: "Eltwise"
	eltwise_param {
		operation: SUM
	}
}

layer {
	bottom: "res4a"
	top: "res4a"
	name: "res4a_relu"
	type: "ReLU"
}

layer {
	bottom: "res4a"
	top: "res4b_branch2a"
	name: "res4b_branch2a_conv"
	type: "ConvolutionData"
	param {
		lr_mult: 1
		decay_mult: 1
	}
	param {
		lr_mult: 2
		decay_mult: 0
	}
	convolution_param {
		num_output: 256
		kernel_size: 3
		pad: 1
		stride: 1
		weight_filler {
			type: "guassian"
			std: 0.01
		}
		bias_filler {
			type: "constant"
		}
	}
}

layer {
	bottom: "res4b_branch2a"
	top: "res4b_branch2a"
	name: "res4b_branch2a_bn"
	type: "BNData"
	param {
		lr_mult: 1
		decay_mult: 0
	}
	param {
		lr_mult: 1
		decay_mult: 0
	}
	param {
		lr_mult: 0
		decay_mult: 0
	}
	param {
		lr_mult: 0
		decay_mult: 0
	}
	bn_param {
		scale_filler {
			type: "constant"
			value: 1
		}
		shift_filler {
			type: "constant"
			value: 0
		}
		moving_average: true
		decay: 0.05
	}
}

layer {
	bottom: "res4b_branch2a"
	top: "res4b_branch2a"
	name: "res4b_branch2a_relu"
	type: "ReLU"
}

layer {
	bottom: "res4b_branch2a"
	top: "res4b_branch2b"
	name: "res4b_branch2b_conv"
	type: "ConvolutionData"
	param {
		lr_mult: 1
		decay_mult: 1
	}
	param {
		lr_mult: 2
		decay_mult: 0
	}
	convolution_param {
		num_output: 256
		kernel_size: 3
		pad: 1
		stride: 1
		weight_filler {
			type: "guassian"
			std: 0.01
		}
		bias_filler {
			type: "constant"
		}
	}
}

layer {
	bottom: "res4b_branch2b"
	top: "res4b_branch2b"
	name: "res4b_branch2b_bn"
	type: "BNData"
	param {
		lr_mult: 1
		decay_mult: 0
	}
	param {
		lr_mult: 1
		decay_mult: 0
	}
	param {
		lr_mult: 0
		decay_mult: 0
	}
	param {
		lr_mult: 0
		decay_mult: 0
	}
	bn_param {
		scale_filler {
			type: "constant"
			value: 1
		}
		shift_filler {
			type: "constant"
			value: 0
		}
		moving_average: true
		decay: 0.05
	}
}

layer {
	bottom: "res4a"
	bottom: "res4b_branch2b"
	top: "res4b"
	name: "res4b_eltwise"
	type: "Eltwise"
	eltwise_param {
		operation: SUM
	}
}

layer {
	bottom: "res4b"
	top: "res4b"
	name: "res4b_relu"
	type: "ReLU"
}

layer {
	bottom: "res4b"
	top: "res5a_branch2a"
	name: "res5a_branch2a_conv"
	type: "ConvolutionData"
	param {
		lr_mult: 1
		decay_mult: 1
	}
	param {
		lr_mult: 2
		decay_mult: 0
	}
	convolution_param {
		num_output: 512
		kernel_size: 3
		pad: 1
		stride: 2
		weight_filler {
			type: "guassian"
			std: 0.01
		}
		bias_filler {
			type: "constant"
		}
	}
}

layer {
	bottom: "res5a_branch2a"
	top: "res5a_branch2a"
	name: "res5a_branch2a_bn"
	type: "BNData"
	param {
		lr_mult: 1
		decay_mult: 0
	}
	param {
		lr_mult: 1
		decay_mult: 0
	}
	param {
		lr_mult: 0
		decay_mult: 0
	}
	param {
		lr_mult: 0
		decay_mult: 0
	}
	bn_param {
		scale_filler {
			type: "constant"
			value: 1
		}
		shift_filler {
			type: "constant"
			value: 0
		}
		moving_average: true
		decay: 0.05
	}
}

layer {
	bottom: "res5a_branch2a"
	top: "res5a_branch2a"
	name: "res5a_branch2a_relu"
	type: "ReLU"
}

layer {
	bottom: "res5a_branch2a"
	top: "res5a_branch2b"
	name: "res5a_branch2b_conv"
	type: "ConvolutionData"
	param {
		lr_mult: 1
		decay_mult: 1
	}
	param {
		lr_mult: 2
		decay_mult: 0
	}
	convolution_param {
		num_output: 512
		kernel_size: 3
		pad: 1
		stride: 1
		weight_filler {
			type: "guassian"
			std: 0.01
		}
		bias_filler {
			type: "constant"
		}
	}
}

layer {
	bottom: "res5a_branch2b"
	top: "res5a_branch2b"
	name: "res5a_branch2b_bn"
	type: "BNData"
	param {
		lr_mult: 1
		decay_mult: 0
	}
	param {
		lr_mult: 1
		decay_mult: 0
	}
	param {
		lr_mult: 0
		decay_mult: 0
	}
	param {
		lr_mult: 0
		decay_mult: 0
	}
	bn_param {
		scale_filler {
			type: "constant"
			value: 1
		}
		shift_filler {
			type: "constant"
			value: 0
		}
		moving_average: true
		decay: 0.05
	}
}

layer {
	bottom: "res4b"
	top: "res5a_branch1"
	name: "res5a_branch1_conv"
	type: "ConvolutionData"
	param {
		lr_mult: 1
		decay_mult: 1
	}
	param {
		lr_mult: 2
		decay_mult: 0
	}
	convolution_param {
		num_output: 512
		kernel_size: 1
		pad: 0
		stride: 2
		weight_filler {
			type: "guassian"
			std: 0.01
		}
		bias_filler {
			type: "constant"
		}
	}
}

layer {
	bottom: "res5a_branch1"
	top: "res5a_branch1"
	name: "res5a_branch1_bn"
	type: "BNData"
	param {
		lr_mult: 1
		decay_mult: 0
	}
	param {
		lr_mult: 1
		decay_mult: 0
	}
	param {
		lr_mult: 0
		decay_mult: 0
	}
	param {
		lr_mult: 0
		decay_mult: 0
	}
	bn_param {
		scale_filler {
			type: "constant"
			value: 1
		}
		shift_filler {
			type: "constant"
			value: 0
		}
		moving_average: true
		decay: 0.05
	}
}

layer {
	bottom: "res5a_branch1"
	bottom: "res5a_branch2b"
	top: "res5a"
	name: "res5a_eltwise"
	type: "Eltwise"
	eltwise_param {
		operation: SUM
	}
}

layer {
	bottom: "res5a"
	top: "res5a"
	name: "res5a_relu"
	type: "ReLU"
}

layer {
	bottom: "res5a"
	top: "res5b_branch2a"
	name: "res5b_branch2a_conv"
	type: "ConvolutionData"
	param {
		lr_mult: 1
		decay_mult: 1
	}
	param {
		lr_mult: 2
		decay_mult: 0
	}
	convolution_param {
		num_output: 512
		kernel_size: 3
		pad: 1
		stride: 1
		weight_filler {
			type: "guassian"
			std: 0.01
		}
		bias_filler {
			type: "constant"
		}
	}
}

layer {
	bottom: "res5b_branch2a"
	top: "res5b_branch2a"
	name: "res5b_branch2a_bn"
	type: "BNData"
	param {
		lr_mult: 1
		decay_mult: 0
	}
	param {
		lr_mult: 1
		decay_mult: 0
	}
	param {
		lr_mult: 0
		decay_mult: 0
	}
	param {
		lr_mult: 0
		decay_mult: 0
	}
	bn_param {
		scale_filler {
			type: "constant"
			value: 1
		}
		shift_filler {
			type: "constant"
			value: 0
		}
		moving_average: true
		decay: 0.05
	}
}

layer {
	bottom: "res5b_branch2a"
	top: "res5b_branch2a"
	name: "res5b_branch2a_relu"
	type: "ReLU"
}

layer {
	bottom: "res5b_branch2a"
	top: "res5b_branch2b"
	name: "res5b_branch2b_conv"
	type: "ConvolutionData"
	param {
		lr_mult: 1
		decay_mult: 1
	}
	param {
		lr_mult: 2
		decay_mult: 0
	}
	convolution_param {
		num_output: 512
		kernel_size: 3
		pad: 1
		stride: 1
		weight_filler {
			type: "guassian"
			std: 0.01
		}
		bias_filler {
			type: "constant"
		}
	}
}

layer {
	bottom: "res5b_branch2b"
	top: "res5b_branch2b"
	name: "res5b_branch2b_bn"
	type: "BNData"
	param {
		lr_mult: 1
		decay_mult: 0
	}
	param {
		lr_mult: 1
		decay_mult: 0
	}
	param {
		lr_mult: 0
		decay_mult: 0
	}
	param {
		lr_mult: 0
		decay_mult: 0
	}
	bn_param {
		scale_filler {
			type: "constant"
			value: 1
		}
		shift_filler {
			type: "constant"
			value: 0
		}
		moving_average: true
		decay: 0.05
	}
}

layer {
	bottom: "res5a"
	bottom: "res5b_branch2b"
	top: "res5b"
	name: "res5b_eltwise"
	type: "Eltwise"
	eltwise_param {
		operation: SUM
	}
}

layer {
	bottom: "res5b"
	top: "res5b"
	name: "res5b_relu"
	type: "ReLU"
}

layer {
	bottom: "res5b"
	top: "res5c"
	name: "res5c_conv"
	type: "ConvolutionData"
	param {
		lr_mult: 1
		decay_mult: 1
	}
	param {
		lr_mult: 2
		decay_mult: 0
	}
	convolution_param {
		num_output: 256
		kernel_size: 1
		pad: 0
		stride: 1
		weight_filler {
			type: "guassian"
			std: 0.01
		}
		bias_filler {
			type: "constant"
		}
	}
}

layer {
	bottom: "res5c"
	top: "res5c"
	name: "res5c_bn"
	type: "BNData"
	param {
		lr_mult: 1
		decay_mult: 0
	}
	param {
		lr_mult: 1
		decay_mult: 0
	}
	param {
		lr_mult: 0
		decay_mult: 0
	}
	param {
		lr_mult: 0
		decay_mult: 0
	}
	bn_param {
		scale_filler {
			type: "constant"
			value: 1
		}
		shift_filler {
			type: "constant"
			value: 0
		}
		moving_average: true
		decay: 0.05
	}
}

layer {
	bottom: "res5c"
	top: "res5c"
	name: "res5c_relu"
	type: "ReLU"
}

layer {
	bottom: "res5c"
	top: "res5c2"
	name: "res5c2_interp"
	type: "Interp"
	interp_param {
		zoom_factor: 2
	}
}

layer {
	bottom: "res5c2"
	bottom: "res4b"
	top: "res5d"
	name: "res5d_concat"
	type: "Concat"
	concat_param {
		axis: 1
	}
}

layer {
	bottom: "res5d"
	top: "res6a_branch2a"
	name: "res6a_branch2a_conv"
	type: "ConvolutionData"
	param {
		lr_mult: 1
		decay_mult: 1
	}
	param {
		lr_mult: 2
		decay_mult: 0
	}
	convolution_param {
		num_output: 256
		kernel_size: 3
		pad: 1
		stride: 1
		weight_filler {
			type: "guassian"
			std: 0.01
		}
		bias_filler {
			type: "constant"
		}
	}
}

layer {
	bottom: "res6a_branch2a"
	top: "res6a_branch2a"
	name: "res6a_branch2a_bn"
	type: "BNData"
	param {
		lr_mult: 1
		decay_mult: 0
	}
	param {
		lr_mult: 1
		decay_mult: 0
	}
	param {
		lr_mult: 0
		decay_mult: 0
	}
	param {
		lr_mult: 0
		decay_mult: 0
	}
	bn_param {
		scale_filler {
			type: "constant"
			value: 1
		}
		shift_filler {
			type: "constant"
			value: 0
		}
		moving_average: true
		decay: 0.05
	}
}

layer {
	bottom: "res6a_branch2a"
	top: "res6a_branch2a"
	name: "res6a_branch2a_relu"
	type: "ReLU"
}

layer {
	bottom: "res6a_branch2a"
	top: "res6a_branch2b"
	name: "res6a_branch2b_conv"
	type: "ConvolutionData"
	param {
		lr_mult: 1
		decay_mult: 1
	}
	param {
		lr_mult: 2
		decay_mult: 0
	}
	convolution_param {
		num_output: 256
		kernel_size: 3
		pad: 1
		stride: 1
		weight_filler {
			type: "guassian"
			std: 0.01
		}
		bias_filler {
			type: "constant"
		}
	}
}

layer {
	bottom: "res6a_branch2b"
	top: "res6a_branch2b"
	name: "res6a_branch2b_bn"
	type: "BNData"
	param {
		lr_mult: 1
		decay_mult: 0
	}
	param {
		lr_mult: 1
		decay_mult: 0
	}
	param {
		lr_mult: 0
		decay_mult: 0
	}
	param {
		lr_mult: 0
		decay_mult: 0
	}
	bn_param {
		scale_filler {
			type: "constant"
			value: 1
		}
		shift_filler {
			type: "constant"
			value: 0
		}
		moving_average: true
		decay: 0.05
	}
}

layer {
	bottom: "res5d"
	top: "res6a_branch1"
	name: "res6a_branch1_conv"
	type: "ConvolutionData"
	param {
		lr_mult: 1
		decay_mult: 1
	}
	param {
		lr_mult: 2
		decay_mult: 0
	}
	convolution_param {
		num_output: 256
		kernel_size: 1
		pad: 0
		stride: 1
		weight_filler {
			type: "guassian"
			std: 0.01
		}
		bias_filler {
			type: "constant"
		}
	}
}

layer {
	bottom: "res6a_branch1"
	top: "res6a_branch1"
	name: "res6a_branch1_bn"
	type: "BNData"
	param {
		lr_mult: 1
		decay_mult: 0
	}
	param {
		lr_mult: 1
		decay_mult: 0
	}
	param {
		lr_mult: 0
		decay_mult: 0
	}
	param {
		lr_mult: 0
		decay_mult: 0
	}
	bn_param {
		scale_filler {
			type: "constant"
			value: 1
		}
		shift_filler {
			type: "constant"
			value: 0
		}
		moving_average: true
		decay: 0.05
	}
}

layer {
	bottom: "res6a_branch1"
	bottom: "res6a_branch2b"
	top: "res6a"
	name: "res6a_eltwise"
	type: "Eltwise"
	eltwise_param {
		operation: SUM
	}
}

layer {
	bottom: "res6a"
	top: "res6a"
	name: "res6a_relu"
	type: "ReLU"
}

layer {
	bottom: "res6a"
	top: "res6b_branch2a"
	name: "res6b_branch2a_conv"
	type: "ConvolutionData"
	param {
		lr_mult: 1
		decay_mult: 1
	}
	param {
		lr_mult: 2
		decay_mult: 0
	}
	convolution_param {
		num_output: 256
		kernel_size: 3
		pad: 1
		stride: 1
		weight_filler {
			type: "guassian"
			std: 0.01
		}
		bias_filler {
			type: "constant"
		}
	}
}

layer {
	bottom: "res6b_branch2a"
	top: "res6b_branch2a"
	name: "res6b_branch2a_bn"
	type: "BNData"
	param {
		lr_mult: 1
		decay_mult: 0
	}
	param {
		lr_mult: 1
		decay_mult: 0
	}
	param {
		lr_mult: 0
		decay_mult: 0
	}
	param {
		lr_mult: 0
		decay_mult: 0
	}
	bn_param {
		scale_filler {
			type: "constant"
			value: 1
		}
		shift_filler {
			type: "constant"
			value: 0
		}
		moving_average: true
		decay: 0.05
	}
}

layer {
	bottom: "res6b_branch2a"
	top: "res6b_branch2a"
	name: "res6b_branch2a_relu"
	type: "ReLU"
}

layer {
	bottom: "res6b_branch2a"
	top: "res6b_branch2b"
	name: "res6b_branch2b_conv"
	type: "ConvolutionData"
	param {
		lr_mult: 1
		decay_mult: 1
	}
	param {
		lr_mult: 2
		decay_mult: 0
	}
	convolution_param {
		num_output: 256
		kernel_size: 3
		pad: 1
		stride: 1
		weight_filler {
			type: "guassian"
			std: 0.01
		}
		bias_filler {
			type: "constant"
		}
	}
}

layer {
	bottom: "res6b_branch2b"
	top: "res6b_branch2b"
	name: "res6b_branch2b_bn"
	type: "BNData"
	param {
		lr_mult: 1
		decay_mult: 0
	}
	param {
		lr_mult: 1
		decay_mult: 0
	}
	param {
		lr_mult: 0
		decay_mult: 0
	}
	param {
		lr_mult: 0
		decay_mult: 0
	}
	bn_param {
		scale_filler {
			type: "constant"
			value: 1
		}
		shift_filler {
			type: "constant"
			value: 0
		}
		moving_average: true
		decay: 0.05
	}
}

layer {
	bottom: "res6a"
	bottom: "res6b_branch2b"
	top: "res6b"
	name: "res6b_eltwise"
	type: "Eltwise"
	eltwise_param {
		operation: SUM
	}
}

layer {
	bottom: "res6b"
	top: "res6b"
	name: "res6b_relu"
	type: "ReLU"
}

layer {
	bottom: "res6b"
	top: "res6c"
	name: "res6c_conv"
	type: "ConvolutionData"
	param {
		lr_mult: 1
		decay_mult: 1
	}
	param {
		lr_mult: 2
		decay_mult: 0
	}
	convolution_param {
		num_output: 128
		kernel_size: 1
		pad: 0
		stride: 1
		weight_filler {
			type: "guassian"
			std: 0.01
		}
		bias_filler {
			type: "constant"
		}
	}
}

layer {
	bottom: "res6c"
	top: "res6c"
	name: "res6c_bn"
	type: "BNData"
	param {
		lr_mult: 1
		decay_mult: 0
	}
	param {
		lr_mult: 1
		decay_mult: 0
	}
	param {
		lr_mult: 0
		decay_mult: 0
	}
	param {
		lr_mult: 0
		decay_mult: 0
	}
	bn_param {
		scale_filler {
			type: "constant"
			value: 1
		}
		shift_filler {
			type: "constant"
			value: 0
		}
		moving_average: true
		decay: 0.05
	}
}

layer {
	bottom: "res6c"
	top: "res6c"
	name: "res6c_relu"
	type: "ReLU"
}

layer {
	bottom: "res6c"
	top: "res6c2"
	name: "res6c2_interp"
	type: "Interp"
	interp_param {
		zoom_factor: 2
	}
}

layer {
	bottom: "res6c2"
	bottom: "res3b"
	top: "res6d"
	name: "res6d_concat"
	type: "Concat"
	concat_param {
		axis: 1
	}
}

layer {
	bottom: "res6d"
	top: "res7a_branch2a"
	name: "res7a_branch2a_conv"
	type: "ConvolutionData"
	param {
		lr_mult: 1
		decay_mult: 1
	}
	param {
		lr_mult: 2
		decay_mult: 0
	}
	convolution_param {
		num_output: 128
		kernel_size: 3
		pad: 1
		stride: 1
		weight_filler {
			type: "guassian"
			std: 0.01
		}
		bias_filler {
			type: "constant"
		}
	}
}

layer {
	bottom: "res7a_branch2a"
	top: "res7a_branch2a"
	name: "res7a_branch2a_bn"
	type: "BNData"
	param {
		lr_mult: 1
		decay_mult: 0
	}
	param {
		lr_mult: 1
		decay_mult: 0
	}
	param {
		lr_mult: 0
		decay_mult: 0
	}
	param {
		lr_mult: 0
		decay_mult: 0
	}
	bn_param {
		scale_filler {
			type: "constant"
			value: 1
		}
		shift_filler {
			type: "constant"
			value: 0
		}
		moving_average: true
		decay: 0.05
	}
}

layer {
	bottom: "res7a_branch2a"
	top: "res7a_branch2a"
	name: "res7a_branch2a_relu"
	type: "ReLU"
}

layer {
	bottom: "res7a_branch2a"
	top: "res7a_branch2b"
	name: "res7a_branch2b_conv"
	type: "ConvolutionData"
	param {
		lr_mult: 1
		decay_mult: 1
	}
	param {
		lr_mult: 2
		decay_mult: 0
	}
	convolution_param {
		num_output: 128
		kernel_size: 3
		pad: 1
		stride: 1
		weight_filler {
			type: "guassian"
			std: 0.01
		}
		bias_filler {
			type: "constant"
		}
	}
}

layer {
	bottom: "res7a_branch2b"
	top: "res7a_branch2b"
	name: "res7a_branch2b_bn"
	type: "BNData"
	param {
		lr_mult: 1
		decay_mult: 0
	}
	param {
		lr_mult: 1
		decay_mult: 0
	}
	param {
		lr_mult: 0
		decay_mult: 0
	}
	param {
		lr_mult: 0
		decay_mult: 0
	}
	bn_param {
		scale_filler {
			type: "constant"
			value: 1
		}
		shift_filler {
			type: "constant"
			value: 0
		}
		moving_average: true
		decay: 0.05
	}
}

layer {
	bottom: "res6d"
	top: "res7a_branch1"
	name: "res7a_branch1_conv"
	type: "ConvolutionData"
	param {
		lr_mult: 1
		decay_mult: 1
	}
	param {
		lr_mult: 2
		decay_mult: 0
	}
	convolution_param {
		num_output: 128
		kernel_size: 1
		pad: 0
		stride: 1
		weight_filler {
			type: "guassian"
			std: 0.01
		}
		bias_filler {
			type: "constant"
		}
	}
}

layer {
	bottom: "res7a_branch1"
	top: "res7a_branch1"
	name: "res7a_branch1_bn"
	type: "BNData"
	param {
		lr_mult: 1
		decay_mult: 0
	}
	param {
		lr_mult: 1
		decay_mult: 0
	}
	param {
		lr_mult: 0
		decay_mult: 0
	}
	param {
		lr_mult: 0
		decay_mult: 0
	}
	bn_param {
		scale_filler {
			type: "constant"
			value: 1
		}
		shift_filler {
			type: "constant"
			value: 0
		}
		moving_average: true
		decay: 0.05
	}
}

layer {
	bottom: "res7a_branch1"
	bottom: "res7a_branch2b"
	top: "res7a"
	name: "res7a_eltwise"
	type: "Eltwise"
	eltwise_param {
		operation: SUM
	}
}

layer {
	bottom: "res7a"
	top: "res7a"
	name: "res7a_relu"
	type: "ReLU"
}

layer {
	bottom: "res7a"
	top: "res7b_branch2a"
	name: "res7b_branch2a_conv"
	type: "ConvolutionData"
	param {
		lr_mult: 1
		decay_mult: 1
	}
	param {
		lr_mult: 2
		decay_mult: 0
	}
	convolution_param {
		num_output: 128
		kernel_size: 3
		pad: 1
		stride: 1
		weight_filler {
			type: "guassian"
			std: 0.01
		}
		bias_filler {
			type: "constant"
		}
	}
}

layer {
	bottom: "res7b_branch2a"
	top: "res7b_branch2a"
	name: "res7b_branch2a_bn"
	type: "BNData"
	param {
		lr_mult: 1
		decay_mult: 0
	}
	param {
		lr_mult: 1
		decay_mult: 0
	}
	param {
		lr_mult: 0
		decay_mult: 0
	}
	param {
		lr_mult: 0
		decay_mult: 0
	}
	bn_param {
		scale_filler {
			type: "constant"
			value: 1
		}
		shift_filler {
			type: "constant"
			value: 0
		}
		moving_average: true
		decay: 0.05
	}
}

layer {
	bottom: "res7b_branch2a"
	top: "res7b_branch2a"
	name: "res7b_branch2a_relu"
	type: "ReLU"
}

layer {
	bottom: "res7b_branch2a"
	top: "res7b_branch2b"
	name: "res7b_branch2b_conv"
	type: "ConvolutionData"
	param {
		lr_mult: 1
		decay_mult: 1
	}
	param {
		lr_mult: 2
		decay_mult: 0
	}
	convolution_param {
		num_output: 128
		kernel_size: 3
		pad: 1
		stride: 1
		weight_filler {
			type: "guassian"
			std: 0.01
		}
		bias_filler {
			type: "constant"
		}
	}
}

layer {
	bottom: "res7b_branch2b"
	top: "res7b_branch2b"
	name: "res7b_branch2b_bn"
	type: "BNData"
	param {
		lr_mult: 1
		decay_mult: 0
	}
	param {
		lr_mult: 1
		decay_mult: 0
	}
	param {
		lr_mult: 0
		decay_mult: 0
	}
	param {
		lr_mult: 0
		decay_mult: 0
	}
	bn_param {
		scale_filler {
			type: "constant"
			value: 1
		}
		shift_filler {
			type: "constant"
			value: 0
		}
		moving_average: true
		decay: 0.05
	}
}

layer {
	bottom: "res7a"
	bottom: "res7b_branch2b"
	top: "res7b"
	name: "res7b_eltwise"
	type: "Eltwise"
	eltwise_param {
		operation: SUM
	}
}

layer {
	bottom: "res7b"
	top: "res7b"
	name: "res7b_relu"
	type: "ReLU"
}

layer {
	bottom: "res7b"
	top: "res7c"
	name: "res7c_conv"
	type: "ConvolutionData"
	param {
		lr_mult: 1
		decay_mult: 1
	}
	param {
		lr_mult: 2
		decay_mult: 0
	}
	convolution_param {
		num_output: 64
		kernel_size: 1
		pad: 0
		stride: 1
		weight_filler {
			type: "guassian"
			std: 0.01
		}
		bias_filler {
			type: "constant"
		}
	}
}

layer {
	bottom: "res7c"
	top: "res7c"
	name: "res7c_bn"
	type: "BNData"
	param {
		lr_mult: 1
		decay_mult: 0
	}
	param {
		lr_mult: 1
		decay_mult: 0
	}
	param {
		lr_mult: 0
		decay_mult: 0
	}
	param {
		lr_mult: 0
		decay_mult: 0
	}
	bn_param {
		scale_filler {
			type: "constant"
			value: 1
		}
		shift_filler {
			type: "constant"
			value: 0
		}
		moving_average: true
		decay: 0.05
	}
}

layer {
	bottom: "res7c"
	top: "res7c"
	name: "res7c_relu"
	type: "ReLU"
}

layer {
	bottom: "res7c"
	top: "res7c2"
	name: "res7c2_interp"
	type: "Interp"
	interp_param {
		zoom_factor: 2
	}
}

layer {
	bottom: "res7c2"
	bottom: "res2b"
	top: "res7d"
	name: "res7d_concat"
	type: "Concat"
	concat_param {
		axis: 1
	}
}

layer {
	bottom: "res7d"
	top: "res8a_branch2a"
	name: "res8a_branch2a_conv"
	type: "ConvolutionData"
	param {
		lr_mult: 1
		decay_mult: 1
	}
	param {
		lr_mult: 2
		decay_mult: 0
	}
	convolution_param {
		num_output: 64
		kernel_size: 3
		pad: 1
		stride: 1
		weight_filler {
			type: "guassian"
			std: 0.01
		}
		bias_filler {
			type: "constant"
		}
	}
}

layer {
	bottom: "res8a_branch2a"
	top: "res8a_branch2a"
	name: "res8a_branch2a_bn"
	type: "BNData"
	param {
		lr_mult: 1
		decay_mult: 0
	}
	param {
		lr_mult: 1
		decay_mult: 0
	}
	param {
		lr_mult: 0
		decay_mult: 0
	}
	param {
		lr_mult: 0
		decay_mult: 0
	}
	bn_param {
		scale_filler {
			type: "constant"
			value: 1
		}
		shift_filler {
			type: "constant"
			value: 0
		}
		moving_average: true
		decay: 0.05
	}
}

layer {
	bottom: "res8a_branch2a"
	top: "res8a_branch2a"
	name: "res8a_branch2a_relu"
	type: "ReLU"
}

layer {
	bottom: "res8a_branch2a"
	top: "res8a_branch2b"
	name: "res8a_branch2b_conv"
	type: "ConvolutionData"
	param {
		lr_mult: 1
		decay_mult: 1
	}
	param {
		lr_mult: 2
		decay_mult: 0
	}
	convolution_param {
		num_output: 64
		kernel_size: 3
		pad: 1
		stride: 1
		weight_filler {
			type: "guassian"
			std: 0.01
		}
		bias_filler {
			type: "constant"
		}
	}
}

layer {
	bottom: "res8a_branch2b"
	top: "res8a_branch2b"
	name: "res8a_branch2b_bn"
	type: "BNData"
	param {
		lr_mult: 1
		decay_mult: 0
	}
	param {
		lr_mult: 1
		decay_mult: 0
	}
	param {
		lr_mult: 0
		decay_mult: 0
	}
	param {
		lr_mult: 0
		decay_mult: 0
	}
	bn_param {
		scale_filler {
			type: "constant"
			value: 1
		}
		shift_filler {
			type: "constant"
			value: 0
		}
		moving_average: true
		decay: 0.05
	}
}

layer {
	bottom: "res7d"
	top: "res8a_branch1"
	name: "res8a_branch1_conv"
	type: "ConvolutionData"
	param {
		lr_mult: 1
		decay_mult: 1
	}
	param {
		lr_mult: 2
		decay_mult: 0
	}
	convolution_param {
		num_output: 64
		kernel_size: 1
		pad: 0
		stride: 1
		weight_filler {
			type: "guassian"
			std: 0.01
		}
		bias_filler {
			type: "constant"
		}
	}
}

layer {
	bottom: "res8a_branch1"
	top: "res8a_branch1"
	name: "res8a_branch1_bn"
	type: "BNData"
	param {
		lr_mult: 1
		decay_mult: 0
	}
	param {
		lr_mult: 1
		decay_mult: 0
	}
	param {
		lr_mult: 0
		decay_mult: 0
	}
	param {
		lr_mult: 0
		decay_mult: 0
	}
	bn_param {
		scale_filler {
			type: "constant"
			value: 1
		}
		shift_filler {
			type: "constant"
			value: 0
		}
		moving_average: true
		decay: 0.05
	}
}

layer {
	bottom: "res8a_branch1"
	bottom: "res8a_branch2b"
	top: "res8a"
	name: "res8a_eltwise"
	type: "Eltwise"
	eltwise_param {
		operation: SUM
	}
}

layer {
	bottom: "res8a"
	top: "res8a"
	name: "res8a_relu"
	type: "ReLU"
}

layer {
	bottom: "res8a"
	top: "res8b_branch2a"
	name: "res8b_branch2a_conv"
	type: "ConvolutionData"
	param {
		lr_mult: 1
		decay_mult: 1
	}
	param {
		lr_mult: 2
		decay_mult: 0
	}
	convolution_param {
		num_output: 64
		kernel_size: 3
		pad: 1
		stride: 1
		weight_filler {
			type: "guassian"
			std: 0.01
		}
		bias_filler {
			type: "constant"
		}
	}
}

layer {
	bottom: "res8b_branch2a"
	top: "res8b_branch2a"
	name: "res8b_branch2a_bn"
	type: "BNData"
	param {
		lr_mult: 1
		decay_mult: 0
	}
	param {
		lr_mult: 1
		decay_mult: 0
	}
	param {
		lr_mult: 0
		decay_mult: 0
	}
	param {
		lr_mult: 0
		decay_mult: 0
	}
	bn_param {
		scale_filler {
			type: "constant"
			value: 1
		}
		shift_filler {
			type: "constant"
			value: 0
		}
		moving_average: true
		decay: 0.05
	}
}

layer {
	bottom: "res8b_branch2a"
	top: "res8b_branch2a"
	name: "res8b_branch2a_relu"
	type: "ReLU"
}

layer {
	bottom: "res8b_branch2a"
	top: "res8b_branch2b"
	name: "res8b_branch2b_conv"
	type: "ConvolutionData"
	param {
		lr_mult: 1
		decay_mult: 1
	}
	param {
		lr_mult: 2
		decay_mult: 0
	}
	convolution_param {
		num_output: 64
		kernel_size: 3
		pad: 1
		stride: 1
		weight_filler {
			type: "guassian"
			std: 0.01
		}
		bias_filler {
			type: "constant"
		}
	}
}

layer {
	bottom: "res8b_branch2b"
	top: "res8b_branch2b"
	name: "res8b_branch2b_bn"
	type: "BNData"
	param {
		lr_mult: 1
		decay_mult: 0
	}
	param {
		lr_mult: 1
		decay_mult: 0
	}
	param {
		lr_mult: 0
		decay_mult: 0
	}
	param {
		lr_mult: 0
		decay_mult: 0
	}
	bn_param {
		scale_filler {
			type: "constant"
			value: 1
		}
		shift_filler {
			type: "constant"
			value: 0
		}
		moving_average: true
		decay: 0.05
	}
}

layer {
	bottom: "res8a"
	bottom: "res8b_branch2b"
	top: "res8b"
	name: "res8b_eltwise"
	type: "Eltwise"
	eltwise_param {
		operation: SUM
	}
}

layer {
	bottom: "res8b"
	top: "res8b"
	name: "res8b_relu"
	type: "ReLU"
}

layer {
	bottom: "res8b"
	top: "res8c"
	name: "res8c_conv"
	type: "ConvolutionData"
	param {
		lr_mult: 1
		decay_mult: 1
	}
	param {
		lr_mult: 2
		decay_mult: 0
	}
	convolution_param {
		num_output: 32
		kernel_size: 1
		pad: 0
		stride: 1
		weight_filler {
			type: "guassian"
			std: 0.01
		}
		bias_filler {
			type: "constant"
		}
	}
}

layer {
	bottom: "res8c"
	top: "res8c"
	name: "res8c_bn"
	type: "BNData"
	param {
		lr_mult: 1
		decay_mult: 0
	}
	param {
		lr_mult: 1
		decay_mult: 0
	}
	param {
		lr_mult: 0
		decay_mult: 0
	}
	param {
		lr_mult: 0
		decay_mult: 0
	}
	bn_param {
		scale_filler {
			type: "constant"
			value: 1
		}
		shift_filler {
			type: "constant"
			value: 0
		}
		moving_average: true
		decay: 0.05
	}
}

layer {
	bottom: "res8c"
	top: "res8c"
	name: "res8c_relu"
	type: "ReLU"
}

layer {
	bottom: "res8c"
	top: "res8c2"
	name: "res8c2_interp"
	type: "Interp"
	interp_param {
		zoom_factor: 2
	}
}

layer {
	bottom: "conv1"
	top: "res1a"
	name: "res1a_conv"
	type: "ConvolutionData"
	param {
		lr_mult: 1
		decay_mult: 1
	}
	param {
		lr_mult: 2
		decay_mult: 0
	}
	convolution_param {
		num_output: 32
		kernel_size: 3
		pad: 1
		stride: 1
		weight_filler {
			type: "guassian"
			std: 0.01
		}
		bias_filler {
			type: "constant"
		}
	}
}

layer {
	bottom: "res1a"
	top: "res1a"
	name: "res1a_bn"
	type: "BNData"
	param {
		lr_mult: 1
		decay_mult: 0
	}
	param {
		lr_mult: 1
		decay_mult: 0
	}
	param {
		lr_mult: 0
		decay_mult: 0
	}
	param {
		lr_mult: 0
		decay_mult: 0
	}
	bn_param {
		scale_filler {
			type: "constant"
			value: 1
		}
		shift_filler {
			type: "constant"
			value: 0
		}
		moving_average: true
		decay: 0.05
	}
}

layer {
	bottom: "res1a"
	top: "res1a"
	name: "res1a_relu"
	type: "ReLU"
}

layer {
	bottom: "res1a"
	top: "res1b"
	name: "res1b_conv"
	type: "ConvolutionData"
	param {
		lr_mult: 1
		decay_mult: 1
	}
	param {
		lr_mult: 2
		decay_mult: 0
	}
	convolution_param {
		num_output: 32
		kernel_size: 3
		pad: 1
		stride: 1
		weight_filler {
			type: "guassian"
			std: 0.01
		}
		bias_filler {
			type: "constant"
		}
	}
}

layer {
	bottom: "res1b"
	top: "res1b"
	name: "res1b_bn"
	type: "BNData"
	param {
		lr_mult: 1
		decay_mult: 0
	}
	param {
		lr_mult: 1
		decay_mult: 0
	}
	param {
		lr_mult: 0
		decay_mult: 0
	}
	param {
		lr_mult: 0
		decay_mult: 0
	}
	bn_param {
		scale_filler {
			type: "constant"
			value: 1
		}
		shift_filler {
			type: "constant"
			value: 0
		}
		moving_average: true
		decay: 0.05
	}
}

layer {
	bottom: "res1b"
	top: "res1b"
	name: "res1b_relu"
	type: "ReLU"
}

layer {
	bottom: "res8c2"
	bottom: "res1b"
	top: "res8d"
	name: "res8d_concat"
	type: "Concat"
	concat_param {
		axis: 1
	}
}

layer {
	bottom: "res8d"
	top: "res9a"
	name: "res9a_conv"
	type: "ConvolutionData"
	param {
		lr_mult: 1
		decay_mult: 1
	}
	param {
		lr_mult: 2
		decay_mult: 0
	}
	convolution_param {
		num_output: 64
		kernel_size: 3
		pad: 1
		stride: 1
		weight_filler {
			type: "guassian"
			std: 0.01
		}
		bias_filler {
			type: "constant"
		}
	}
}

layer {
	bottom: "res9a"
	top: "res9a"
	name: "res9a_bn"
	type: "BNData"
	param {
		lr_mult: 1
		decay_mult: 0
	}
	param {
		lr_mult: 1
		decay_mult: 0
	}
	param {
		lr_mult: 0
		decay_mult: 0
	}
	param {
		lr_mult: 0
		decay_mult: 0
	}
	bn_param {
		scale_filler {
			type: "constant"
			value: 1
		}
		shift_filler {
			type: "constant"
			value: 0
		}
		moving_average: true
		decay: 0.05
	}
}

layer {
	bottom: "res9a"
	top: "res9a"
	name: "res9a_relu"
	type: "ReLU"
}

layer {
	bottom: "res9a"
	top: "res9b"
	name: "res9b_conv"
	type: "ConvolutionData"
	param {
		lr_mult: 1
		decay_mult: 1
	}
	param {
		lr_mult: 2
		decay_mult: 0
	}
	convolution_param {
		num_output: 256
		kernel_size: 1
		pad: 0
		stride: 1
		weight_filler {
			type: "guassian"
			std: 0.01
		}
		bias_filler {
			type: "constant"
		}
	}
}

layer {
	bottom: "res9b"
	top: "res9b"
	name: "res9b_bn"
	type: "BNData"
	param {
		lr_mult: 1
		decay_mult: 0
	}
	param {
		lr_mult: 1
		decay_mult: 0
	}
	param {
		lr_mult: 0
		decay_mult: 0
	}
	param {
		lr_mult: 0
		decay_mult: 0
	}
	bn_param {
		scale_filler {
			type: "constant"
			value: 1
		}
		shift_filler {
			type: "constant"
			value: 0
		}
		moving_average: true
		decay: 0.05
	}
}

layer {
	bottom: "res9b"
	top: "res9b"
	name: "res9b_relu"
	type: "ReLU"
}

layer {
	bottom: "res9b"
	top: "res9c"
	name: "res9c_conv"
	type: "ConvolutionData"
	param {
		lr_mult: 1
		decay_mult: 1
	}
	param {
		lr_mult: 2
		decay_mult: 0
	}
	convolution_param {
		num_output: 1
		kernel_size: 1
		pad: 0
		stride: 1
		weight_filler {
			type: "guassian"
			std: 0.01
		}
		bias_filler {
			type: "constant"
		}
	}
}

layer {
	bottom: "res9c"
	top: "heatmap"
	name: "heatmap_relu"
	type: "ReLU"
}

layer {
	bottom: "heatmap"
	bottom: "label3"	
	top: "loss"
	type: "EuclideanLoss"
	name: "loss"
}



layer {
  name: "data"
  type: "HDF5Data"
  top: "data"
  top: "label"
  include {
    phase: TRAIN
  }
  hdf5_data_param {
    source: "/mnt/lustre/duanhaodong/dataset/shanghai/part_A_final/train_data/train/train.txt"
    batch_size: 16
  }
}


layer {
    name: "reshape"
    type: "Reshape"
    bottom: "label"
    top: "label3"
    reshape_param {
        shape {
                dim: 16  # copy the dimension from below
                dim: 1
                dim: 112
                dim: 112 # infer it from the other dimensions
        }
    }
}




layer {
	bottom: "data"
	top: "conv1"
	name: "conv1_conv"
	type: "ConvolutionData"
	param {
		lr_mult: 1
		decay_mult: 1
	}
	param {
		lr_mult: 2
		decay_mult: 0
	}
	convolution_param {
		num_output: 64
		kernel_size: 7
		pad: 3
		stride: 2
		weight_filler {
			type: "guassian"
			std: 0.01
		}
		bias_filler {
			type: "constant"
		}
	}
}

layer {
	bottom: "conv1"
	top: "conv1"
	name: "conv1_bn"
	type: "BNData"
	param {
		lr_mult: 1
		decay_mult: 0
	}
	param {
		lr_mult: 1
		decay_mult: 0
	}
	param {
		lr_mult: 0
		decay_mult: 0
	}
	param {
		lr_mult: 0
		decay_mult: 0
	}
	bn_param {
		scale_filler {
			type: "constant"
			value: 1
		}
		shift_filler {
			type: "constant"
			value: 0
		}
		moving_average: true
		decay: 0.05
	}
}

layer {
	bottom: "conv1"
	top: "conv1"
	name: "conv1_relu"
	type: "ReLU"
}

layer {
	bottom: "conv1"
	top: "pool1"
	name: "pool1_conv"
	type: "Pooling"
	pooling_param {
		pool: MAX
		kernel_size: 3
		stride: 2
	}
}
layer {
	bottom: "pool1"
	top: "res2a_branch2a"
	name: "res2a_branch2a_conv"
	type: "ConvolutionData"
	param {
		lr_mult: 1
		decay_mult: 1
	}
	param {
		lr_mult: 2
		decay_mult: 0
	}
	convolution_param {
		num_output: 64
		kernel_size: 3
		pad: 1
		stride: 1
		weight_filler {
			type: "guassian"
			std: 0.01
		}
		bias_filler {
			type: "constant"
		}
	}
}

layer {
	bottom: "res2a_branch2a"
	top: "res2a_branch2a"
	name: "res2a_branch2a_bn"
	type: "BNData"
	param {
		lr_mult: 1
		decay_mult: 0
	}
	param {
		lr_mult: 1
		decay_mult: 0
	}
	param {
		lr_mult: 0
		decay_mult: 0
	}
	param {
		lr_mult: 0
		decay_mult: 0
	}
	bn_param {
		scale_filler {
			type: "constant"
			value: 1
		}
		shift_filler {
			type: "constant"
			value: 0
		}
		moving_average: true
		decay: 0.05
	}
}

layer {
	bottom: "res2a_branch2a"
	top: "res2a_branch2a"
	name: "res2a_branch2a_relu"
	type: "ReLU"
}

layer {
	bottom: "res2a_branch2a"
	top: "res2a_branch2b"
	name: "res2a_branch2b_conv"
	type: "ConvolutionData"
	param {
		lr_mult: 1
		decay_mult: 1
	}
	param {
		lr_mult: 2
		decay_mult: 0
	}
	convolution_param {
		num_output: 64
		kernel_size: 3
		pad: 1
		stride: 1
		weight_filler {
			type: "guassian"
			std: 0.01
		}
		bias_filler {
			type: "constant"
		}
	}
}

layer {
	bottom: "res2a_branch2b"
	top: "res2a_branch2b"
	name: "res2a_branch2b_bn"
	type: "BNData"
	param {
		lr_mult: 1
		decay_mult: 0
	}
	param {
		lr_mult: 1
		decay_mult: 0
	}
	param {
		lr_mult: 0
		decay_mult: 0
	}
	param {
		lr_mult: 0
		decay_mult: 0
	}
	bn_param {
		scale_filler {
			type: "constant"
			value: 1
		}
		shift_filler {
			type: "constant"
			value: 0
		}
		moving_average: true
		decay: 0.05
	}
}

layer {
	bottom: "pool1"
	top: "res2a_branch1"
	name: "res2a_branch1_conv"
	type: "ConvolutionData"
	param {
		lr_mult: 1
		decay_mult: 1
	}
	param {
		lr_mult: 2
		decay_mult: 0
	}
	convolution_param {
		num_output: 64
		kernel_size: 1
		pad: 0
		stride: 1
		weight_filler {
			type: "guassian"
			std: 0.01
		}
		bias_filler {
			type: "constant"
		}
	}
}

layer {
	bottom: "res2a_branch1"
	top: "res2a_branch1"
	name: "res2a_branch1_bn"
	type: "BNData"
	param {
		lr_mult: 1
		decay_mult: 0
	}
	param {
		lr_mult: 1
		decay_mult: 0
	}
	param {
		lr_mult: 0
		decay_mult: 0
	}
	param {
		lr_mult: 0
		decay_mult: 0
	}
	bn_param {
		scale_filler {
			type: "constant"
			value: 1
		}
		shift_filler {
			type: "constant"
			value: 0
		}
		moving_average: true
		decay: 0.05
	}
}

layer {
	bottom: "res2a_branch1"
	bottom: "res2a_branch2b"
	top: "res2a"
	name: "res2a_eltwise"
	type: "Eltwise"
	eltwise_param {
		operation: SUM
	}
}

layer {
	bottom: "res2a"
	top: "res2a"
	name: "res2a_relu"
	type: "ReLU"
}

layer {
	bottom: "res2a"
	top: "res2b_branch2a"
	name: "res2b_branch2a_conv"
	type: "ConvolutionData"
	param {
		lr_mult: 1
		decay_mult: 1
	}
	param {
		lr_mult: 2
		decay_mult: 0
	}
	convolution_param {
		num_output: 64
		kernel_size: 3
		pad: 1
		stride: 1
		weight_filler {
			type: "guassian"
			std: 0.01
		}
		bias_filler {
			type: "constant"
		}
	}
}

layer {
	bottom: "res2b_branch2a"
	top: "res2b_branch2a"
	name: "res2b_branch2a_bn"
	type: "BNData"
	param {
		lr_mult: 1
		decay_mult: 0
	}
	param {
		lr_mult: 1
		decay_mult: 0
	}
	param {
		lr_mult: 0
		decay_mult: 0
	}
	param {
		lr_mult: 0
		decay_mult: 0
	}
	bn_param {
		scale_filler {
			type: "constant"
			value: 1
		}
		shift_filler {
			type: "constant"
			value: 0
		}
		moving_average: true
		decay: 0.05
	}
}

layer {
	bottom: "res2b_branch2a"
	top: "res2b_branch2a"
	name: "res2b_branch2a_relu"
	type: "ReLU"
}

layer {
	bottom: "res2b_branch2a"
	top: "res2b_branch2b"
	name: "res2b_branch2b_conv"
	type: "ConvolutionData"
	param {
		lr_mult: 1
		decay_mult: 1
	}
	param {
		lr_mult: 2
		decay_mult: 0
	}
	convolution_param {
		num_output: 64
		kernel_size: 3
		pad: 1
		stride: 1
		weight_filler {
			type: "guassian"
			std: 0.01
		}
		bias_filler {
			type: "constant"
		}
	}
}

layer {
	bottom: "res2b_branch2b"
	top: "res2b_branch2b"
	name: "res2b_branch2b_bn"
	type: "BNData"
	param {
		lr_mult: 1
		decay_mult: 0
	}
	param {
		lr_mult: 1
		decay_mult: 0
	}
	param {
		lr_mult: 0
		decay_mult: 0
	}
	param {
		lr_mult: 0
		decay_mult: 0
	}
	bn_param {
		scale_filler {
			type: "constant"
			value: 1
		}
		shift_filler {
			type: "constant"
			value: 0
		}
		moving_average: true
		decay: 0.05
	}
}

layer {
	bottom: "res2a"
	bottom: "res2b_branch2b"
	top: "res2b"
	name: "res2b_eltwise"
	type: "Eltwise"
	eltwise_param {
		operation: SUM
	}
}

layer {
	bottom: "res2b"
	top: "res2b"
	name: "res2b_relu"
	type: "ReLU"
}

layer {
	bottom: "res2b"
	top: "res3a_branch2a"
	name: "res3a_branch2a_conv"
	type: "ConvolutionData"
	param {
		lr_mult: 1
		decay_mult: 1
	}
	param {
		lr_mult: 2
		decay_mult: 0
	}
	convolution_param {
		num_output: 128
		kernel_size: 3
		pad: 1
		stride: 2
		weight_filler {
			type: "guassian"
			std: 0.01
		}
		bias_filler {
			type: "constant"
		}
	}
}

layer {
	bottom: "res3a_branch2a"
	top: "res3a_branch2a"
	name: "res3a_branch2a_bn"
	type: "BNData"
	param {
		lr_mult: 1
		decay_mult: 0
	}
	param {
		lr_mult: 1
		decay_mult: 0
	}
	param {
		lr_mult: 0
		decay_mult: 0
	}
	param {
		lr_mult: 0
		decay_mult: 0
	}
	bn_param {
		scale_filler {
			type: "constant"
			value: 1
		}
		shift_filler {
			type: "constant"
			value: 0
		}
		moving_average: true
		decay: 0.05
	}
}

layer {
	bottom: "res3a_branch2a"
	top: "res3a_branch2a"
	name: "res3a_branch2a_relu"
	type: "ReLU"
}

layer {
	bottom: "res3a_branch2a"
	top: "res3a_branch2b"
	name: "res3a_branch2b_conv"
	type: "ConvolutionData"
	param {
		lr_mult: 1
		decay_mult: 1
	}
	param {
		lr_mult: 2
		decay_mult: 0
	}
	convolution_param {
		num_output: 128
		kernel_size: 3
		pad: 1
		stride: 1
		weight_filler {
			type: "guassian"
			std: 0.01
		}
		bias_filler {
			type: "constant"
		}
	}
}

layer {
	bottom: "res3a_branch2b"
	top: "res3a_branch2b"
	name: "res3a_branch2b_bn"
	type: "BNData"
	param {
		lr_mult: 1
		decay_mult: 0
	}
	param {
		lr_mult: 1
		decay_mult: 0
	}
	param {
		lr_mult: 0
		decay_mult: 0
	}
	param {
		lr_mult: 0
		decay_mult: 0
	}
	bn_param {
		scale_filler {
			type: "constant"
			value: 1
		}
		shift_filler {
			type: "constant"
			value: 0
		}
		moving_average: true
		decay: 0.05
	}
}

layer {
	bottom: "res2b"
	top: "res3a_branch1"
	name: "res3a_branch1_conv"
	type: "ConvolutionData"
	param {
		lr_mult: 1
		decay_mult: 1
	}
	param {
		lr_mult: 2
		decay_mult: 0
	}
	convolution_param {
		num_output: 128
		kernel_size: 1
		pad: 0
		stride: 2
		weight_filler {
			type: "guassian"
			std: 0.01
		}
		bias_filler {
			type: "constant"
		}
	}
}

layer {
	bottom: "res3a_branch1"
	top: "res3a_branch1"
	name: "res3a_branch1_bn"
	type: "BNData"
	param {
		lr_mult: 1
		decay_mult: 0
	}
	param {
		lr_mult: 1
		decay_mult: 0
	}
	param {
		lr_mult: 0
		decay_mult: 0
	}
	param {
		lr_mult: 0
		decay_mult: 0
	}
	bn_param {
		scale_filler {
			type: "constant"
			value: 1
		}
		shift_filler {
			type: "constant"
			value: 0
		}
		moving_average: true
		decay: 0.05
	}
}

layer {
	bottom: "res3a_branch1"
	bottom: "res3a_branch2b"
	top: "res3a"
	name: "res3a_eltwise"
	type: "Eltwise"
	eltwise_param {
		operation: SUM
	}
}

layer {
	bottom: "res3a"
	top: "res3a"
	name: "res3a_relu"
	type: "ReLU"
}

layer {
	bottom: "res3a"
	top: "res3b_branch2a"
	name: "res3b_branch2a_conv"
	type: "ConvolutionData"
	param {
		lr_mult: 1
		decay_mult: 1
	}
	param {
		lr_mult: 2
		decay_mult: 0
	}
	convolution_param {
		num_output: 128
		kernel_size: 3
		pad: 1
		stride: 1
		weight_filler {
			type: "guassian"
			std: 0.01
		}
		bias_filler {
			type: "constant"
		}
	}
}

layer {
	bottom: "res3b_branch2a"
	top: "res3b_branch2a"
	name: "res3b_branch2a_bn"
	type: "BNData"
	param {
		lr_mult: 1
		decay_mult: 0
	}
	param {
		lr_mult: 1
		decay_mult: 0
	}
	param {
		lr_mult: 0
		decay_mult: 0
	}
	param {
		lr_mult: 0
		decay_mult: 0
	}
	bn_param {
		scale_filler {
			type: "constant"
			value: 1
		}
		shift_filler {
			type: "constant"
			value: 0
		}
		moving_average: true
		decay: 0.05
	}
}

layer {
	bottom: "res3b_branch2a"
	top: "res3b_branch2a"
	name: "res3b_branch2a_relu"
	type: "ReLU"
}

layer {
	bottom: "res3b_branch2a"
	top: "res3b_branch2b"
	name: "res3b_branch2b_conv"
	type: "ConvolutionData"
	param {
		lr_mult: 1
		decay_mult: 1
	}
	param {
		lr_mult: 2
		decay_mult: 0
	}
	convolution_param {
		num_output: 128
		kernel_size: 3
		pad: 1
		stride: 1
		weight_filler {
			type: "guassian"
			std: 0.01
		}
		bias_filler {
			type: "constant"
		}
	}
}

layer {
	bottom: "res3b_branch2b"
	top: "res3b_branch2b"
	name: "res3b_branch2b_bn"
	type: "BNData"
	param {
		lr_mult: 1
		decay_mult: 0
	}
	param {
		lr_mult: 1
		decay_mult: 0
	}
	param {
		lr_mult: 0
		decay_mult: 0
	}
	param {
		lr_mult: 0
		decay_mult: 0
	}
	bn_param {
		scale_filler {
			type: "constant"
			value: 1
		}
		shift_filler {
			type: "constant"
			value: 0
		}
		moving_average: true
		decay: 0.05
	}
}

layer {
	bottom: "res3a"
	bottom: "res3b_branch2b"
	top: "res3b"
	name: "res3b_eltwise"
	type: "Eltwise"
	eltwise_param {
		operation: SUM
	}
}

layer {
	bottom: "res3b"
	top: "res3b"
	name: "res3b_relu"
	type: "ReLU"
}

layer {
	bottom: "res3b"
	top: "res4a_branch2a"
	name: "res4a_branch2a_conv"
	type: "ConvolutionData"
	param {
		lr_mult: 1
		decay_mult: 1
	}
	param {
		lr_mult: 2
		decay_mult: 0
	}
	convolution_param {
		num_output: 256
		kernel_size: 3
		pad: 1
		stride: 2
		weight_filler {
			type: "guassian"
			std: 0.01
		}
		bias_filler {
			type: "constant"
		}
	}
}

layer {
	bottom: "res4a_branch2a"
	top: "res4a_branch2a"
	name: "res4a_branch2a_bn"
	type: "BNData"
	param {
		lr_mult: 1
		decay_mult: 0
	}
	param {
		lr_mult: 1
		decay_mult: 0
	}
	param {
		lr_mult: 0
		decay_mult: 0
	}
	param {
		lr_mult: 0
		decay_mult: 0
	}
	bn_param {
		scale_filler {
			type: "constant"
			value: 1
		}
		shift_filler {
			type: "constant"
			value: 0
		}
		moving_average: true
		decay: 0.05
	}
}

layer {
	bottom: "res4a_branch2a"
	top: "res4a_branch2a"
	name: "res4a_branch2a_relu"
	type: "ReLU"
}

layer {
	bottom: "res4a_branch2a"
	top: "res4a_branch2b"
	name: "res4a_branch2b_conv"
	type: "ConvolutionData"
	param {
		lr_mult: 1
		decay_mult: 1
	}

	param {
		lr_mult: 2
		decay_mult: 0
	}
	convolution_param {
		num_output: 256
		kernel_size: 3
		pad: 1
		stride: 1
		weight_filler {
			type: "guassian"
			std: 0.01
		}
		bias_filler {
			type: "constant"
		}
	}
}

layer {
	bottom: "res4a_branch2b"
	top: "res4a_branch2b"
	name: "res4a_branch2b_bn"
	type: "BNData"
	param {
		lr_mult: 1
		decay_mult: 0
	}
	param {
		lr_mult: 1
		decay_mult: 0
	}
	param {
		lr_mult: 0
		decay_mult: 0
	}
	param {
		lr_mult: 0
		decay_mult: 0
	}
	bn_param {
		scale_filler {
			type: "constant"
			value: 1
		}
		shift_filler {
			type: "constant"
			value: 0
		}
		moving_average: true
		decay: 0.05
	}
}

layer {
	bottom: "res3b"
	top: "res4a_branch1"
	name: "res4a_branch1_conv"
	type: "ConvolutionData"
	param {
		lr_mult: 1
		decay_mult: 1
	}
	param {
		lr_mult: 2
		decay_mult: 0
	}
	convolution_param {
		num_output: 256
		kernel_size: 1
		pad: 0
		stride: 2
		weight_filler {
			type: "guassian"
			std: 0.01
		}
		bias_filler {
			type: "constant"
		}
	}
}

layer {
	bottom: "res4a_branch1"
	top: "res4a_branch1"
	name: "res4a_branch1_bn"
	type: "BNData"
	param {
		lr_mult: 1
		decay_mult: 0
	}
	param {
		lr_mult: 1
		decay_mult: 0
	}
	param {
		lr_mult: 0
		decay_mult: 0
	}
	param {
		lr_mult: 0
		decay_mult: 0
	}
	bn_param {
		scale_filler {
			type: "constant"
			value: 1
		}
		shift_filler {
			type: "constant"
			value: 0
		}
		moving_average: true
		decay: 0.05
	}
}

layer {
	bottom: "res4a_branch1"
	bottom: "res4a_branch2b"
	top: "res4a"
	name: "res4a_eltwise"
	type: "Eltwise"
	eltwise_param {
		operation: SUM
	}
}

layer {
	bottom: "res4a"
	top: "res4a"
	name: "res4a_relu"
	type: "ReLU"
}

layer {
	bottom: "res4a"
	top: "res4b_branch2a"
	name: "res4b_branch2a_conv"
	type: "ConvolutionData"
	param {
		lr_mult: 1
		decay_mult: 1
	}
	param {
		lr_mult: 2
		decay_mult: 0
	}
	convolution_param {
		num_output: 256
		kernel_size: 3
		pad: 1
		stride: 1
		weight_filler {
			type: "guassian"
			std: 0.01
		}
		bias_filler {
			type: "constant"
		}
	}
}

layer {
	bottom: "res4b_branch2a"
	top: "res4b_branch2a"
	name: "res4b_branch2a_bn"
	type: "BNData"
	param {
		lr_mult: 1
		decay_mult: 0
	}
	param {
		lr_mult: 1
		decay_mult: 0
	}
	param {
		lr_mult: 0
		decay_mult: 0
	}
	param {
		lr_mult: 0
		decay_mult: 0
	}
	bn_param {
		scale_filler {
			type: "constant"
			value: 1
		}
		shift_filler {
			type: "constant"
			value: 0
		}
		moving_average: true
		decay: 0.05
	}
}

layer {
	bottom: "res4b_branch2a"
	top: "res4b_branch2a"
	name: "res4b_branch2a_relu"
	type: "ReLU"
}

layer {
	bottom: "res4b_branch2a"
	top: "res4b_branch2b"
	name: "res4b_branch2b_conv"
	type: "ConvolutionData"
	param {
		lr_mult: 1
		decay_mult: 1
	}
	param {
		lr_mult: 2
		decay_mult: 0
	}
	convolution_param {
		num_output: 256
		kernel_size: 3
		pad: 1
		stride: 1
		weight_filler {
			type: "guassian"
			std: 0.01
		}
		bias_filler {
			type: "constant"
		}
	}
}

layer {
	bottom: "res4b_branch2b"
	top: "res4b_branch2b"
	name: "res4b_branch2b_bn"
	type: "BNData"
	param {
		lr_mult: 1
		decay_mult: 0
	}
	param {
		lr_mult: 1
		decay_mult: 0
	}
	param {
		lr_mult: 0
		decay_mult: 0
	}
	param {
		lr_mult: 0
		decay_mult: 0
	}
	bn_param {
		scale_filler {
			type: "constant"
			value: 1
		}
		shift_filler {
			type: "constant"
			value: 0
		}
		moving_average: true
		decay: 0.05
	}
}

layer {
	bottom: "res4a"
	bottom: "res4b_branch2b"
	top: "res4b"
	name: "res4b_eltwise"
	type: "Eltwise"
	eltwise_param {
		operation: SUM
	}
}

layer {
	bottom: "res4b"
	top: "res4b"
	name: "res4b_relu"
	type: "ReLU"
}

layer {
	bottom: "res4b"
	top: "res5a_branch2a"
	name: "res5a_branch2a_conv"
	type: "ConvolutionData"
	param {
		lr_mult: 1
		decay_mult: 1
	}
	param {
		lr_mult: 2
		decay_mult: 0
	}
	convolution_param {
		num_output: 512
		kernel_size: 3
		pad: 1
		stride: 2
		weight_filler {
			type: "guassian"
			std: 0.01
		}
		bias_filler {
			type: "constant"
		}
	}
}

layer {
	bottom: "res5a_branch2a"
	top: "res5a_branch2a"
	name: "res5a_branch2a_bn"
	type: "BNData"
	param {
		lr_mult: 1
		decay_mult: 0
	}
	param {
		lr_mult: 1
		decay_mult: 0
	}
	param {
		lr_mult: 0
		decay_mult: 0
	}
	param {
		lr_mult: 0
		decay_mult: 0
	}
	bn_param {
		scale_filler {
			type: "constant"
			value: 1
		}
		shift_filler {
			type: "constant"
			value: 0
		}
		moving_average: true
		decay: 0.05
	}
}

layer {
	bottom: "res5a_branch2a"
	top: "res5a_branch2a"
	name: "res5a_branch2a_relu"
	type: "ReLU"
}

layer {
	bottom: "res5a_branch2a"
	top: "res5a_branch2b"
	name: "res5a_branch2b_conv"
	type: "ConvolutionData"
	param {
		lr_mult: 1
		decay_mult: 1
	}
	param {
		lr_mult: 2
		decay_mult: 0
	}
	convolution_param {
		num_output: 512
		kernel_size: 3
		pad: 1
		stride: 1
		weight_filler {
			type: "guassian"
			std: 0.01
		}
		bias_filler {
			type: "constant"
		}
	}
}

layer {
	bottom: "res5a_branch2b"
	top: "res5a_branch2b"
	name: "res5a_branch2b_bn"
	type: "BNData"
	param {
		lr_mult: 1
		decay_mult: 0
	}
	param {
		lr_mult: 1
		decay_mult: 0
	}
	param {
		lr_mult: 0
		decay_mult: 0
	}
	param {
		lr_mult: 0
		decay_mult: 0
	}
	bn_param {
		scale_filler {
			type: "constant"
			value: 1
		}
		shift_filler {
			type: "constant"
			value: 0
		}
		moving_average: true
		decay: 0.05
	}
}

layer {
	bottom: "res4b"
	top: "res5a_branch1"
	name: "res5a_branch1_conv"
	type: "ConvolutionData"
	param {
		lr_mult: 1
		decay_mult: 1
	}
	param {
		lr_mult: 2
		decay_mult: 0
	}
	convolution_param {
		num_output: 512
		kernel_size: 1
		pad: 0
		stride: 2
		weight_filler {
			type: "guassian"
			std: 0.01
		}
		bias_filler {
			type: "constant"
		}
	}
}

layer {
	bottom: "res5a_branch1"
	top: "res5a_branch1"
	name: "res5a_branch1_bn"
	type: "BNData"
	param {
		lr_mult: 1
		decay_mult: 0
	}
	param {
		lr_mult: 1
		decay_mult: 0
	}
	param {
		lr_mult: 0
		decay_mult: 0
	}
	param {
		lr_mult: 0
		decay_mult: 0
	}
	bn_param {
		scale_filler {
			type: "constant"
			value: 1
		}
		shift_filler {
			type: "constant"
			value: 0
		}
		moving_average: true
		decay: 0.05
	}
}

layer {
	bottom: "res5a_branch1"
	bottom: "res5a_branch2b"
	top: "res5a"
	name: "res5a_eltwise"
	type: "Eltwise"
	eltwise_param {
		operation: SUM
	}
}

layer {
	bottom: "res5a"
	top: "res5a"
	name: "res5a_relu"
	type: "ReLU"
}

layer {
	bottom: "res5a"
	top: "res5b_branch2a"
	name: "res5b_branch2a_conv"
	type: "ConvolutionData"
	param {
		lr_mult: 1
		decay_mult: 1
	}
	param {
		lr_mult: 2
		decay_mult: 0
	}
	convolution_param {
		num_output: 512
		kernel_size: 3
		pad: 1
		stride: 1
		weight_filler {
			type: "guassian"
			std: 0.01
		}
		bias_filler {
			type: "constant"
		}
	}
}

layer {
	bottom: "res5b_branch2a"
	top: "res5b_branch2a"
	name: "res5b_branch2a_bn"
	type: "BNData"
	param {
		lr_mult: 1
		decay_mult: 0
	}
	param {
		lr_mult: 1
		decay_mult: 0
	}
	param {
		lr_mult: 0
		decay_mult: 0
	}
	param {
		lr_mult: 0
		decay_mult: 0
	}
	bn_param {
		scale_filler {
			type: "constant"
			value: 1
		}
		shift_filler {
			type: "constant"
			value: 0
		}
		moving_average: true
		decay: 0.05
	}
}

layer {
	bottom: "res5b_branch2a"
	top: "res5b_branch2a"
	name: "res5b_branch2a_relu"
	type: "ReLU"
}

layer {
	bottom: "res5b_branch2a"
	top: "res5b_branch2b"
	name: "res5b_branch2b_conv"
	type: "ConvolutionData"
	param {
		lr_mult: 1
		decay_mult: 1
	}
	param {
		lr_mult: 2
		decay_mult: 0
	}
	convolution_param {
		num_output: 512
		kernel_size: 3
		pad: 1
		stride: 1
		weight_filler {
			type: "guassian"
			std: 0.01
		}
		bias_filler {
			type: "constant"
		}
	}
}

layer {
	bottom: "res5b_branch2b"
	top: "res5b_branch2b"
	name: "res5b_branch2b_bn"
	type: "BNData"
	param {
		lr_mult: 1
		decay_mult: 0
	}
	param {
		lr_mult: 1
		decay_mult: 0
	}
	param {
		lr_mult: 0
		decay_mult: 0
	}
	param {
		lr_mult: 0
		decay_mult: 0
	}
	bn_param {
		scale_filler {
			type: "constant"
			value: 1
		}
		shift_filler {
			type: "constant"
			value: 0
		}
		moving_average: true
		decay: 0.05
	}
}

layer {
	bottom: "res5a"
	bottom: "res5b_branch2b"
	top: "res5b"
	name: "res5b_eltwise"
	type: "Eltwise"
	eltwise_param {
		operation: SUM
	}
}

layer {
	bottom: "res5b"
	top: "res5b"
	name: "res5b_relu"
	type: "ReLU"
}

layer {
	bottom: "res5b"
	top: "res5c"
	name: "res5c_conv"
	type: "ConvolutionData"
	param {
		lr_mult: 1
		decay_mult: 1
	}
	param {
		lr_mult: 2
		decay_mult: 0
	}
	convolution_param {
		num_output: 256
		kernel_size: 1
		pad: 0
		stride: 1
		weight_filler {
			type: "guassian"
			std: 0.01
		}
		bias_filler {
			type: "constant"
		}
	}
}

layer {
	bottom: "res5c"
	top: "res5c"
	name: "res5c_bn"
	type: "BNData"
	param {
		lr_mult: 1
		decay_mult: 0
	}
	param {
		lr_mult: 1
		decay_mult: 0
	}
	param {
		lr_mult: 0
		decay_mult: 0
	}
	param {
		lr_mult: 0
		decay_mult: 0
	}
	bn_param {
		scale_filler {
			type: "constant"
			value: 1
		}
		shift_filler {
			type: "constant"
			value: 0
		}
		moving_average: true
		decay: 0.05
	}
}

layer {
	bottom: "res5c"
	top: "res5c"
	name: "res5c_relu"
	type: "ReLU"
}

layer {
	bottom: "res5c"
	top: "res5c2"
	name: "res5c2_interp"
	type: "Interp"
	interp_param {
		zoom_factor: 2
	}
}

layer {
	bottom: "res5c2"
	bottom: "res4b"
	top: "res5d"
	name: "res5d_concat"
	type: "Concat"
	concat_param {
		axis: 1
	}
}

layer {
	bottom: "res5d"
	top: "res6a_branch2a"
	name: "res6a_branch2a_conv"
	type: "ConvolutionData"
	param {
		lr_mult: 1
		decay_mult: 1
	}
	param {
		lr_mult: 2
		decay_mult: 0
	}
	convolution_param {
		num_output: 256
		kernel_size: 3
		pad: 1
		stride: 1
		weight_filler {
			type: "guassian"
			std: 0.01
		}
		bias_filler {
			type: "constant"
		}
	}
}

layer {
	bottom: "res6a_branch2a"
	top: "res6a_branch2a"
	name: "res6a_branch2a_bn"
	type: "BNData"
	param {
		lr_mult: 1
		decay_mult: 0
	}
	param {
		lr_mult: 1
		decay_mult: 0
	}
	param {
		lr_mult: 0
		decay_mult: 0
	}
	param {
		lr_mult: 0
		decay_mult: 0
	}
	bn_param {
		scale_filler {
			type: "constant"
			value: 1
		}
		shift_filler {
			type: "constant"
			value: 0
		}
		moving_average: true
		decay: 0.05
	}
}

layer {
	bottom: "res6a_branch2a"
	top: "res6a_branch2a"
	name: "res6a_branch2a_relu"
	type: "ReLU"
}

layer {
	bottom: "res6a_branch2a"
	top: "res6a_branch2b"
	name: "res6a_branch2b_conv"
	type: "ConvolutionData"
	param {
		lr_mult: 1
		decay_mult: 1
	}
	param {
		lr_mult: 2
		decay_mult: 0
	}
	convolution_param {
		num_output: 256
		kernel_size: 3
		pad: 1
		stride: 1
		weight_filler {
			type: "guassian"
			std: 0.01
		}
		bias_filler {
			type: "constant"
		}
	}
}

layer {
	bottom: "res6a_branch2b"
	top: "res6a_branch2b"
	name: "res6a_branch2b_bn"
	type: "BNData"
	param {
		lr_mult: 1
		decay_mult: 0
	}
	param {
		lr_mult: 1
		decay_mult: 0
	}
	param {
		lr_mult: 0
		decay_mult: 0
	}
	param {
		lr_mult: 0
		decay_mult: 0
	}
	bn_param {
		scale_filler {
			type: "constant"
			value: 1
		}
		shift_filler {
			type: "constant"
			value: 0
		}
		moving_average: true
		decay: 0.05
	}
}

layer {
	bottom: "res5d"
	top: "res6a_branch1"
	name: "res6a_branch1_conv"
	type: "ConvolutionData"
	param {
		lr_mult: 1
		decay_mult: 1
	}
	param {
		lr_mult: 2
		decay_mult: 0
	}
	convolution_param {
		num_output: 256
		kernel_size: 1
		pad: 0
		stride: 1
		weight_filler {
			type: "guassian"
			std: 0.01
		}
		bias_filler {
			type: "constant"
		}
	}
}

layer {
	bottom: "res6a_branch1"
	top: "res6a_branch1"
	name: "res6a_branch1_bn"
	type: "BNData"
	param {
		lr_mult: 1
		decay_mult: 0
	}
	param {
		lr_mult: 1
		decay_mult: 0
	}
	param {
		lr_mult: 0
		decay_mult: 0
	}
	param {
		lr_mult: 0
		decay_mult: 0
	}
	bn_param {
		scale_filler {
			type: "constant"
			value: 1
		}
		shift_filler {
			type: "constant"
			value: 0
		}
		moving_average: true
		decay: 0.05
	}
}

layer {
	bottom: "res6a_branch1"
	bottom: "res6a_branch2b"
	top: "res6a"
	name: "res6a_eltwise"
	type: "Eltwise"
	eltwise_param {
		operation: SUM
	}
}

layer {
	bottom: "res6a"
	top: "res6a"
	name: "res6a_relu"
	type: "ReLU"
}

layer {
	bottom: "res6a"
	top: "res6b_branch2a"
	name: "res6b_branch2a_conv"
	type: "ConvolutionData"
	param {
		lr_mult: 1
		decay_mult: 1
	}
	param {
		lr_mult: 2
		decay_mult: 0
	}
	convolution_param {
		num_output: 256
		kernel_size: 3
		pad: 1
		stride: 1
		weight_filler {
			type: "guassian"
			std: 0.01
…
		bias_filler {
			type: "constant"
		}
	}
}

layer {
	bottom: "res8a_branch2b"
	top: "res8a_branch2b"
	name: "res8a_branch2b_bn"
	type: "BNData"
	param {
		lr_mult: 1
		decay_mult: 0
	}
	param {
		lr_mult: 1
		decay_mult: 0
	}
	param {
		lr_mult: 0
		decay_mult: 0
	}
	param {
		lr_mult: 0
		decay_mult: 0
	}
	bn_param {
		scale_filler {
			type: "constant"
			value: 1
		}
		shift_filler {
			type: "constant"
			value: 0
		}
		moving_average: true
		decay: 0.05
	}
}

layer {
	bottom: "res7d"
	top: "res8a_branch1"
	name: "res8a_branch1_conv"
	type: "ConvolutionData"
	param {
		lr_mult: 1
		decay_mult: 1
	}
	param {
		lr_mult: 2
		decay_mult: 0
	}
	convolution_param {
		num_output: 64
		kernel_size: 1
		pad: 0
		stride: 1
		weight_filler {
			type: "guassian"
			std: 0.01
		}
		bias_filler {
			type: "constant"
		}
	}
}

layer {
	bottom: "res8a_branch1"
	top: "res8a_branch1"
	name: "res8a_branch1_bn"
	type: "BNData"
	param {
		lr_mult: 1
		decay_mult: 0
	}
	param {
		lr_mult: 1
		decay_mult: 0
	}
	param {
		lr_mult: 0
		decay_mult: 0
	}
	param {
		lr_mult: 0
		decay_mult: 0
	}
	bn_param {
		scale_filler {
			type: "constant"
			value: 1
		}
		shift_filler {
			type: "constant"
			value: 0
		}
		moving_average: true
		decay: 0.05
	}
}

layer {
	bottom: "res8a_branch1"
	bottom: "res8a_branch2b"
	top: "res8a"
	name: "res8a_eltwise"
	type: "Eltwise"
	eltwise_param {
		operation: SUM
	}
}

layer {
	bottom: "res8a"
	top: "res8a"
	name: "res8a_relu"
	type: "ReLU"
}

layer {
	bottom: "res8a"
	top: "res8b_branch2a"
	name: "res8b_branch2a_conv"
	type: "ConvolutionData"
	param {
		lr_mult: 1
		decay_mult: 1
	}
	param {
		lr_mult: 2
		decay_mult: 0
	}
	convolution_param {
		num_output: 64
		kernel_size: 3
		pad: 1
		stride: 1
		weight_filler {
			type: "guassian"
			std: 0.01
		}
		bias_filler {
			type: "constant"
		}
	}
}

layer {
	bottom: "res8b_branch2a"
	top: "res8b_branch2a"
	name: "res8b_branch2a_bn"
	type: "BNData"
	param {
		lr_mult: 1
		decay_mult: 0
	}
	param {
		lr_mult: 1
		decay_mult: 0
	}
	param {
		lr_mult: 0
		decay_mult: 0
	}
	param {
		lr_mult: 0
		decay_mult: 0
	}
	bn_param {
		scale_filler {
			type: "constant"
			value: 1
		}
		shift_filler {
			type: "constant"
			value: 0
		}
		moving_average: true
		decay: 0.05
	}
}

layer {
	bottom: "res8b_branch2a"
	top: "res8b_branch2a"
	name: "res8b_branch2a_relu"
	type: "ReLU"
}

layer {
	bottom: "res8b_branch2a"
	top: "res8b_branch2b"
	name: "res8b_branch2b_conv"
	type: "ConvolutionData"
	param {
		lr_mult: 1
		decay_mult: 1
	}
	param {
		lr_mult: 2
		decay_mult: 0
	}
	convolution_param {
		num_output: 64
		kernel_size: 3
		pad: 1
		stride: 1
		weight_filler {
			type: "guassian"
			std: 0.01
		}
		bias_filler {
			type: "constant"
		}
	}
}

layer {
	bottom: "res8b_branch2b"
	top: "res8b_branch2b"
	name: "res8b_branch2b_bn"
	type: "BNData"
	param {
		lr_mult: 1
		decay_mult: 0
	}
	param {
		lr_mult: 1
		decay_mult: 0
	}
	param {
		lr_mult: 0
		decay_mult: 0
	}
	param {
		lr_mult: 0
		decay_mult: 0
	}
	bn_param {
		scale_filler {
			type: "constant"
			value: 1
		}
		shift_filler {
			type: "constant"
			value: 0
		}
		moving_average: true
		decay: 0.05
	}
}

layer {
	bottom: "res8a"
	bottom: "res8b_branch2b"
	top: "res8b"
	name: "res8b_eltwise"
	type: "Eltwise"
	eltwise_param {
		operation: SUM
	}
}

layer {
	bottom: "res8b"
	top: "res8b"
	name: "res8b_relu"
	type: "ReLU"
}

layer {
	bottom: "res8b"
	top: "res8c"
	name: "res8c_conv"
	type: "ConvolutionData"
	param {
		lr_mult: 1
		decay_mult: 1
	}
	param {
		lr_mult: 2
		decay_mult: 0
	}
	convolution_param {
		num_output: 32
		kernel_size: 1
		pad: 0
		stride: 1
		weight_filler {
			type: "guassian"
			std: 0.01
		}
		bias_filler {
			type: "constant"
		}
	}
}

layer {
	bottom: "res8c"
	top: "res8c"
	name: "res8c_bn"
	type: "BNData"
	param {
		lr_mult: 1
		decay_mult: 0
	}
	param {
		lr_mult: 1
		decay_mult: 0
	}
	param {
		lr_mult: 0
		decay_mult: 0
	}
	param {
		lr_mult: 0
		decay_mult: 0
	}
	bn_param {
		scale_filler {
			type: "constant"
			value: 1
		}
		shift_filler {
			type: "constant"
			value: 0
		}
		moving_average: true
		decay: 0.05
	}
}

layer {
	bottom: "res8c"
	top: "res8c"
	name: "res8c_relu"
	type: "ReLU"
}

layer {
	bottom: "res8c"
	top: "res8c2"
	name: "res8c2_interp"
	type: "Interp"
	interp_param {
		zoom_factor: 2
	}
}

layer {
	bottom: "conv1"
	top: "res1a"
	name: "res1a_conv"
	type: "ConvolutionData"
	param {
		lr_mult: 1
		decay_mult: 1
	}
	param {
		lr_mult: 2
		decay_mult: 0
	}
	convolution_param {
		num_output: 32
		kernel_size: 3
		pad: 1
		stride: 1
		weight_filler {
			type: "guassian"
			std: 0.01
		}
		bias_filler {
			type: "constant"
		}
	}
}

layer {
	bottom: "res1a"
	top: "res1a"
	name: "res1a_bn"
	type: "BNData"
	param {
		lr_mult: 1
		decay_mult: 0
	}
	param {
		lr_mult: 1
		decay_mult: 0
	}
	param {
		lr_mult: 0
		decay_mult: 0
	}
	param {
		lr_mult: 0
		decay_mult: 0
	}
	bn_param {
		scale_filler {
			type: "constant"
			value: 1
		}
		shift_filler {
			type: "constant"
			value: 0
		}
		moving_average: true
		decay: 0.05
	}
}

layer {
	bottom: "res1a"
	top: "res1a"
	name: "res1a_relu"
	type: "ReLU"
}

layer {
	bottom: "res1a"
	top: "res1b"
	name: "res1b_conv"
	type: "ConvolutionData"
	param {
		lr_mult: 1
		decay_mult: 1
	}
	param {
		lr_mult: 2
		decay_mult: 0
	}
	convolution_param {
		num_output: 32
		kernel_size: 3
		pad: 1
		stride: 1
		weight_filler {
			type: "guassian"
			std: 0.01
		}
		bias_filler {
			type: "constant"
		}
	}
}

layer {
	bottom: "res1b"
	top: "res1b"
	name: "res1b_bn"
	type: "BNData"
	param {
		lr_mult: 1
		decay_mult: 0
	}
	param {
		lr_mult: 1
		decay_mult: 0
	}
	param {
		lr_mult: 0
		decay_mult: 0
	}
	param {
		lr_mult: 0
		decay_mult: 0
	}
	bn_param {
		scale_filler {
			type: "constant"
			value: 1
		}
		shift_filler {
			type: "constant"
			value: 0
		}
		moving_average: true
		decay: 0.05
	}
}

layer {
	bottom: "res1b"
	top: "res1b"
	name: "res1b_relu"
	type: "ReLU"
}

layer {
	bottom: "res8c2"
	bottom: "res1b"
	top: "res8d"
	name: "res8d_concat"
	type: "Concat"
	concat_param {
		axis: 1
	}
}

layer {
	bottom: "res8d"
	top: "res9a"
	name: "res9a_conv"
	type: "ConvolutionData"
	param {
		lr_mult: 1
		decay_mult: 1
	}
	param {
		lr_mult: 2
		decay_mult: 0
	}
	convolution_param {
		num_output: 64
		kernel_size: 3
		pad: 1
		stride: 1
		weight_filler {
			type: "guassian"
			std: 0.01
		}
		bias_filler {
			type: "constant"
		}
	}
}

layer {
	bottom: "res9a"
	top: "res9a"
	name: "res9a_bn"
	type: "BNData"
	param {
		lr_mult: 1
		decay_mult: 0
	}
	param {
		lr_mult: 1
		decay_mult: 0
	}
	param {
		lr_mult: 0
		decay_mult: 0
	}
	param {
		lr_mult: 0
		decay_mult: 0
	}
	bn_param {
		scale_filler {
			type: "constant"
			value: 1
		}
		shift_filler {
			type: "constant"
			value: 0
		}
		moving_average: true
		decay: 0.05
	}
}

layer {
	bottom: "res9a"
	top: "res9a"
	name: "res9a_relu"
	type: "ReLU"
}

layer {
	bottom: "res9a"
	top: "res9b"
	name: "res9b_conv"
	type: "ConvolutionData"
	param {
		lr_mult: 1
		decay_mult: 1
	}
	param {
		lr_mult: 2
		decay_mult: 0
	}
	convolution_param {
		num_output: 256
		kernel_size: 1
		pad: 0
		stride: 1
		weight_filler {
			type: "guassian"
			std: 0.01
		}
		bias_filler {
			type: "constant"
		}
	}
}

layer {
	bottom: "res9b"
	top: "res9b"
	name: "res9b_bn"
	type: "BNData"
	param {
		lr_mult: 1
		decay_mult: 0
	}
	param {
		lr_mult: 1
		decay_mult: 0
	}
	param {
		lr_mult: 0
		decay_mult: 0
	}
	param {
		lr_mult: 0
		decay_mult: 0
	}
	bn_param {
		scale_filler {
			type: "constant"
			value: 1
		}
		shift_filler {
			type: "constant"
			value: 0
		}
		moving_average: true
		decay: 0.05
	}
}

layer {
	bottom: "res9b"
	top: "res9b"
	name: "res9b_relu"
	type: "ReLU"
}

layer {
	bottom: "res9b"
	top: "res9c"
	name: "res9c_conv"
	type: "ConvolutionData"
	param {
		lr_mult: 1
		decay_mult: 1
	}
	param {
		lr_mult: 2
		decay_mult: 0
	}
	convolution_param {
		num_output: 1
		kernel_size: 1
		pad: 0
		stride: 1
		weight_filler {
			type: "guassian"
			std: 0.01
		}
		bias_filler {
			type: "constant"
		}
	}
}

layer {
	bottom: "res9c"
	top: "heatmap"
	name: "heatmap_relu"
	type: "ReLU"
}

layer {
	bottom: "heatmap"
	bottom: "label3"	
	top: "loss"
	type: "EuclideanLoss"
	name: "loss"
}



layer {
  name: "data"
  type: "HDF5Data"
  top: "data"
  top: "label"
  include {
    phase: TRAIN
  }
  hdf5_data_param {
    source: "/mnt/lustre/duanhaodong/dataset/shanghai/part_A_final/train_data/train/train.txt"
    batch_size: 16
  }
}


layer {
    name: "reshape"
    type: "Reshape"
    bottom: "label"
    top: "label3"
    reshape_param {
        shape {
                dim: 16  # copy the dimension from below
                dim: 1
                dim: 112
                dim: 112 # infer it from the other dimensions
        }
    }
}




layer {
	bottom: "data"
	top: "conv1"
	name: "conv1_conv"
	type: "ConvolutionData"
	param {
		lr_mult: 1
		decay_mult: 1
	}
	param {
		lr_mult: 2
		decay_mult: 0
	}
	convolution_param {
		num_output: 64
		kernel_size: 7
		pad: 3
		stride: 2
		weight_filler {
			type: "guassian"
			std: 0.01
		}
		bias_filler {
			type: "constant"
		}
	}
}

layer {
	bottom: "conv1"
	top: "conv1"
	name: "conv1_bn"
	type: "BNData"
	param {
		lr_mult: 1
		decay_mult: 0
	}
	param {
		lr_mult: 1
		decay_mult: 0
	}
	param {
		lr_mult: 0
		decay_mult: 0
	}
	param {
		lr_mult: 0
		decay_mult: 0
	}
	bn_param {
		scale_filler {
			type: "constant"
			value: 1
		}
		shift_filler {
			type: "constant"
			value: 0
		}
		moving_average: true
		decay: 0.05
	}
}

layer {
	bottom: "conv1"
	top: "conv1"
	name: "conv1_relu"
	type: "ReLU"
}

layer {
	bottom: "conv1"
	top: "pool1"
	name: "pool1_conv"
	type: "Pooling"
	pooling_param {
		pool: MAX
		kernel_size: 3
		stride: 2
	}
}
layer {
	bottom: "pool1"
	top: "res2a_branch2a"
	name: "res2a_branch2a_conv"
	type: "ConvolutionData"
	param {
		lr_mult: 1
		decay_mult: 1
	}
	param {
		lr_mult: 2
		decay_mult: 0
	}
	convolution_param {
		num_output: 64
		kernel_size: 3
		pad: 1
		stride: 1
		weight_filler {
			type: "guassian"
			std: 0.01
		}
		bias_filler {
			type: "constant"
		}
	}
}

layer {
	bottom: "res2a_branch2a"
	top: "res2a_branch2a"
	name: "res2a_branch2a_bn"
	type: "BNData"
	param {
		lr_mult: 1
		decay_mult: 0
	}
	param {
		lr_mult: 1
		decay_mult: 0
	}
	param {
		lr_mult: 0
		decay_mult: 0
	}
	param {
		lr_mult: 0
		decay_mult: 0
	}
	bn_param {
		scale_filler {
			type: "constant"
			value: 1
		}
		shift_filler {
			type: "constant"
			value: 0
		}
		moving_average: true
		decay: 0.05
	}
}

layer {
	bottom: "res2a_branch2a"
	top: "res2a_branch2a"
	name: "res2a_branch2a_relu"
	type: "ReLU"
}

layer {
	bottom: "res2a_branch2a"
	top: "res2a_branch2b"
	name: "res2a_branch2b_conv"
	type: "ConvolutionData"
	param {
		lr_mult: 1
		decay_mult: 1
	}
	param {
		lr_mult: 2
		decay_mult: 0
	}
	convolution_param {
		num_output: 64
		kernel_size: 3
		pad: 1
		stride: 1
		weight_filler {
			type: "guassian"
			std: 0.01
		}
		bias_filler {
			type: "constant"
		}
	}
}

layer {
	bottom: "res2a_branch2b"
	top: "res2a_branch2b"
	name: "res2a_branch2b_bn"
	type: "BNData"
	param {
		lr_mult: 1
		decay_mult: 0
	}
	param {
		lr_mult: 1
		decay_mult: 0
	}
	param {
		lr_mult: 0
		decay_mult: 0
	}
	param {
		lr_mult: 0
		decay_mult: 0
	}
	bn_param {
		scale_filler {
			type: "constant"
			value: 1
		}
		shift_filler {
			type: "constant"
			value: 0
		}
		moving_average: true
		decay: 0.05
	}
}

layer {
	bottom: "pool1"
	top: "res2a_branch1"
	name: "res2a_branch1_conv"
	type: "ConvolutionData"
	param {
		lr_mult: 1
		decay_mult: 1
	}
	param {
		lr_mult: 2
		decay_mult: 0
	}
	convolution_param {
		num_output: 64
		kernel_size: 1
		pad: 0
		stride: 1
		weight_filler {
			type: "guassian"
			std: 0.01
		}
		bias_filler {
			type: "constant"
		}
	}
}

layer {
	bottom: "res2a_branch1"
	top: "res2a_branch1"
	name: "res2a_branch1_bn"
	type: "BNData"
	param {
		lr_mult: 1
		decay_mult: 0
	}
	param {
		lr_mult: 1
		decay_mult: 0
	}
	param {
		lr_mult: 0
		decay_mult: 0
	}
	param {
		lr_mult: 0
		decay_mult: 0
	}
	bn_param {
		scale_filler {
			type: "constant"
			value: 1
		}
		shift_filler {
			type: "constant"
			value: 0
		}
		moving_average: true
		decay: 0.05
	}
}

layer {
	bottom: "res2a_branch1"
	bottom: "res2a_branch2b"
	top: "res2a"
	name: "res2a_eltwise"
	type: "Eltwise"
	eltwise_param {
		operation: SUM
	}
}

layer {
	bottom: "res2a"
	top: "res2a"
	name: "res2a_relu"
	type: "ReLU"
}

layer {
	bottom: "res2a"
	top: "res2b_branch2a"
	name: "res2b_branch2a_conv"
	type: "ConvolutionData"
	param {
		lr_mult: 1
		decay_mult: 1
	}
	param {
		lr_mult: 2
		decay_mult: 0
	}
	convolution_param {
		num_output: 64
		kernel_size: 3
		pad: 1
		stride: 1
		weight_filler {
			type: "guassian"
			std: 0.01
		}
		bias_filler {
			type: "constant"
		}
	}
}

layer {
	bottom: "res2b_branch2a"
	top: "res2b_branch2a"
	name: "res2b_branch2a_bn"
	type: "BNData"
	param {
		lr_mult: 1
		decay_mult: 0
	}
	param {
		lr_mult: 1
		decay_mult: 0
	}
	param {
		lr_mult: 0
		decay_mult: 0
	}
	param {
		lr_mult: 0
		decay_mult: 0
	}
	bn_param {
		scale_filler {
			type: "constant"
			value: 1
		}
		shift_filler {
			type: "constant"
			value: 0
		}
		moving_average: true
		decay: 0.05
	}
}

layer {
	bottom: "res2b_branch2a"
	top: "res2b_branch2a"
	name: "res2b_branch2a_relu"
	type: "ReLU"
}

layer {
	bottom: "res2b_branch2a"
	top: "res2b_branch2b"
	name: "res2b_branch2b_conv"
	type: "ConvolutionData"
	param {
		lr_mult: 1
		decay_mult: 1
	}
	param {
		lr_mult: 2
		decay_mult: 0
	}
	convolution_param {
		num_output: 64
		kernel_size: 3
		pad: 1
		stride: 1
		weight_filler {
			type: "guassian"
			std: 0.01
		}
		bias_filler {
			type: "constant"
		}
	}
}

layer {
	bottom: "res2b_branch2b"
	top: "res2b_branch2b"
	name: "res2b_branch2b_bn"
	type: "BNData"
	param {
		lr_mult: 1
		decay_mult: 0
	}
	param {
		lr_mult: 1
		decay_mult: 0
	}
	param {
		lr_mult: 0
		decay_mult: 0
	}
	param {
		lr_mult: 0
		decay_mult: 0
	}
	bn_param {
		scale_filler {
			type: "constant"
			value: 1
		}
		shift_filler {
			type: "constant"
			value: 0
		}
		moving_average: true
		decay: 0.05
	}
}

layer {
	bottom: "res2a"
	bottom: "res2b_branch2b"
	top: "res2b"
	name: "res2b_eltwise"
	type: "Eltwise"
	eltwise_param {
		operation: SUM
	}
}

layer {
	bottom: "res2b"
	top: "res2b"
	name: "res2b_relu"
	type: "ReLU"
}

layer {
	bottom: "res2b"
	top: "res3a_branch2a"
	name: "res3a_branch2a_conv"
	type: "ConvolutionData"
	param {
		lr_mult: 1
		decay_mult: 1
	}
	param {
		lr_mult: 2
		decay_mult: 0
	}
	convolution_param {
		num_output: 128
		kernel_size: 3
		pad: 1
		stride: 2
		weight_filler {
			type: "guassian"
			std: 0.01
		}
		bias_filler {
			type: "constant"
		}
	}
}

layer {
	bottom: "res3a_branch2a"
	top: "res3a_branch2a"
	name: "res3a_branch2a_bn"
	type: "BNData"
	param {
		lr_mult: 1
		decay_mult: 0
	}
	param {
		lr_mult: 1
		decay_mult: 0
	}
	param {
		lr_mult: 0
		decay_mult: 0
	}
	param {
		lr_mult: 0
		decay_mult: 0
	}
	bn_param {
		scale_filler {
			type: "constant"
			value: 1
		}
		shift_filler {
			type: "constant"
			value: 0
		}
		moving_average: true
		decay: 0.05
	}
}

layer {
	bottom: "res3a_branch2a"
	top: "res3a_branch2a"
	name: "res3a_branch2a_relu"
	type: "ReLU"
}

layer {
	bottom: "res3a_branch2a"
	top: "res3a_branch2b"
	name: "res3a_branch2b_conv"
	type: "ConvolutionData"
	param {
		lr_mult: 1
		decay_mult: 1
	}
	param {
		lr_mult: 2
		decay_mult: 0
	}
	convolution_param {
		num_output: 128
		kernel_size: 3
		pad: 1
		stride: 1
		weight_filler {
			type: "guassian"
			std: 0.01
		}
		bias_filler {
			type: "constant"
		}
	}
}

layer {
	bottom: "res3a_branch2b"
	top: "res3a_branch2b"
	name: "res3a_branch2b_bn"
	type: "BNData"
	param {
		lr_mult: 1
		decay_mult: 0
	}
	param {
		lr_mult: 1
		decay_mult: 0
	}
	param {
		lr_mult: 0
		decay_mult: 0
	}
	param {
		lr_mult: 0
		decay_mult: 0
	}
	bn_param {
		scale_filler {
			type: "constant"
			value: 1
		}
		shift_filler {
			type: "constant"
			value: 0
		}
		moving_average: true
		decay: 0.05
	}
}

layer {
	bottom: "res2b"
	top: "res3a_branch1"
	name: "res3a_branch1_conv"
	type: "ConvolutionData"
	param {
		lr_mult: 1
		decay_mult: 1
	}
	param {
		lr_mult: 2
		decay_mult: 0
	}
	convolution_param {
		num_output: 128
		kernel_size: 1
		pad: 0
		stride: 2
		weight_filler {
			type: "guassian"
			std: 0.01
		}
		bias_filler {
			type: "constant"
		}
	}
}

layer {
	bottom: "res3a_branch1"
	top: "res3a_branch1"
	name: "res3a_branch1_bn"
	type: "BNData"
	param {
		lr_mult: 1
		decay_mult: 0
	}
	param {
		lr_mult: 1
		decay_mult: 0
	}
	param {
		lr_mult: 0
		decay_mult: 0
	}
	param {
		lr_mult: 0
		decay_mult: 0
	}
	bn_param {
		scale_filler {
			type: "constant"
			value: 1
		}
		shift_filler {
			type: "constant"
			value: 0
		}
		moving_average: true
		decay: 0.05
	}
}

layer {
	bottom: "res3a_branch1"
	bottom: "res3a_branch2b"
	top: "res3a"
	name: "res3a_eltwise"
	type: "Eltwise"
	eltwise_param {
		operation: SUM
	}
}

layer {
	bottom: "res3a"
	top: "res3a"
	name: "res3a_relu"
	type: "ReLU"
}

layer {
	bottom: "res3a"
	top: "res3b_branch2a"
	name: "res3b_branch2a_conv"
	type: "ConvolutionData"
	param {
		lr_mult: 1
		decay_mult: 1
	}
	param {
		lr_mult: 2
		decay_mult: 0
	}
	convolution_param {
		num_output: 128
		kernel_size: 3
		pad: 1
		stride: 1
		weight_filler {
			type: "guassian"
			std: 0.01
		}
		bias_filler {
			type: "constant"
		}
	}
}

layer {
	bottom: "res3b_branch2a"
	top: "res3b_branch2a"
	name: "res3b_branch2a_bn"
	type: "BNData"
	param {
		lr_mult: 1
		decay_mult: 0
	}
	param {
		lr_mult: 1
		decay_mult: 0
	}
	param {
		lr_mult: 0
		decay_mult: 0
	}
	param {
		lr_mult: 0
		decay_mult: 0
	}
	bn_param {
		scale_filler {
			type: "constant"
			value: 1
		}
		shift_filler {
			type: "constant"
			value: 0
		}
		moving_average: true
		decay: 0.05
	}
}

layer {
	bottom: "res3b_branch2a"
	top: "res3b_branch2a"
	name: "res3b_branch2a_relu"
	type: "ReLU"
}

layer {
	bottom: "res3b_branch2a"
	top: "res3b_branch2b"
	name: "res3b_branch2b_conv"
	type: "ConvolutionData"
	param {
		lr_mult: 1
		decay_mult: 1
	}
	param {
		lr_mult: 2
		decay_mult: 0
	}
	convolution_param {
		num_output: 128
		kernel_size: 3
		pad: 1
		stride: 1
		weight_filler {
			type: "guassian"
			std: 0.01
		}
		bias_filler {
			type: "constant"
		}
	}
}

layer {
	bottom: "res3b_branch2b"
	top: "res3b_branch2b"
	name: "res3b_branch2b_bn"
	type: "BNData"
	param {
		lr_mult: 1
		decay_mult: 0
	}
	param {
		lr_mult: 1
		decay_mult: 0
	}
	param {
		lr_mult: 0
		decay_mult: 0
	}
	param {
		lr_mult: 0
		decay_mult: 0
	}
	bn_param {
		scale_filler {
			type: "constant"
			value: 1
		}
		shift_filler {
			type: "constant"
			value: 0
		}
		moving_average: true
		decay: 0.05
	}
}

layer {
	bottom: "res3a"
	bottom: "res3b_branch2b"
	top: "res3b"
	name: "res3b_eltwise"
	type: "Eltwise"
	eltwise_param {
		operation: SUM
	}
}

layer {
	bottom: "res3b"
	top: "res3b"
	name: "res3b_relu"
	type: "ReLU"
}

layer {
	bottom: "res3b"
	top: "res4a_branch2a"
	name: "res4a_branch2a_conv"
	type: "ConvolutionData"
	param {
		lr_mult: 1
		decay_mult: 1
	}
	param {
		lr_mult: 2
		decay_mult: 0
	}
	convolution_param {
		num_output: 256
		kernel_size: 3
		pad: 1
		stride: 2
		weight_filler {
			type: "guassian"
			std: 0.01
		}
		bias_filler {
			type: "constant"
		}
	}
}

layer {
	bottom: "res4a_branch2a"
	top: "res4a_branch2a"
	name: "res4a_branch2a_bn"
	type: "BNData"
	param {
		lr_mult: 1
		decay_mult: 0
	}
	param {
		lr_mult: 1
		decay_mult: 0
	}
	param {
		lr_mult: 0
		decay_mult: 0
	}
	param {
		lr_mult: 0
		decay_mult: 0
	}
	bn_param {
		scale_filler {
			type: "constant"
			value: 1
		}
		shift_filler {
			type: "constant"
			value: 0
		}
		moving_average: true
		decay: 0.05
	}
}

layer {
	bottom: "res4a_branch2a"
	top: "res4a_branch2a"
	name: "res4a_branch2a_relu"
	type: "ReLU"
}

layer {
	bottom: "res4a_branch2a"
	top: "res4a_branch2b"
	name: "res4a_branch2b_conv"
	type: "ConvolutionData"
	param {
		lr_mult: 1
		decay_mult: 1
	}

	param {
		lr_mult: 2
		decay_mult: 0
	}
	convolution_param {
		num_output: 256
		kernel_size: 3
		pad: 1
		stride: 1
		weight_filler {
			type: "guassian"
			std: 0.01
		}
		bias_filler {
			type: "constant"
		}
	}
}

layer {
	bottom: "res4a_branch2b"
	top: "res4a_branch2b"
	name: "res4a_branch2b_bn"
	type: "BNData"
	param {
		lr_mult: 1
		decay_mult: 0
	}
	param {
		lr_mult: 1
		decay_mult: 0
	}
	param {
		lr_mult: 0
		decay_mult: 0
	}
	param {
		lr_mult: 0
		decay_mult: 0
	}
	bn_param {
		scale_filler {
			type: "constant"
			value: 1
		}
		shift_filler {
			type: "constant"
			value: 0
		}
		moving_average: true
		decay: 0.05
	}
}

layer {
	bottom: "res3b"
	top: "res4a_branch1"
	name: "res4a_branch1_conv"
	type: "ConvolutionData"
	param {
		lr_mult: 1
		decay_mult: 1
	}
	param {
		lr_mult: 2
		decay_mult: 0
	}
	convolution_param {
		num_output: 256
		kernel_size: 1
		pad: 0
		stride: 2
		weight_filler {
			type: "guassian"
			std: 0.01
		}
		bias_filler {
			type: "constant"
		}
	}
}

layer {
	bottom: "res4a_branch1"
	top: "res4a_branch1"
	name: "res4a_branch1_bn"
	type: "BNData"
	param {
		lr_mult: 1
		decay_mult: 0
	}
	param {
		lr_mult: 1
		decay_mult: 0
	}
	param {
		lr_mult: 0
		decay_mult: 0
	}
	param {
		lr_mult: 0
		decay_mult: 0
	}
	bn_param {
		scale_filler {
			type: "constant"
			value: 1
		}
		shift_filler {
			type: "constant"
			value: 0
		}
		moving_average: true
		decay: 0.05
	}
}

layer {
	bottom: "res4a_branch1"
	bottom: "res4a_branch2b"
	top: "res4a"
	name: "res4a_eltwise"
	type: "Eltwise"
	eltwise_param {
		operation: SUM
	}
}

layer {
	bottom: "res4a"
	top: "res4a"
	name: "res4a_relu"
	type: "ReLU"
}

layer {
	bottom: "res4a"
	top: "res4b_branch2a"
	name: "res4b_branch2a_conv"
	type: "ConvolutionData"
	param {
		lr_mult: 1
		decay_mult: 1
	}
	param {
		lr_mult: 2
		decay_mult: 0
	}
	convolution_param {
		num_output: 256
		kernel_size: 3
		pad: 1
		stride: 1
		weight_filler {
			type: "guassian"
			std: 0.01
		}
		bias_filler {
			type: "constant"
		}
	}
}

layer {
	bottom: "res4b_branch2a"
	top: "res4b_branch2a"
	name: "res4b_branch2a_bn"
	type: "BNData"
	param {
		lr_mult: 1
		decay_mult: 0
	}
	param {
		lr_mult: 1
		decay_mult: 0
	}
	param {
		lr_mult: 0
		decay_mult: 0
	}
	param {
		lr_mult: 0
		decay_mult: 0
	}
	bn_param {
		scale_filler {
			type: "constant"
			value: 1
		}
		shift_filler {
			type: "constant"
			value: 0
		}
		moving_average: true
		decay: 0.05
	}
}

layer {
	bottom: "res4b_branch2a"
	top: "res4b_branch2a"
	name: "res4b_branch2a_relu"
	type: "ReLU"
}

layer {
	bottom: "res4b_branch2a"
	top: "res4b_branch2b"
	name: "res4b_branch2b_conv"
	type: "ConvolutionData"
	param {
		lr_mult: 1
		decay_mult: 1
	}
	param {
		lr_mult: 2
		decay_mult: 0
	}
	convolution_param {
		num_output: 256
		kernel_size: 3
		pad: 1
		stride: 1
		weight_filler {
			type: "guassian"
			std: 0.01
		}
		bias_filler {
			type: "constant"
		}
	}
}

layer {
	bottom: "res4b_branch2b"
	top: "res4b_branch2b"
	name: "res4b_branch2b_bn"
	type: "BNData"
	param {
		lr_mult: 1
		decay_mult: 0
	}
	param {
		lr_mult: 1
		decay_mult: 0
	}
	param {
		lr_mult: 0
		decay_mult: 0
	}
	param {
		lr_mult: 0
		decay_mult: 0
	}
	bn_param {
		scale_filler {
			type: "constant"
			value: 1
		}
		shift_filler {
			type: "constant"
			value: 0
		}
		moving_average: true
		decay: 0.05
	}
}

layer {
	bottom: "res4a"
	bottom: "res4b_branch2b"
	top: "res4b"
	name: "res4b_eltwise"
	type: "Eltwise"
	eltwise_param {
		operation: SUM
	}
}

layer {
	bottom: "res4b"
	top: "res4b"
	name: "res4b_relu"
	type: "ReLU"
}

layer {
	bottom: "res4b"
	top: "res5a_branch2a"
	name: "res5a_branch2a_conv"
	type: "ConvolutionData"
	param {
		lr_mult: 1
		decay_mult: 1
	}
	param {
		lr_mult: 2
		decay_mult: 0
	}
	convolution_param {
		num_output: 512
		kernel_size: 3
		pad: 1
		stride: 2
		weight_filler {
			type: "guassian"
			std: 0.01
		}
		bias_filler {
			type: "constant"
		}
	}
}

layer {
	bottom: "res5a_branch2a"
	top: "res5a_branch2a"
	name: "res5a_branch2a_bn"
	type: "BNData"
	param {
		lr_mult: 1
		decay_mult: 0
	}
	param {
		lr_mult: 1
		decay_mult: 0
	}
	param {
		lr_mult: 0
		decay_mult: 0
	}
	param {
		lr_mult: 0
		decay_mult: 0
	}
	bn_param {
		scale_filler {
			type: "constant"
			value: 1
		}
		shift_filler {
			type: "constant"
			value: 0
		}
		moving_average: true
		decay: 0.05
	}
}

layer {
	bottom: "res5a_branch2a"
	top: "res5a_branch2a"
	name: "res5a_branch2a_relu"
	type: "ReLU"
}

layer {
	bottom: "res5a_branch2a"
	top: "res5a_branch2b"
	name: "res5a_branch2b_conv"
	type: "ConvolutionData"
	param {
		lr_mult: 1
		decay_mult: 1
	}
	param {
		lr_mult: 2
		decay_mult: 0
	}
	convolution_param {
		num_output: 512
		kernel_size: 3
		pad: 1
		stride: 1
		weight_filler {
			type: "guassian"
			std: 0.01
		}
		bias_filler {
			type: "constant"
		}
	}
}

layer {
	bottom: "res5a_branch2b"
	top: "res5a_branch2b"
	name: "res5a_branch2b_bn"
	type: "BNData"
	param {
		lr_mult: 1
		decay_mult: 0
	}
	param {
		lr_mult: 1
		decay_mult: 0
	}
	param {
		lr_mult: 0
		decay_mult: 0
	}
	param {
		lr_mult: 0
		decay_mult: 0
	}
	bn_param {
		scale_filler {
			type: "constant"
			value: 1
		}
		shift_filler {
			type: "constant"
			value: 0
		}
		moving_average: true
		decay: 0.05
	}
}

layer {
	bottom: "res4b"
	top: "res5a_branch1"
	name: "res5a_branch1_conv"
	type: "ConvolutionData"
	param {
		lr_mult: 1
		decay_mult: 1
	}
	param {
		lr_mult: 2
		decay_mult: 0
	}
	convolution_param {
		num_output: 512
		kernel_size: 1
		pad: 0
		stride: 2
		weight_filler {
			type: "guassian"
			std: 0.01
		}
		bias_filler {
			type: "constant"
		}
	}
}

layer {
	bottom: "res5a_branch1"
	top: "res5a_branch1"
	name: "res5a_branch1_bn"
	type: "BNData"
	param {
		lr_mult: 1
		decay_mult: 0
	}
	param {
		lr_mult: 1
		decay_mult: 0
	}
	param {
		lr_mult: 0
		decay_mult: 0
	}
	param {
		lr_mult: 0
		decay_mult: 0
	}
	bn_param {
		scale_filler {
			type: "constant"
			value: 1
		}
		shift_filler {
			type: "constant"
			value: 0
		}
		moving_average: true
		decay: 0.05
	}
}

layer {
	bottom: "res5a_branch1"
	bottom: "res5a_branch2b"
	top: "res5a"
	name: "res5a_eltwise"
	type: "Eltwise"
	eltwise_param {
		operation: SUM
	}
}

layer {
	bottom: "res5a"
	top: "res5a"
	name: "res5a_relu"
	type: "ReLU"
}

layer {
	bottom: "res5a"
	top: "res5b_branch2a"
	name: "res5b_branch2a_conv"
	type: "ConvolutionData"
	param {
		lr_mult: 1
		decay_mult: 1
	}
	param {
		lr_mult: 2
		decay_mult: 0
	}
	convolution_param {
		num_output: 512
		kernel_size: 3
		pad: 1
		stride: 1
		weight_filler {
			type: "guassian"
			std: 0.01
		}
		bias_filler {
			type: "constant"
		}
	}
}

layer {
	bottom: "res5b_branch2a"
	top: "res5b_branch2a"
	name: "res5b_branch2a_bn"
	type: "BNData"
	param {
		lr_mult: 1
		decay_mult: 0
	}
	param {
		lr_mult: 1
		decay_mult: 0
	}
	param {
		lr_mult: 0
		decay_mult: 0
	}
	param {
		lr_mult: 0
		decay_mult: 0
	}
	bn_param {
		scale_filler {
			type: "constant"
			value: 1
		}
		shift_filler {
			type: "constant"
			value: 0
		}
		moving_average: true
		decay: 0.05
	}
}

layer {
	bottom: "res5b_branch2a"
	top: "res5b_branch2a"
	name: "res5b_branch2a_relu"
	type: "ReLU"
}

layer {
	bottom: "res5b_branch2a"
	top: "res5b_branch2b"
	name: "res5b_branch2b_conv"
	type: "ConvolutionData"
	param {
		lr_mult: 1
		decay_mult: 1
	}
	param {
		lr_mult: 2
		decay_mult: 0
	}
	convolution_param {
		num_output: 512
		kernel_size: 3
		pad: 1
		stride: 1
		weight_filler {
			type: "guassian"
			std: 0.01
		}
		bias_filler {
			type: "constant"
		}
	}
}

layer {
	bottom: "res5b_branch2b"
	top: "res5b_branch2b"
	name: "res5b_branch2b_bn"
	type: "BNData"
	param {
		lr_mult: 1
		decay_mult: 0
	}
	param {
		lr_mult: 1
		decay_mult: 0
	}
	param {
		lr_mult: 0
		decay_mult: 0
	}
	param {
		lr_mult: 0
		decay_mult: 0
	}
	bn_param {
		scale_filler {
			type: "constant"
			value: 1
		}
		shift_filler {
			type: "constant"
			value: 0
		}
		moving_average: true
		decay: 0.05
	}
}

layer {
	bottom: "res5a"
	bottom: "res5b_branch2b"
	top: "res5b"
	name: "res5b_eltwise"
	type: "Eltwise"
	eltwise_param {
		operation: SUM
	}
}

layer {
	bottom: "res5b"
	top: "res5b"
	name: "res5b_relu"
	type: "ReLU"
}

layer {
	bottom: "res5b"
	top: "res5c"
	name: "res5c_conv"
	type: "ConvolutionData"
	param {
		lr_mult: 1
		decay_mult: 1
	}
	param {
		lr_mult: 2
		decay_mult: 0
	}
	convolution_param {
		num_output: 256
		kernel_size: 1
		pad: 0
		stride: 1
		weight_filler {
			type: "guassian"
			std: 0.01
		}
		bias_filler {
			type: "constant"
		}
	}
}

layer {
	bottom: "res5c"
	top: "res5c"
	name: "res5c_bn"
	type: "BNData"
	param {
		lr_mult: 1
		decay_mult: 0
	}
	param {
		lr_mult: 1
		decay_mult: 0
	}
	param {
		lr_mult: 0
		decay_mult: 0
	}
	param {
		lr_mult: 0
		decay_mult: 0
	}
	bn_param {
		scale_filler {
			type: "constant"
			value: 1
		}
		shift_filler {
			type: "constant"
			value: 0
		}
		moving_average: true
		decay: 0.05
	}
}

layer {
	bottom: "res5c"
	top: "res5c"
	name: "res5c_relu"
	type: "ReLU"
}

layer {
	bottom: "res5c"
	top: "res5c2"
	name: "res5c2_interp"
	type: "Interp"
	interp_param {
		zoom_factor: 2
	}
}

layer {
	bottom: "res5c2"
	bottom: "res4b"
	top: "res5d"
	name: "res5d_concat"
	type: "Concat"
	concat_param {
		axis: 1
	}
}

layer {
	bottom: "res5d"
	top: "res6a_branch2a"
	name: "res6a_branch2a_conv"
	type: "ConvolutionData"
	param {
		lr_mult: 1
		decay_mult: 1
	}
	param {
		lr_mult: 2
		decay_mult: 0
	}
	convolution_param {
		num_output: 256
		kernel_size: 3
		pad: 1
		stride: 1
		weight_filler {
			type: "guassian"
			std: 0.01
		}
		bias_filler {
			type: "constant"
		}
	}
}

layer {
	bottom: "res6a_branch2a"
	top: "res6a_branch2a"
	name: "res6a_branch2a_bn"
	type: "BNData"
	param {
		lr_mult: 1
		decay_mult: 0
	}
	param {
		lr_mult: 1
		decay_mult: 0
	}
	param {
		lr_mult: 0
		decay_mult: 0
	}
	param {
		lr_mult: 0
		decay_mult: 0
	}
	bn_param {
		scale_filler {
			type: "constant"
			value: 1
		}
		shift_filler {
			type: "constant"
			value: 0
		}
		moving_average: true
		decay: 0.05
	}
}

layer {
	bottom: "res6a_branch2a"
	top: "res6a_branch2a"
	name: "res6a_branch2a_relu"
	type: "ReLU"
}

layer {
	bottom: "res6a_branch2a"
	top: "res6a_branch2b"
	name: "res6a_branch2b_conv"
	type: "ConvolutionData"
	param {
		lr_mult: 1
		decay_mult: 1
	}
	param {
		lr_mult: 2
		decay_mult: 0
	}
	convolution_param {
		num_output: 256
		kernel_size: 3
		pad: 1
		stride: 1
		weight_filler {
			type: "guassian"
			std: 0.01
		}
		bias_filler {
			type: "constant"
		}
	}
}

layer {
	bottom: "res6a_branch2b"
	top: "res6a_branch2b"
	name: "res6a_branch2b_bn"
	type: "BNData"
	param {
		lr_mult: 1
		decay_mult: 0
	}
	param {
		lr_mult: 1
		decay_mult: 0
	}
	param {
		lr_mult: 0
		decay_mult: 0
	}
	param {
		lr_mult: 0
		decay_mult: 0
	}
	bn_param {
		scale_filler {
			type: "constant"
			value: 1
		}
		shift_filler {
			type: "constant"
			value: 0
		}
		moving_average: true
		decay: 0.05
	}
}

layer {
	bottom: "res5d"
	top: "res6a_branch1"
	name: "res6a_branch1_conv"
	type: "ConvolutionData"
	param {
		lr_mult: 1
		decay_mult: 1
	}
	param {
		lr_mult: 2
		decay_mult: 0
	}
	convolution_param {
		num_output: 256
		kernel_size: 1
		pad: 0
		stride: 1
		weight_filler {
			type: "guassian"
			std: 0.01
		}
		bias_filler {
			type: "constant"
		}
	}
}

layer {
	bottom: "res6a_branch1"
	top: "res6a_branch1"
	name: "res6a_branch1_bn"
	type: "BNData"
	param {
		lr_mult: 1
		decay_mult: 0
	}
	param {
		lr_mult: 1
		decay_mult: 0
	}
	param {
		lr_mult: 0
		decay_mult: 0
	}
	param {
		lr_mult: 0
		decay_mult: 0
	}
	bn_param {
		scale_filler {
			type: "constant"
			value: 1
		}
		shift_filler {
			type: "constant"
			value: 0
		}
		moving_average: true
		decay: 0.05
	}
}

layer {
	bottom: "res6a_branch1"
	bottom: "res6a_branch2b"
	top: "res6a"
	name: "res6a_eltwise"
	type: "Eltwise"
	eltwise_param {
		operation: SUM
	}
}

layer {
	bottom: "res6a"
	top: "res6a"
	name: "res6a_relu"
	type: "ReLU"
}

layer {
	bottom: "res6a"
	top: "res6b_branch2a"
	name: "res6b_branch2a_conv"
	type: "ConvolutionData"
	param {
		lr_mult: 1
		decay_mult: 1
	}
	param {
		lr_mult: 2
		decay_mult: 0
	}
	convolution_param {
		num_output: 256
		kernel_size: 3
		pad: 1
		stride: 1
		weight_filler {
			type: "guassian"
			std: 0.01
		}
		bias_filler {
			type: "constant"
		}
	}
}

layer {
	bottom: "res6b_branch2a"
	top: "res6b_branch2a"
	name: "res6b_branch2a_bn"
	type: "BNData"
	param {
		lr_mult: 1
		decay_mult: 0
	}
	param {
		lr_mult: 1
		decay_mult: 0
	}
	param {
		lr_mult: 0
		decay_mult: 0
	}
	param {
		lr_mult: 0
		decay_mult: 0
	}
	bn_param {
		scale_filler {
			type: "constant"
			value: 1
		}
		shift_filler {
			type: "constant"
			value: 0
		}
		moving_average: true
		decay: 0.05
	}
}

layer {
	bottom: "res6b_branch2a"
	top: "res6b_branch2a"
	name: "res6b_branch2a_relu"
	type: "ReLU"
}

layer {
	bottom: "res6b_branch2a"
	top: "res6b_branch2b"
	name: "res6b_branch2b_conv"
	type: "ConvolutionData"
	param {
		lr_mult: 1
		decay_mult: 1
	}
	param {
		lr_mult: 2
		decay_mult: 0
	}
	convolution_param {
		num_output: 256
		kernel_size: 3
		pad: 1
		stride: 1
		weight_filler {
			type: "guassian"
			std: 0.01
		}
		bias_filler {
			type: "constant"
		}
	}
}

layer {
	bottom: "res6b_branch2b"
	top: "res6b_branch2b"
	name: "res6b_branch2b_bn"
	type: "BNData"
	param {
		lr_mult: 1
		decay_mult: 0
	}
	param {
		lr_mult: 1
		decay_mult: 0
	}
	param {
		lr_mult: 0
		decay_mult: 0
	}
	param {
		lr_mult: 0
		decay_mult: 0
	}
	bn_param {
		scale_filler {
			type: "constant"
			value: 1
		}
		shift_filler {
			type: "constant"
			value: 0
		}
		moving_average: true
		decay: 0.05
	}
}

layer {
	bottom: "res6a"
	bottom: "res6b_branch2b"
	top: "res6b"
	name: "res6b_eltwise"
	type: "Eltwise"
	eltwise_param {
		operation: SUM
	}
}

layer {
	bottom: "res6b"
	top: "res6b"
	name: "res6b_relu"
	type: "ReLU"
}

layer {
	bottom: "res6b"
	top: "res6c"
	name: "res6c_conv"
	type: "ConvolutionData"
	param {
		lr_mult: 1
		decay_mult: 1
	}
	param {
		lr_mult: 2
		decay_mult: 0
	}
	convolution_param {
		num_output: 128
		kernel_size: 1
		pad: 0
		stride: 1
		weight_filler {
			type: "guassian"
			std: 0.01
		}
		bias_filler {
			type: "constant"
		}
	}
}

layer {
	bottom: "res6c"
	top: "res6c"
	name: "res6c_bn"
	type: "BNData"
	param {
		lr_mult: 1
		decay_mult: 0
	}
	param {
		lr_mult: 1
		decay_mult: 0
	}
	param {
		lr_mult: 0
		decay_mult: 0
	}
	param {
		lr_mult: 0
		decay_mult: 0
	}
	bn_param {
		scale_filler {
			type: "constant"
			value: 1
		}
		shift_filler {
			type: "constant"
			value: 0
		}
		moving_average: true
		decay: 0.05
	}
}

layer {
	bottom: "res6c"
	top: "res6c"
	name: "res6c_relu"
	type: "ReLU"
}

layer {
	bottom: "res6c"
	top: "res6c2"
	name: "res6c2_interp"
	type: "Interp"
	interp_param {
		zoom_factor: 2
	}
}

layer {
	bottom: "res6c2"
	bottom: "res3b"
	top: "res6d"
	name: "res6d_concat"
	type: "Concat"
	concat_param {
		axis: 1
	}
}

layer {
	bottom: "res6d"
	top: "res7a_branch2a"
	name: "res7a_branch2a_conv"
	type: "ConvolutionData"
	param {
		lr_mult: 1
		decay_mult: 1
	}
	param {
		lr_mult: 2
		decay_mult: 0
	}
	convolution_param {
		num_output: 128
		kernel_size: 3
		pad: 1
		stride: 1
		weight_filler {
			type: "guassian"
			std: 0.01
		}
		bias_filler {
			type: "constant"
		}
	}
}

layer {
	bottom: "res7a_branch2a"
	top: "res7a_branch2a"
	name: "res7a_branch2a_bn"
	type: "BNData"
	param {
		lr_mult: 1
		decay_mult: 0
	}
	param {
		lr_mult: 1
		decay_mult: 0
	}
	param {
		lr_mult: 0
		decay_mult: 0
	}
	param {
		lr_mult: 0
		decay_mult: 0
	}
	bn_param {
		scale_filler {
			type: "constant"
			value: 1
		}
		shift_filler {
			type: "constant"
			value: 0
		}
		moving_average: true
		decay: 0.05
	}
}

layer {
	bottom: "res7a_branch2a"
	top: "res7a_branch2a"
	name: "res7a_branch2a_relu"
	type: "ReLU"
}

layer {
	bottom: "res7a_branch2a"
	top: "res7a_branch2b"
	name: "res7a_branch2b_conv"
	type: "ConvolutionData"
	param {
		lr_mult: 1
		decay_mult: 1
	}
	param {
		lr_mult: 2
		decay_mult: 0
	}
	convolution_param {
		num_output: 128
		kernel_size: 3
		pad: 1
		stride: 1
		weight_filler {
			type: "guassian"
			std: 0.01
		}
		bias_filler {
			type: "constant"
		}
	}
}

layer {
	bottom: "res7a_branch2b"
	top: "res7a_branch2b"
	name: "res7a_branch2b_bn"
	type: "BNData"
	param {
		lr_mult: 1
		decay_mult: 0
	}
	param {
		lr_mult: 1
		decay_mult: 0
	}
	param {
		lr_mult: 0
		decay_mult: 0
	}
	param {
		lr_mult: 0
		decay_mult: 0
	}
	bn_param {
		scale_filler {
			type: "constant"
			value: 1
		}
		shift_filler {
			type: "constant"
			value: 0
		}
		moving_average: true
		decay: 0.05
	}
}

layer {
	bottom: "res6d"
	top: "res7a_branch1"
	name: "res7a_branch1_conv"
	type: "ConvolutionData"
	param {
		lr_mult: 1
		decay_mult: 1
	}
	param {
		lr_mult: 2
		decay_mult: 0
	}
	convolution_param {
		num_output: 128
		kernel_size: 1
		pad: 0
		stride: 1
		weight_filler {
			type: "guassian"
			std: 0.01
		}
		bias_filler {
			type: "constant"
		}
	}
}

layer {
	bottom: "res7a_branch1"
	top: "res7a_branch1"
	name: "res7a_branch1_bn"
	type: "BNData"
	param {
		lr_mult: 1
		decay_mult: 0
	}
	param {
		lr_mult: 1
		decay_mult: 0
	}
	param {
		lr_mult: 0
		decay_mult: 0
	}
	param {
		lr_mult: 0
		decay_mult: 0
	}
	bn_param {
		scale_filler {
			type: "constant"
			value: 1
		}
		shift_filler {
			type: "constant"
			value: 0
		}
		moving_average: true
		decay: 0.05
	}
}

layer {
	bottom: "res7a_branch1"
	bottom: "res7a_branch2b"
	top: "res7a"
	name: "res7a_eltwise"
	type: "Eltwise"
	eltwise_param {
		operation: SUM
	}
}

layer {
	bottom: "res7a"
	top: "res7a"
	name: "res7a_relu"
	type: "ReLU"
}

layer {
	bottom: "res7a"
	top: "res7b_branch2a"
	name: "res7b_branch2a_conv"
	type: "ConvolutionData"
	param {
		lr_mult: 1
		decay_mult: 1
	}
	param {
		lr_mult: 2
		decay_mult: 0
	}
	convolution_param {
		num_output: 128
		kernel_size: 3
		pad: 1
		stride: 1
		weight_filler {
			type: "guassian"
			std: 0.01
		}
		bias_filler {
			type: "constant"
		}
	}
}

layer {
	bottom: "res7b_branch2a"
	top: "res7b_branch2a"
	name: "res7b_branch2a_bn"
	type: "BNData"
	param {
		lr_mult: 1
		decay_mult: 0
	}
	param {
		lr_mult: 1
		decay_mult: 0
	}
	param {
		lr_mult: 0
		decay_mult: 0
	}
	param {
		lr_mult: 0
		decay_mult: 0
	}
	bn_param {
		scale_filler {
			type: "constant"
			value: 1
		}
		shift_filler {
			type: "constant"
			value: 0
		}
		moving_average: true
		decay: 0.05
	}
}

layer {
	bottom: "res7b_branch2a"
	top: "res7b_branch2a"
	name: "res7b_branch2a_relu"
	type: "ReLU"
}

layer {
	bottom: "res7b_branch2a"
	top: "res7b_branch2b"
	name: "res7b_branch2b_conv"
	type: "ConvolutionData"
	param {
		lr_mult: 1
		decay_mult: 1
	}
	param {
		lr_mult: 2
		decay_mult: 0
	}
	convolution_param {
		num_output: 128
		kernel_size: 3
		pad: 1
		stride: 1
		weight_filler {
			type: "guassian"
			std: 0.01
		}
		bias_filler {
			type: "constant"
		}
	}
}

layer {
	bottom: "res7b_branch2b"
	top: "res7b_branch2b"
	name: "res7b_branch2b_bn"
	type: "BNData"
	param {
		lr_mult: 1
		decay_mult: 0
	}
	param {
		lr_mult: 1
		decay_mult: 0
	}
	param {
		lr_mult: 0
		decay_mult: 0
	}
	param {
		lr_mult: 0
		decay_mult: 0
	}
	bn_param {
		scale_filler {
			type: "constant"
			value: 1
		}
		shift_filler {
			type: "constant"
			value: 0
		}
		moving_average: true
		decay: 0.05
	}
}

layer {
	bottom: "res7a"
	bottom: "res7b_branch2b"
	top: "res7b"
	name: "res7b_eltwise"
	type: "Eltwise"
	eltwise_param {
		operation: SUM
	}
}

layer {
	bottom: "res7b"
	top: "res7b"
	name: "res7b_relu"
	type: "ReLU"
}

layer {
	bottom: "res7b"
	top: "res7c"
	name: "res7c_conv"
	type: "ConvolutionData"
	param {
		lr_mult: 1
		decay_mult: 1
	}
	param {
		lr_mult: 2
		decay_mult: 0
	}
	convolution_param {
		num_output: 64
		kernel_size: 1
		pad: 0
		stride: 1
		weight_filler {
			type: "guassian"
			std: 0.01
		}
		bias_filler {
			type: "constant"
		}
	}
}

layer {
	bottom: "res7c"
	top: "res7c"
	name: "res7c_bn"
	type: "BNData"
	param {
		lr_mult: 1
		decay_mult: 0
	}
	param {
		lr_mult: 1
		decay_mult: 0
	}
	param {
		lr_mult: 0
		decay_mult: 0
	}
	param {
		lr_mult: 0
		decay_mult: 0
	}
	bn_param {
		scale_filler {
			type: "constant"
			value: 1
		}
		shift_filler {
			type: "constant"
			value: 0
		}
		moving_average: true
		decay: 0.05
	}
}

layer {
	bottom: "res7c"
	top: "res7c"
	name: "res7c_relu"
	type: "ReLU"
}

layer {
	bottom: "res7c"
	top: "res7c2"
	name: "res7c2_interp"
	type: "Interp"
	interp_param {
		zoom_factor: 2
	}
}

layer {
	bottom: "res7c2"
	bottom: "res2b"
	top: "res7d"
	name: "res7d_concat"
	type: "Concat"
	concat_param {
		axis: 1
	}
}

layer {
	bottom: "res7d"
	top: "res8a_branch2a"
	name: "res8a_branch2a_conv"
	type: "ConvolutionData"
	param {
		lr_mult: 1
		decay_mult: 1
	}
	param {
		lr_mult: 2
		decay_mult: 0
	}
	convolution_param {
		num_output: 64
		kernel_size: 3
		pad: 1
		stride: 1
		weight_filler {
			type: "guassian"
			std: 0.01
		}
		bias_filler {
			type: "constant"
		}
	}
}

layer {
	bottom: "res8a_branch2a"
	top: "res8a_branch2a"
	name: "res8a_branch2a_bn"
	type: "BNData"
	param {
		lr_mult: 1
		decay_mult: 0
	}
	param {
		lr_mult: 1
		decay_mult: 0
	}
	param {
		lr_mult: 0
		decay_mult: 0
	}
	param {
		lr_mult: 0
		decay_mult: 0
	}
	bn_param {
		scale_filler {
			type: "constant"
			value: 1
		}
		shift_filler {
			type: "constant"
			value: 0
		}
		moving_average: true
		decay: 0.05
	}
}

layer {
	bottom: "res8a_branch2a"
	top: "res8a_branch2a"
	name: "res8a_branch2a_relu"
	type: "ReLU"
}

layer {
	bottom: "res8a_branch2a"
	top: "res8a_branch2b"
	name: "res8a_branch2b_conv"
	type: "ConvolutionData"
	param {
		lr_mult: 1
		decay_mult: 1
	}
	param {
		lr_mult: 2
		decay_mult: 0
	}
	convolution_param {
		num_output: 64
		kernel_size: 3
		pad: 1
		stride: 1
		weight_filler {
			type: "guassian"
			std: 0.01
		}
		bias_filler {
			type: "constant"
		}
	}
}

layer {
	bottom: "res8a_branch2b"
	top: "res8a_branch2b"
	name: "res8a_branch2b_bn"
	type: "BNData"
	param {
		lr_mult: 1
		decay_mult: 0
	}
	param {
		lr_mult: 1
		decay_mult: 0
	}
	param {
		lr_mult: 0
		decay_mult: 0
	}
	param {
		lr_mult: 0
		decay_mult: 0
	}
	bn_param {
		scale_filler {
			type: "constant"
			value: 1
		}
		shift_filler {
			type: "constant"
			value: 0
		}
		moving_average: true
		decay: 0.05
	}
}

layer {
	bottom: "res7d"
	top: "res8a_branch1"
	name: "res8a_branch1_conv"
	type: "ConvolutionData"
	param {
		lr_mult: 1
		decay_mult: 1
	}
	param {
		lr_mult: 2
		decay_mult: 0
	}
	convolution_param {
		num_output: 64
		kernel_size: 1
		pad: 0
		stride: 1
		weight_filler {
			type: "guassian"
			std: 0.01
		}
		bias_filler {
			type: "constant"
		}
	}
}

layer {
	bottom: "res8a_branch1"
	top: "res8a_branch1"
	name: "res8a_branch1_bn"
	type: "BNData"
	param {
		lr_mult: 1
		decay_mult: 0
	}
	param {
		lr_mult: 1
		decay_mult: 0
	}
	param {
		lr_mult: 0
		decay_mult: 0
	}
	param {
		lr_mult: 0
		decay_mult: 0
	}
	bn_param {
		scale_filler {
			type: "constant"
			value: 1
		}
		shift_filler {
			type: "constant"
			value: 0
		}
		moving_average: true
		decay: 0.05
	}
}

layer {
	bottom: "res8a_branch1"
	bottom: "res8a_branch2b"
	top: "res8a"
	name: "res8a_eltwise"
	type: "Eltwise"
	eltwise_param {
		operation: SUM
	}
}

layer {
	bottom: "res8a"
	top: "res8a"
	name: "res8a_relu"
	type: "ReLU"
}

layer {
	bottom: "res8a"
	top: "res8b_branch2a"
	name: "res8b_branch2a_conv"
	type: "ConvolutionData"
	param {
		lr_mult: 1
		decay_mult: 1
	}
	param {
		lr_mult: 2
		decay_mult: 0
	}
	convolution_param {
		num_output: 64
		kernel_size: 3
		pad: 1
		stride: 1
		weight_filler {
			type: "guassian"
			std: 0.01
		}
		bias_filler {
			type: "constant"
		}
	}
}

layer {
	bottom: "res8b_branch2a"
	top: "res8b_branch2a"
	name: "res8b_branch2a_bn"
	type: "BNData"
	param {
		lr_mult: 1
		decay_mult: 0
	}
	param {
		lr_mult: 1
		decay_mult: 0
	}
	param {
		lr_mult: 0
		decay_mult: 0
	}
	param {
		lr_mult: 0
		decay_mult: 0
	}
	bn_param {
		scale_filler {
			type: "constant"
			value: 1
		}
		shift_filler {
			type: "constant"
			value: 0
		}
		moving_average: true
		decay: 0.05
	}
}

layer {
	bottom: "res8b_branch2a"
	top: "res8b_branch2a"
	name: "res8b_branch2a_relu"
	type: "ReLU"
}

layer {
	bottom: "res8b_branch2a"
	top: "res8b_branch2b"
	name: "res8b_branch2b_conv"
	type: "ConvolutionData"
	param {
		lr_mult: 1
		decay_mult: 1
	}
	param {
		lr_mult: 2
		decay_mult: 0
	}
	convolution_param {
		num_output: 64
		kernel_size: 3
		pad: 1
		stride: 1
		weight_filler {
			type: "guassian"
			std: 0.01
		}
		bias_filler {
			type: "constant"
		}
	}
}

layer {
	bottom: "res8b_branch2b"
	top: "res8b_branch2b"
	name: "res8b_branch2b_bn"
	type: "BNData"
	param {
		lr_mult: 1
		decay_mult: 0
	}
	param {
		lr_mult: 1
		decay_mult: 0
	}
	param {
		lr_mult: 0
		decay_mult: 0
	}
	param {
		lr_mult: 0
		decay_mult: 0
	}
	bn_param {
		scale_filler {
			type: "constant"
			value: 1
		}
		shift_filler {
			type: "constant"
			value: 0
		}
		moving_average: true
		decay: 0.05
	}
}

layer {
	bottom: "res8a"
	bottom: "res8b_branch2b"
	top: "res8b"
	name: "res8b_eltwise"
	type: "Eltwise"
	eltwise_param {
		operation: SUM
	}
}

layer {
	bottom: "res8b"
	top: "res8b"
	name: "res8b_relu"
	type: "ReLU"
}

layer {
	bottom: "res8b"
	top: "res8c"
	name: "res8c_conv"
	type: "ConvolutionData"
	param {
		lr_mult: 1
		decay_mult: 1
	}
	param {
		lr_mult: 2
		decay_mult: 0
	}
	convolution_param {
		num_output: 32
		kernel_size: 1
		pad: 0
		stride: 1
		weight_filler {
			type: "guassian"
			std: 0.01
		}
		bias_filler {
			type: "constant"
		}
	}
}

layer {
	bottom: "res8c"
	top: "res8c"
	name: "res8c_bn"
	type: "BNData"
	param {
		lr_mult: 1
		decay_mult: 0
	}
	param {
		lr_mult: 1
		decay_mult: 0
	}
	param {
		lr_mult: 0
		decay_mult: 0
	}
	param {
		lr_mult: 0
		decay_mult: 0
	}
	bn_param {
		scale_filler {
			type: "constant"
			value: 1
		}
		shift_filler {
			type: "constant"
			value: 0
		}
		moving_average: true
		decay: 0.05
	}
}

layer {
	bottom: "res8c"
	top: "res8c"
	name: "res8c_relu"
	type: "ReLU"
}

layer {
	bottom: "res8c"
	top: "res8c2"
	name: "res8c2_interp"
	type: "Interp"
	interp_param {
		zoom_factor: 2
	}
}

layer {
	bottom: "conv1"
	top: "res1a"
	name: "res1a_conv"
	type: "ConvolutionData"
	param {
		lr_mult: 1
		decay_mult: 1
	}
	param {
		lr_mult: 2
		decay_mult: 0
	}
	convolution_param {
		num_output: 32
		kernel_size: 3
		pad: 1
		stride: 1
		weight_filler {
			type: "guassian"
			std: 0.01
		}
		bias_filler {
			type: "constant"
		}
	}
}

layer {
	bottom: "res1a"
	top: "res1a"
	name: "res1a_bn"
	type: "BNData"
	param {
		lr_mult: 1
		decay_mult: 0
	}
	param {
		lr_mult: 1
		decay_mult: 0
	}
	param {
		lr_mult: 0
		decay_mult: 0
	}
	param {
		lr_mult: 0
		decay_mult: 0
	}
	bn_param {
		scale_filler {
			type: "constant"
			value: 1
		}
		shift_filler {
			type: "constant"
			value: 0
		}
		moving_average: true
		decay: 0.05
	}
}

layer {
	bottom: "res1a"
	top: "res1a"
	name: "res1a_relu"
	type: "ReLU"
}

layer {
	bottom: "res1a"
	top: "res1b"
	name: "res1b_conv"
	type: "ConvolutionData"
	param {
		lr_mult: 1
		decay_mult: 1
	}
	param {
		lr_mult: 2
		decay_mult: 0
	}
	convolution_param {
		num_output: 32
		kernel_size: 3
		pad: 1
		stride: 1
		weight_filler {
			type: "guassian"
			std: 0.01
		}
		bias_filler {
			type: "constant"
		}
	}
}

layer {
	bottom: "res1b"
	top: "res1b"
	name: "res1b_bn"
	type: "BNData"
	param {
		lr_mult: 1
		decay_mult: 0
	}
	param {
		lr_mult: 1
		decay_mult: 0
	}
	param {
		lr_mult: 0
		decay_mult: 0
	}
	param {
		lr_mult: 0
		decay_mult: 0
	}
	bn_param {
		scale_filler {
			type: "constant"
			value: 1
		}
		shift_filler {
			type: "constant"
			value: 0
		}
		moving_average: true
		decay: 0.05
	}
}

layer {
	bottom: "res1b"
	top: "res1b"
	name: "res1b_relu"
	type: "ReLU"
}

layer {
	bottom: "res8c2"
	bottom: "res1b"
	top: "res8d"
	name: "res8d_concat"
	type: "Concat"
	concat_param {
		axis: 1
	}
}

layer {
	bottom: "res8d"
	top: "res9a"
	name: "res9a_conv"
	type: "ConvolutionData"
	param {
		lr_mult: 1
		decay_mult: 1
	}
	param {
		lr_mult: 2
		decay_mult: 0
	}
	convolution_param {
		num_output: 64
		kernel_size: 3
		pad: 1
		stride: 1
		weight_filler {
			type: "guassian"
			std: 0.01
		}
		bias_filler {
			type: "constant"
		}
	}
}

layer {
	bottom: "res9a"
	top: "res9a"
	name: "res9a_bn"
	type: "BNData"
	param {
		lr_mult: 1
		decay_mult: 0
	}
	param {
		lr_mult: 1
		decay_mult: 0
	}
	param {
		lr_mult: 0
		decay_mult: 0
	}
	param {
		lr_mult: 0
		decay_mult: 0
	}
	bn_param {
		scale_filler {
			type: "constant"
			value: 1
		}
		shift_filler {
			type: "constant"
			value: 0
		}
		moving_average: true
		decay: 0.05
	}
}

layer {
	bottom: "res9a"
	top: "res9a"
	name: "res9a_relu"
	type: "ReLU"
}

layer {
	bottom: "res9a"
	top: "res9b"
	name: "res9b_conv"
	type: "ConvolutionData"
	param {
		lr_mult: 1
		decay_mult: 1
	}
	param {
		lr_mult: 2
		decay_mult: 0
	}
	convolution_param {
		num_output: 256
		kernel_size: 1
		pad: 0
		stride: 1
		weight_filler {
			type: "guassian"
			std: 0.01
		}
		bias_filler {
			type: "constant"
		}
	}
}

layer {
	bottom: "res9b"
	top: "res9b"
	name: "res9b_bn"
	type: "BNData"
	param {
		lr_mult: 1
		decay_mult: 0
	}
	param {
		lr_mult: 1
		decay_mult: 0
	}
	param {
		lr_mult: 0
		decay_mult: 0
	}
	param {
		lr_mult: 0
		decay_mult: 0
	}
	bn_param {
		scale_filler {
			type: "constant"
			value: 1
		}
		shift_filler {
			type: "constant"
			value: 0
		}
		moving_average: true
		decay: 0.05
	}
}

layer {
	bottom: "res9b"
	top: "res9b"
	name: "res9b_relu"
	type: "ReLU"
}

layer {
	bottom: "res9b"
	top: "res9c"
	name: "res9c_conv"
	type: "ConvolutionData"
	param {
		lr_mult: 1
		decay_mult: 1
	}
	param {
		lr_mult: 2
		decay_mult: 0
	}
	convolution_param {
		num_output: 1
		kernel_size: 1
		pad: 0
		stride: 1
		weight_filler {
			type: "guassian"
			std: 0.01
		}
		bias_filler {
			type: "constant"
		}
	}
}

layer {
	bottom: "res9c"
	top: "heatmap"
	name: "heatmap_relu"
	type: "ReLU"
}

layer {
	bottom: "heatmap"
	bottom: "label3"	
	top: "loss"
	type: "EuclideanLoss"
	name: "loss"
}


